model.pth (torch, 250111 bytes, 10 tensors)

weight f4 [6, 3, 5, 5]
0	0x3cbabcac	0.022795044
1	0xbd457cd6	-0.048214756
2	0x3d01b83e	0.031669848
3	0xbd238d7f	-0.039929863
4	0xbda17cc9	-0.07885129
5	0xbd1b5011	-0.037918154
6	0x3db82e08	0.08993155
7	0x3ca1d4bb	0.019754758
8	0x3d07a052	0.033111878
9	0xbd17b587	-0.037038352
10	0xbd8e5759	-0.06950254
11	0xbdcc7d0c	-0.09984788
12	0xbd90f1c0	-0.0707736
13	0xbd81d3c8	-0.06339222
14	0x3d453d8b	0.048154395
15	0xbd48a385	-0.04898407
16	0xbd01ef21	-0.03172219
17	0xbcb7bba3	-0.02242834
18	0xbda5026f	-0.08057105
19	0xbbf728c2	-0.0075427005
20	0xbdeb53e0	-0.11490607
21	0x3c60fce0	0.013732165
22	0xba9e973c	-0.0012099515
23	0xbd76ef92	-0.060287066
24	0xbcb24614	-0.021761931
25	0xbcc268f7	-0.023731692
26	0x3cf89da8	0.030348614
27	0xbdb3d138	-0.0878014
28	0x3c8bda4d	0.017071867
29	0xbc8171ea	-0.015801389
30	0x3d805fdd	0.062682845
31	0xbdb7c519	-0.0897314
32	0xbc9a2729	-0.018817501
33	0x3d030fec	0.031997606
34	0xbccb65ad	-0.024828756
35	0xbd21d8e9	-0.039513502
36	0x3c624dee	0.013812525
37	0xbb3f8add	-0.0029227056
38	0x3c9b5d65	0.018965432
39	0x3c3dfdc3	0.011596146
40	0xbdbe5841	-0.09294177
41	0xbcf222ce	-0.029557612
42	0xbc6cdabf	-0.01445645
43	0xbd66df4b	-0.056365293
44	0xbcf3001d	-0.02966314
45	0xbd21268e	-0.03934341
46	0xbbc66614	-0.006054649
47	0x3bdad310	0.0066779926
48	0xbc2e2920	-0.010629922
49	0xbd70878b	-0.058723014
50	0xbd7eda65	-0.062219996
51	0xbc9ab629	-0.018885689
52	0x3d07c2f5	0.03314491
53	0xbd6940f4	-0.05694671
54	0xbc9a9b9c	-0.018873028
55	0xbbeb7250	-0.007185258
56	0x3cdb15d5	0.026743809
57	0xbd32265d	-0.043493617
58	0xbd664b9e	-0.056224458
59	0x3d878a67	0.06618195
60	0xbe0cb86e	-0.1374223
61	0xbcdaf64b	-0.02672877
62	0xbcc01a48	-0.023450032
63	0x3c9274e1	0.017877998
64	0xbc979583	-0.01850391
65	0xbd5482ad	-0.051882435
66	0xbc544f37	-0.012958339
67	0xbd3a7c85	-0.045528907
68	0xbcc9346b	-0.024561128
69	0x3d22549a	0.039631464
70	0xbd4afd67	-0.04955807
71	0xbd90733e	-0.07053231
72	0x3d1dbd65	0.0385107
73	0xbd5015b6	-0.050801955
74	0x3bbcedd3	0.0057656555
75	0x3d4bcbf7	0.049755063
76	0xb93ad350	-0.00017817062
77	0x3d55356f	0.05205291
78	0x3d4d0931	0.050057594
79	0x3c3f82b2	0.011688875
80	0xbc227017	-0.00991442
81	0xbd90b1cd	-0.07065163
82	0xbd511998	-0.0510498
83	0xbd2445ab	-0.040105503
84	0x3c92b8a3	0.017910307
85	0xbd69a2eb	-0.057040136
86	0xbdbac75e	-0.091200575
87	0x3da5aa97	0.08089178
88	0x3d9021a3	0.07037666
89	0xbcad40d6	-0.02114908
90	0x3ad3f8d2	0.0016172177
91	0x3d1a5051	0.037674252
92	0xbd3dadc1	-0.046308283
93	0x398d0380	0.00026896223
94	0xbb91f216	-0.0044539077
95	0x3da1cef8	0.07900804
96	0x3d79d26e	0.060991697
97	0x3d643318	0.05571279
98	0x3c49ed3d	0.012324628
99	0x3d05baf8	0.03264901
100	0x3d1e4875	0.03864332
101	0x3d6b280c	0.05741124
102	0xbc13a80e	-0.009012235
103	0xbd40b47c	-0.047047123
104	0x3d4c34f6	0.049855195
105	0xbd9aed35	-0.07564775
106	0x3da14847	0.07875114
107	0xbbf37a48	-0.0074303485
108	0xbc562ec5	-0.013072674
109	0x3d59b23f	0.053148504
110	0xbd51a8af	-0.05118626
111	0x39c0c144	0.00036765088
112	0x3d473d59	0.04864249
113	0x3cf5972f	0.029979317
114	0xbd94ddbe	-0.072688565
115	0xbd760600	-0.060064316
116	0xbd52a883	-0.051430237
117	0x3cc11cf4	0.023573376
118	0xbc95b287	-0.018273605
119	0x3c37bd40	0.011214554
120	0x3a67e948	0.00088467123
121	0xbbbf8df3	-0.005845779
122	0xbb626aa4	-0.0034548426
123	0xbd527a7b	-0.051386338
124	0xbcb9cfb2	-0.022682045
125	0x3d5b8d49	0.053601537
126	0xbc924cb1	-0.017858835
127	0xbd3c997c	-0.04604481
128	0x3d303bec	0.043025896
129	0x3d19f8a7	0.03759065
130	0xbc8120ff	-0.015762804
131	0xbcbab606	-0.022791874
132	0x3dd69fa8	0.10479671
133	0x3cc5ad1b	0.024130395
134	0xbc098abd	-0.008394894
135	0x3d835a37	0.064136915
136	0xbba67bf0	-0.0050806925
137	0x3d6ad823	0.05733503
138	0x3ac04322	0.0014668445
139	0x3b1d8c74	0.0024040015
140	0x39bffb48	0.00036617578
141	0x3ce8ae1a	0.02840333
142	0xbc38ecb2	-0.011286901
143	0x3ceb20ec	0.028702222
144	0xbab930e3	-0.0014128949
145	0x3d813223	0.06308391
146	0x3bd42485	0.00647408
147	0xbc2df8e3	-0.010618421
148	0xbbb5e60e	-0.0055511063
149	0x3ce5216b	0.027970036
150	0x3a672bc4	0.0008818472
151	0x3c5c94f1	0.013463245
152	0x3d5436f5	0.051810224
153	0x38b80d00	8.776225e-05
154	0xbdc53604	-0.09629443
155	0x3d4dfb4e	0.05028849
156	0x3ce2bc9a	0.027677823
157	0x3c8c3019	0.017112778
158	0x3d86f48f	0.065896146
159	0xbc85ee1a	-0.016348887
160	0x3cfc04d0	0.030764014
161	0xbbf9b9e2	-0.007621036
162	0xbca324aa	-0.019914944
163	0xbc6161a6	-0.013756191
164	0x3daeeff5	0.08541862
165	0xbd35eb4e	-0.044413857
166	0x3c69e428	0.014275588
167	0xbcd9ee90	-0.026603013
168	0xbd1f4064	-0.038879767
169	0x3c01d248	0.00792367
170	0xbab5c864	-0.0013868925
171	0xbdbcaaad	-0.09212241
172	0xbde1c1cd	-0.11023293
173	0xbcbdae3a	-0.023154367
174	0xbd362f47	-0.04447868
175	0x3bf50f7a	0.0074786516
176	0x3d36d57e	0.044637196
177	0xbca4fb2d	-0.020139301
178	0x3c2449ed	0.010027391
179	0xbc947170	-0.018120497
180	0xba9caf7c	-0.0011954154
181	0x3cc588c0	0.024113059
182	0xbb9816e5	-0.004641401
183	0x3c0e92ba	0.0087019745
184	0xbbda12b1	-0.00665506
185	0xbdc3fcf6	-0.09569733
186	0x3d9e32c0	0.077245235
187	0x3c66a1d2	0.014076667
188	0x3cb1ce78	0.021704897
189	0x3c1e6398	0.0096673
190	0xbc217d88	-0.009856589
191	0x3a717964	0.0009211509
192	0xbda21207	-0.07913595
193	0xbd38dc01	-0.045131687
194	0xbd501f39	-0.050811026
195	0x3d85370f	0.06504642
196	0xbd1f76c5	-0.038931627
197	0xbd6695b7	-0.056295123
198	0xbd563850	-0.052299798
199	0xbcebf552	-0.028803501
200	0xbca90b1e	-0.020635184
201	0xbc1b4ac8	-0.009478278
202	0x3ddbab42	0.10726024
203	0x3c88e664	0.016711421
204	0xbd059208	-0.03260997
205	0xbc2cd3a3	-0.010548505
206	0x3d47c474	0.048771337
207	0x3d389edc	0.045073375
208	0x3d41e9d5	0.04734214
209	0xbc7430ed	-0.014904243
210	0x3d0d3e66	0.034483336
211	0x3d331d82	0.043729313
212	0x3c6122d0	0.01374121
213	0x3c1b47f1	0.009477601
214	0xbb9b7c85	-0.0047450685
215	0xbdcdd4ca	-0.10050352
216	0xbc5f2354	-0.013619263
217	0x3d7fff5e	0.062499397
218	0xbd475bf3	-0.048671674
219	0x3c739fc3	0.014869633
220	0xbd001417	-0.03126916
221	0xbd02887a	-0.031868435
222	0xbd9a67b4	-0.07539311
223	0xbcb2f2c2	-0.021844272
224	0xbcbde773	-0.023181653
225	0x3d5815a1	0.052755002
226	0xbba2f8b7	-0.004973497
227	0xbdd68a67	-0.10475617
228	0x3d037bee	0.03210061
229	0x3d43e188	0.047822505
230	0xbc06eedc	-0.008235659
231	0xbd861317	-0.0654661
232	0xbd4ec3c2	-0.050479658
233	0xbcee3867	-0.02907963
234	0xbd3d7f8f	-0.046264227
235	0xbd94d09f	-0.07266354
236	0xbdb3335b	-0.0875003
237	0xbd37b688	-0.04485181
238	0xbda5533f	-0.080725186
239	0xbd3c7a0f	-0.04601484
240	0xbb898b23	-0.0041974946
241	0xbd82527b	-0.06363388
242	0xbd759bac	-0.059962913
243	0xbb0bdfb6	-0.002134306
244	0xbc889e36	-0.016677003
245	0x3cc621b4	0.024185993
246	0x3ceafb5e	0.028684314
247	0x3b68b94b	0.0035510834
248	0xbca5071e	-0.020144995
249	0xbd7a4f35	-0.061110694
250	0xbcd3db4f	-0.02586141
251	0xbdaa8b28	-0.08327323
252	0xbd651759	-0.05593047
253	0xbd58b7d8	-0.052909702
254	0xbd64b0f0	-0.055832803
255	0x3c56609f	0.01308456

bias f4 [6]
0	0x3bd7982a	0.0065794187
1	0xbcd3c511	-0.025850805
2	0x3d0a9875	0.0338368
3	0xbd04a900	-0.032387733
4	0xbd000fb4	-0.031264976
5	0xbdc10db0	-0.09426439

weight f4 [16, 6, 5, 5]
0	0x3d07c2d0	0.033144772
1	0x3cfbfb77	0.030759556
2	0x3d9ce683	0.07661154
3	0x3ccf418f	0.025299815
4	0x3ba5c5da	0.005058986
5	0xbd7e36da	-0.06206403
6	0x3c88158b	0.016611835
7	0x3d547bb0	0.05187577
8	0xbbe4c17c	-0.006981073
9	0x3c05f099	0.008175039
10	0xbd21b30a	-0.039477386
11	0x3d23df73	0.04000802
12	0x3d0bd5fd	0.034139622
13	0x3c8931f4	0.016747452
14	0x3cb89dcd	0.022536183
15	0xbd1b37ca	-0.037895
16	0xb9f77fd8	-0.00047206762
17	0xbbd76206	-0.0065729646
18	0xbc92b3fd	-0.01790809
19	0x3d07e3ec	0.033176348
20	0x3c93dd7e	0.018049952
21	0x3ce13f80	0.0274961
22	0x3da98a09	0.08278281
23	0x3d033bfc	0.032039627
24	0x3d4c31a1	0.049852017
25	0x3c54d807	0.012990958
26	0xbd791c29	-0.06081787
27	0xbc4d240c	-0.012520801
28	0x3b82e8d2	0.0039950395
29	0xbc9201a9	-0.017823057
30	0xbc4bd2d0	-0.012440398
31	0xbd5421a7	-0.051789906
32	0xbc4ba3a6	-0.012429154
33	0xbbd763b1	-0.0065731634
34	0x3b7d78a6	0.0038676648
35	0xbd493149	-0.049119268
36	0x3b05fd56	0.002044519
37	0x3cd8b1ec	0.026452027
38	0xbd481e66	-0.048857115
39	0xbc636f54	-0.013881523
40	0x3d2f6466	0.042820357
41	0xbc195b2c	-0.009360116
42	0xbd42ec10	-0.047588408
43	0xbd5b25b3	-0.05350275
44	0xbb86501e	-0.004098906
45	0xbd8f7b40	-0.0700593
46	0xbd26b97e	-0.040704243
47	0xbd870c87	-0.06594186
48	0xbd66129e	-0.0561701
49	0x3cf206ca	0.029544253
50	0xbd3b49ae	-0.045724563
51	0xbc806fd6	-0.015678328
52	0xbc78a4bf	-0.015175997
53	0x3c50d8e5	0.012747024
54	0xbb9e01da	-0.004821998
55	0x3bdce010	0.0067405775
56	0x3c113afb	0.00886416
57	0xbd4b835e	-0.04968583
58	0xbd66a6bd	-0.056311358
59	0x3cc622a1	0.024186434
60	0xbd807afc	-0.062734574
61	0xbd144801	-0.03620148
62	0xbbfa56a5	-0.0076397234
63	0x3aaabd70	0.0013026427
64	0x3ce3535c	0.02774971
65	0x3d333c40	0.04375863
66	0xbd43d882	-0.0478139
67	0xbd1dc0eb	-0.03851406
68	0x3d638bdc	0.055553302
69	0xbc809957	-0.015698118
70	0xbca04abb	-0.019566884
71	0x3cf708cf	0.030155567
72	0x3c2b33f7	0.010449401
73	0xbd594590	-0.053044856
74	0x3cf38541	0.029726626
75	0x3d1cee1f	0.038313027
76	0x3c13727b	0.008999462
77	0x3ca29f87	0.01985146
78	0x3c32df1e	0.010917453
79	0x3aee70f1	0.0018191618
80	0x3d233a86	0.039850734
81	0x3d3b84e3	0.045781028
82	0xbc86d839	-0.016460525
83	0x3d4f96a5	0.050680775
84	0xbc8d58f7	-0.017254336
85	0x3ca163c1	0.019700887
86	0x3b1a3c84	0.0023534605
87	0x3d8a19da	0.06743212
88	0x3b5146fc	0.003193318
89	0x3cabd936	0.020977598
90	0x3d3e7b99	0.04650459
91	0x3d1c5810	0.03816992
92	0x3ce6fb58	0.028196022
93	0x3d977dce	0.07397042
94	0x3c8c2f88	0.017112508
95	0x3d96eb48	0.07369095
96	0x3b2a74a2	0.002600946
97	0x3cc13fa4	0.023589917
98	0x3d786e35	0.060651977
99	0x3c3f6ab3	0.011683154
100	0x3c708dc9	0.014682242
101	0xbbb85a50	-0.0056260005
102	0xbd4d07d7	-0.050056305
103	0xbca07009	-0.019584673
104	0xbc27b955	-0.010237058
105	0xbb1efe68	-0.0024260525
106	0xbd4d4781	-0.05011702
107	0xbd1552f4	-0.036456063
108	0x3c81ebaa	0.015859444
109	0xbc83f0b2	-0.016105983
110	0x3d395c51	0.045254055
111	0x3a8c2bca	0.0010694203
112	0x3bf39026	0.0074329553
113	0xbc413dc9	-0.011794516
114	0x3cfe2f5d	0.031028444
115	0xbcbba5cc	-0.022906207
116	0x3d0f12d0	0.03493005
117	0xbcc76e92	-0.024344716
118	0x3b86ecc6	0.004117581
119	0xbb3a5570	-0.0028432272
120	0xbd186743	-0.037207853
121	0x3d113cfc	0.03545855
122	0xbc31edda	-0.010859931
123	0xbd974b8e	-0.07387458
124	0xbc5558cd	-0.01302166
125	0xbd51e3f3	-0.05124278
126	0x3ba871d0	0.0051405206
127	0xbc26bd4f	-0.010176971
128	0xbb3a2c7b	-0.002840786
129	0xbce4d546	-0.027933728
130	0xbcdee51f	-0.027208863
131	0xbc0a58a6	-0.008443987
132	0x3aa70e96	0.0012745436
133	0xbb737dd8	-0.0037153866
134	0xbc5c179c	-0.013433363
135	0xbc85bd74	-0.01632569
136	0xbd325e35	-0.043546874
137	0x3c132b9d	0.008982566
138	0xbbb46b32	-0.0055059427
139	0xbcb4f85a	-0.02209108
140	0xbccfa0ed	-0.02534529
141	0xbd7d8aee	-0.06190007
142	0x3c7fb4ec	0.0156071
143	0xbcaa7101	-0.020805838
144	0xbd6eca0e	-0.058298163
145	0xbc8d8248	-0.017274037
146	0xbc03e860	-0.008051008
147	0xbca76f70	-0.02043888
148	0xbc05193a	-0.00812369
149	0x3c3fcbbc	0.011706289
150	0xbcbdb1db	-0.023156097
151	0xbda7a069	-0.08184893
152	0xbccb1262	-0.024789039
153	0xbd3ce774	-0.04611917
154	0xbd8b2117	-0.06793421
155	0xba9e13d4	-0.0012060353
156	0xbc017386	-0.007901078
157	0x3d387f4a	0.045043267
158	0xbd4c10a2	-0.04982055
159	0xba546c80	-0.0008103326
160	0xbd396338	-0.045260638
161	0xbcaff167	-0.021477414
162	0xbce96e4b	-0.028494975
163	0x3d5d798d	0.054070998
164	0x3cace6fc	0.021106236
165	0xbcabaf60	-0.020957649
166	0xbbceceab	-0.006311258
167	0x3d17bedb	0.03704725
168	0x3c0978e9	0.008390644
169	0xbbcf7f3f	-0.0063323076
170	0xbcfd93bc	-0.030954234
171	0xbceef13b	-0.029167762
172	0xbb3a14c0	-0.0028393716
173	0x3cdfca6b	0.0273182
174	0x3cafa01f	0.021438656
175	0xbd27b157	-0.04094061
176	0xbd30eb26	-0.043193005
177	0x3be97711	0.0071247895
178	0xbda92180	-0.08258343
179	0x3b14216e	0.0022602933
180	0xbd4fdb2f	-0.05074614
181	0xbc7d8905	-0.0154745625
182	0xbcf79144	-0.030220635
183	0xbca2250f	-0.019793062
184	0xbd95816d	-0.07300077
185	0xbca3d461	-0.019998731
186	0xbd832ea3	-0.064053796
187	0xbd107884	-0.035271183
188	0xbd9a61b6	-0.07538168
189	0xbd5f3655	-0.054495174
190	0xbcdd15cf	-0.026987938
191	0xbd020691	-0.031744543
192	0xbc9f5917	-0.019451661
193	0xbcc47f3f	-0.023986457
194	0x3ba4c882	0.005028785
195	0x3bfcf566	0.0077196835
196	0xbcf3bc89	-0.029752987
197	0x3cfee6ea	0.031115968
198	0x3c59f62f	0.013303324
199	0x3c5d4a40	0.013506472
200	0x3cc7a285	0.024369488
201	0x3c8aa869	0.016926007
202	0xbd59b620	-0.053152204
203	0xbd0af8f2	-0.03392882
204	0xbc0e7043	-0.0086937575
205	0xbc181740	-0.009282887
206	0xbd995802	-0.07487489
207	0xbc89295b	-0.016743353
208	0xbccfa61b	-0.02534776
209	0xbd20eca6	-0.039288186
210	0xbb8e8394	-0.0043491814
211	0x3ca8f9cb	0.020626923
212	0xbd8ace30	-0.067776084
213	0xbd6adb3d	-0.05733799
214	0xbd222d42	-0.039593942
215	0xbcaa61c2	-0.020798568
216	0x3c7ada5b	0.015310849
217	0xbd578758	-0.05261931
218	0xbcb02186	-0.02150036
219	0xbc5fe5bc	-0.013665613
220	0xbcc95c5c	-0.024580173
221	0xbd23ba96	-0.039972864
222	0xbc77ee73	-0.015132534
223	0xbd0087fc	-0.031379685
224	0x3cc80a41	0.024418952
225	0xbbe85376	-0.0070900274
226	0xbd25de97	-0.04049548
227	0x3d13004f	0.035888966
228	0xbcc06dee	-0.023489919
229	0x3cab569f	0.020915328
230	0xbd446fb3	-0.047958087
231	0xbd33940e	-0.043842368
232	0xbd62d1a1	-0.0553757
233	0xbc165518	-0.009175561
234	0xbd3bced1	-0.045851532
235	0xbcab63df	-0.020921646
236	0x3d330469	0.043705378
237	0xbca90668	-0.020632938
238	0xbc6db05c	-0.014507379
239	0x3d072586	0.03299477
240	0xbd6b8312	-0.057498045
241	0x3ce0ab3e	0.027425405
242	0xbbc3717d	-0.0059644566
243	0xbbd2acd6	-0.006429295
244	0xbc92db02	-0.017926697
245	0xbc7d56b9	-0.015462571
246	0xbce886ab	-0.028384527
247	0xbd16d24d	-0.036821652
248	0xbd6f75d0	-0.058461964
249	0x3d5536cf	0.052054223
250	0xbcb8b844	-0.022548802
251	0x3c5a01e8	0.013306119
252	0x3cb36f93	0.021903789
253	0xbc52ff5a	-0.012878263
254	0x3bc5d4ee	0.006037346
255	0x3c8a5d26	0.01689012

bias f4 [16]
0	0x3cf9bf9a	0.03048687
1	0xbd38ad50	-0.04508716
2	0xbd734528	-0.059392124
3	0x3aaa329b	0.0012985052
4	0xbc4d2ed0	-0.012523368
5	0xbd8d4ab7	-0.06899016
6	0xbc60612d	-0.0136950435
7	0xbc109054	-0.008823473
8	0xbbd9e2ac	-0.006649336
9	0xbcfb26ec	-0.030658208
10	0x3b39b04a	0.0028333836
11	0x3d801fcd	0.062560655
12	0xbbfb2879	-0.007664737
13	0xbd7ca29c	-0.061678514
14	0xbd833fa9	-0.064086266
15	0xbd92f454	-0.07175508

weight f4 [120, 400]
0	0x3bd3d13f	0.006464153
1	0xbc84ee71	-0.016226979
2	0x39952840	0.00028449483
3	0xbbff1cc4	-0.0077854116
4	0x3d201862	0.039085753
5	0x3ade80c4	0.0016975631
6	0x3c821f16	0.015883964
7	0xbb6e2d42	-0.0036342894
8	0xbbe335bb	-0.0069338954
9	0x3ca42c21	0.020040574
10	0x3c6385c0	0.013886869
11	0x3c044848	0.008073874
12	0xbc48a50b	-0.012246381
13	0x3bb8ac87	0.0056358012
14	0xbc43da89	-0.011953958
15	0xbbfac589	-0.0076529426
16	0xbc82e836	-0.015979867
17	0x3c6f1592	0.014592545
18	0xb8a1d3c0	-7.71652e-05
19	0x3c434891	0.011919157
20	0x3c515356	0.0127762165
21	0x3c91cc51	0.017797621
22	0x3ca3f4d7	0.02001421
23	0x3c22ff82	0.009948613
24	0x3c6ade18	0.014335178
25	0xbd155745	-0.03646018
26	0x3c1e6c10	0.009669319
27	0xbc7795d4	-0.015111405
28	0x3c2376a8	0.00997702
29	0x3b662128	0.0035114978
30	0xbc7f457c	-0.015580531
31	0xbca0d5d7	-0.019633217
32	0x3c5ff19d	0.013668445
33	0xbcbc7346	-0.023004185
34	0x3b9ddcbc	0.0048175734
35	0xbcec9940	-0.028881669
36	0xb91c2450	-0.00014890847
37	0xbad16eec	-0.0015978492
38	0xbc04d64b	-0.008107732
39	0x3cc17e04	0.02361966
40	0xbc543cbf	-0.012953936
41	0xbab3b28a	-0.0013709825
42	0xbcc93255	-0.024560133
43	0xbca6d17c	-0.020363562
44	0x3bad5c52	0.0052905465
45	0xbbb84459	-0.005623382
46	0x3c959403	0.018259054
47	0x3cc25784	0.023723371
48	0x3c3e07bc	0.011598524
49	0xbbc2e811	-0.0059480746
50	0x3a1bc6f8	0.00059424294
51	0x3c1d1b9b	0.009589101
52	0xba0afd8a	-0.00053020625
53	0xbbf3031b	-0.0074161417
54	0xbc0b1db4	-0.0084909685
55	0x3ba6929a	0.0050833942
56	0x3cec8aba	0.028874744
57	0x3c4e54e8	0.012593485
58	0x3bba40fd	0.0056840167
59	0x3ca13e91	0.019683154
60	0x3d0bc52c	0.034123585
61	0x3cb82ad6	0.022481363
62	0xbc09422c	-0.008377593
63	0xbc5aaa87	-0.013346321
64	0x3c64dded	0.013968927
65	0x3bbf8f37	0.00584593
66	0x3c71ccc8	0.014758296
67	0xbc2e47c8	-0.010637231
68	0x3c5b2e80	0.013377786
69	0x3b7984f7	0.0038073638
70	0x3b73b80b	0.0037188556
71	0x3d0c9f16	0.034331404
72	0xbb62dff5	-0.0034618352
73	0x3cc16858	0.023609325
74	0x3b464798	0.0030255076
75	0x3cbdce91	0.023169788
76	0x3d29611f	0.041352388
77	0x3ca463fa	0.020067204
78	0x3d266531	0.040623847
79	0x3c8fe376	0.017564517
80	0x3d1ca403	0.03824235
81	0x3ce38e86	0.027777921
82	0x3d1d3cd5	0.038388092
83	0x3d54cbbd	0.051952112
84	0x3d4fcad8	0.050730556
85	0xb748cc80	-1.1968543e-05
86	0xbabbb28e	-0.0014320181
87	0xbbd2a87d	-0.006428777
88	0x3cbe08ea	0.02319761
89	0x3c915a1e	0.017743167
90	0xbbd7ddea	-0.0065877335
91	0x3d044695	0.032293875
92	0x3d3ff898	0.046867937
93	0x3ca5a489	0.020220058
94	0x3ca230cc	0.019798659
95	0x3cd10f6a	0.025520045
96	0x3ce24241	0.027619483
97	0x3ae3708c	0.0017352267
98	0x3cbed2ff	0.02329397
99	0x3cc76b3b	0.024343124
100	0xbcecabc0	-0.02889049
101	0xbc3b6828	-0.011438407
102	0xbd05d665	-0.032675166
103	0xbcc0bbb4	-0.023527004
104	0xbca7883c	-0.020450704
105	0xbc6daa92	-0.014505999
106	0xbc97ef6f	-0.018546788
107	0xbc4574cc	-0.012051772
108	0xbd65c119	-0.056092355
109	0xbd4db580	-0.05022192
110	0xbc896a6c	-0.016774379
111	0xbc812f43	-0.015769606
112	0xbc449d2a	-0.012000361
113	0xbc9fe0bb	-0.01951634
114	0xbcee509d	-0.029091174
115	0xbc9cc5fa	-0.019137371
116	0xbc1bea4a	-0.009516308
117	0xbc51666e	-0.012780769
118	0xbca914c0	-0.020639777
119	0xbc9052a2	-0.017617527
120	0xbd04757b	-0.0323386
121	0xbb898f36	-0.0041979803
122	0xbc9bfd25	-0.019041607
123	0xbc911fe5	-0.017715404
124	0x3acf3ed4	0.0015811571
125	0xbd0e6581	-0.03476477
126	0xbb2a001a	-0.0025940002
127	0x3cbf5226	0.023354601
128	0xbcf4c9e8	-0.029881433
129	0xbc8b4fc8	-0.017005816
130	0xbd372069	-0.044708643
131	0xbccc7e73	-0.02496264
132	0x3c21e392	0.009880917
133	0xbc349476	-0.011021724
134	0xbcd16fce	-0.025566008
135	0xbca74feb	-0.02042385
136	0xbc260e29	-0.010135212
137	0x3bdc62a0	0.006725624
138	0x3cc25deb	0.023726424
139	0x3bf57f1b	0.007491959
140	0xbc8ccc7f	-0.017187355
141	0x3c2c0502	0.010499241
142	0xbcea6748	-0.028613701
143	0xbc84ed69	-0.016226487
144	0x3c0fa9b0	0.008768484
145	0x3cac6b51	0.021047266
146	0xbd2cda43	-0.042200338
147	0xbd09e57a	-0.03366611
148	0xbd0533f5	-0.032520253
149	0x3ca14b2e	0.019689169
150	0x3c82ee8b	0.015982887
151	0x3d64d1e9	0.05586425
152	0x3c87eeb4	0.016593315
153	0x3c7467ed	0.014917356
154	0xbb2a74cb	-0.0026009555
155	0xbb0caec4	-0.0021466473
156	0x3c4bded8	0.012443267
157	0x3cb74093	0.022369659
158	0x3cfb61cd	0.030686283
159	0xbc7ce183	-0.015434626
160	0xbb532030	-0.003221523
161	0xba5b20ef	-0.00083590945
162	0x3d26210d	0.040558863
163	0x3cbd6820	0.02312094
164	0x3b0ea373	0.0021764904
165	0x3d0138cd	0.03154831
166	0x3b880d49	0.0041519743
167	0x3ccbbcf3	0.024870371
168	0x3cd94cd8	0.0265259
169	0x3c0f0973	0.00873028
170	0xbc662c2f	-0.01404862
171	0x3b9fe6ef	0.0048798244
172	0x3c6536d1	0.01399012
173	0x3c2ccf30	0.010547444
174	0x3c9b91c9	0.018990414
175	0xbc69c761	-0.014268727
176	0x3c5b3268	0.013378717
177	0xbc9fd55c	-0.019510917
178	0xbb2f78b0	-0.0026774816
179	0x3c3d9043	0.011570039
180	0xbc0c85c9	-0.008576819
181	0xbc743de8	-0.014907338
182	0x3cfefd9d	0.031126792
183	0xbca37bd9	-0.019956516
184	0xbb3c79bb	-0.002875908
185	0xbc5889f5	-0.013216485
186	0xbc93ecad	-0.018057192
187	0x3c75d7d9	0.015005075
188	0x3c57ce23	0.013171705
189	0xbbaf7c65	-0.005355405
190	0x3bc780c3	0.0060883476
191	0xbc0db658	-0.008649431
192	0xbc54d6a0	-0.012990624
193	0x3b910e9b	0.00442679
194	0x3c04c07d	0.008102533
195	0xba899865	-0.0010497688
196	0xbb9fe910	-0.004880078
197	0xbcbab46d	-0.022791112
198	0x3b976a58	0.0046208315
199	0x3c6975c4	0.014249269
200	0xbbde28c5	-0.0067797625
201	0xbd18681b	-0.037208658
202	0xbd303ef6	-0.043028794
203	0xbc56268e	-0.013070716
204	0xbd159104	-0.03651525
205	0x3ba97ceb	0.005172362
206	0xbbf68c08	-0.0075240172
207	0xbd57027e	-0.05249261
208	0xbbf7d22a	-0.0075628953
209	0xbbbf506e	-0.0058384454
210	0xbc1f70de	-0.0097314995
211	0xbd1b72be	-0.037951224
212	0x3c78dc78	0.015189283
213	0xba789744	-0.00094829896
214	0xbd0e0184	-0.034669414
215	0xbd39f5c5	-0.0454004
216	0xbd00ed50	-0.03147632
217	0xbaf45f0a	-0.0018644047
218	0xbb9e4c66	-0.0048308847
219	0x3c8eda27	0.017438008
220	0xbd07a03a	-0.03311179
221	0xbccfc04e	-0.025360253
222	0xbd0cf27e	-0.034410946
223	0xba4b5c94	-0.00077576307
224	0xbc86bf1e	-0.016448554
225	0x3d2e980b	0.04262547
226	0x3cc9e641	0.024645926
227	0x3c510c30	0.012759253
228	0xbcad7253	-0.021172678
229	0x3d035ba5	0.03206982
230	0xbbc4bebd	-0.006004183
231	0x3b84fe1b	0.004058612
232	0x3cc74a15	0.024327317
233	0xbb9bdee8	-0.004756797
234	0x3bce03ad	0.0062870593
235	0x3cc02668	0.023455814
236	0x3cdeafc1	0.027183415
237	0xbbe48533	-0.0069738864
238	0x3ca0df74	0.0196378
239	0xbb86e769	-0.0041169417
240	0xbcf742ff	-0.030183313
241	0x3c0cf280	0.008602738
242	0x3ccd944d	0.02509513
243	0xbb507a8b	-0.0031811323
244	0x3b694700	0.0035595298
245	0x3a6c8d0b	0.00090237026
246	0x3cec9083	0.028877502
247	0xbb8e3c3b	-0.004340676
248	0xbc35a92c	-0.011087697
249	0xbbbc62e0	-0.0057490915
250	0xbc98bad2	-0.01864377
251	0xbcb3d5f0	-0.0219526
252	0xb98ed228	-0.0002724093
253	0xbce774f6	-0.028254014
254	0x3c083974	0.008314479
255	0xbbc99356	-0.006151597

bias f4 [120]
0	0x3c13eac0	0.009028137
1	0xbd2202e5	-0.03955354
2	0xbd2a1df8	-0.041532487
3	0xbd0aa0a9	-0.033844624
4	0xbd19a3e5	-0.037509818
5	0x3aae3e56	0.0013293724
6	0x3aaa97c4	0.00130152
7	0x3b4a4acd	0.0030867339
8	0xbd1bf83b	-0.038078528
9	0x3ce9f7d4	0.028560556
10	0xbc38950f	-0.011266007
11	0xbd333bbf	-0.04375815
12	0x3c7fff4e	0.015624834
13	0xbc9efa8a	-0.019406576
14	0x3cf31a21	0.029675545
15	0xbcd36cf4	-0.025808789
16	0x3b0eca50	0.0021788068
17	0x3a02f3c0	0.0004995428
18	0xbd597083	-0.053085815
19	0x3c889d62	0.016676608
20	0xbd35dc33	-0.04439945
21	0x3bc43970	0.0059882924
22	0xbd25145d	-0.040302623
23	0x39d6ccc0	0.0004096981
24	0xbca09400	-0.019601822
25	0xbc881781	-0.01661277
26	0xbce38898	-0.027775094
27	0xbd2461a2	-0.040132172
28	0x3cd479e2	0.025937025
29	0xbd0ad1ca	-0.033891477
30	0x3bdc3352	0.006719985
31	0xbc36429a	-0.0111242775
32	0x3d165943	0.03670622
33	0x3c04ed7b	0.00811326
34	0xbcbd7228	-0.023125723
35	0xbcca48c2	-0.024692897
36	0xbcb8c799	-0.022556113
37	0x3c3f51f7	0.011677257
38	0x3b199718	0.0023436006
39	0xbb424244	-0.0029641548
40	0xbd4e406d	-0.05035441
41	0x3bad8b94	0.00529618
42	0x3b11dea0	0.002225794
43	0xbd23e62a	-0.040014423
44	0x3b4d62c8	0.0031339396
45	0xbc5604a0	-0.013062626
46	0xbab31e14	-0.001366558
47	0x3b43cf67	0.002987826
48	0x3d0541b6	0.03253337
49	0x3cc4c2aa	0.024018604
50	0xbd635fd9	-0.05551133
51	0x3b781140	0.0037852079
52	0x3c730742	0.014833273
53	0x3b68538b	0.0035450186
54	0x3d29de1d	0.04147159
55	0x3bc6e9cc	0.006070351
56	0x3c87837e	0.016542193
57	0xbcaef523	-0.021357125
58	0xbce1ec38	-0.027578458
59	0x3c3afb82	0.011412503
60	0xbbbe867c	-0.0058143716
61	0xbd19591a	-0.03743849
62	0x3c886b4b	0.016652724
63	0xbbd4960c	-0.0064876135
64	0xbc785e0f	-0.015159144
65	0xbc3a93e4	-0.011387799
66	0xbc6ae23b	-0.014336164
67	0xbd3de225	-0.046358246
68	0xbcd87095	-0.02642087
69	0xbd6c5ce1	-0.057705764
70	0x3d1663f7	0.036716428
71	0xbca2dcc5	-0.019880662
72	0xb95df4b8	-0.00021167367
73	0x3c54bf89	0.012985119
74	0x3bb2f6ec	0.0054615643
75	0xbc4d300c	-0.012523662
76	0xbc8fe5a1	-0.01756555
77	0x3c19ff5b	0.00939926
78	0x3ad14c13	0.0015968106
79	0x3d100aef	0.035166677
80	0xbbae9f9a	-0.0053290846
81	0x3bee26ef	0.007267825
82	0xbd776573	-0.060399484
83	0xbcfa627c	-0.03056454
84	0x3c974d20	0.018469393
85	0xbd10c7e7	-0.03534689
86	0xbc35643c	-0.011071261
87	0x3bbf5552	0.0058390284
88	0x3c0432e0	0.00806877
89	0xbc90c771	-0.017673226
90	0x3bd49705	0.0064877295
91	0x3c9999a6	0.018750023
92	0x3bcf7a85	0.006331744
93	0xbd498bb0	-0.049205482
94	0xbcbd0ef0	-0.023078412
95	0xbc4de8b5	-0.012567689
96	0xbbec7da2	-0.007217125
97	0x3c2f761b	0.010709311
98	0x3c92dfe3	0.017929023
99	0xbaf66776	-0.0018799144
100	0xbc7d29ca	-0.015451858
101	0xbd147e6a	-0.03625337
102	0x3d629f23	0.055327546
103	0xbd0302a5	-0.031984944
104	0xbc97b365	-0.01851816
105	0xbc869538	-0.016428575
106	0x3bd573a2	0.0065140286
107	0xbd05b212	-0.032640524
108	0xbb2d5217	-0.0026446634
109	0xbcf36d9b	-0.02971535
110	0xbd007a91	-0.03136689
111	0xbc2a2aa2	-0.010386141
112	0x3cc8d7c1	0.024516942
113	0x3cdd9182	0.027046923
114	0xbd1cc38f	-0.038272437
115	0xbcc45ddd	-0.023970539
116	0x3cb955d6	0.022623938
117	0x3bd2209a	0.006412578
118	0xbcbbf1cc	-0.022942446
119	0xbb0ff68c	-0.0021967022

weight f4 [84, 120]
0	0xbd2ae188	-0.04171899
1	0xbca07c38	-0.019590482
2	0x3b678796	0.0035328618
3	0xbc8e2b95	-0.017354766
4	0xbc0f1f00	-0.008735418
5	0x3bdefd20	0.006805077
6	0xbd0569e6	-0.032571696
7	0xbafd3483	-0.0019318018
8	0xbc708fd8	-0.0146827325
9	0x3ccc83b9	0.024965154
10	0x3b898671	0.004196935
11	0xbc784139	-0.015152269
12	0x3d4107e6	0.047126673
13	0xbd969f2e	-0.0735458
14	0xbcb1b780	-0.021693945
15	0x3bc99a6b	0.0061524413
16	0x3d15a3d0	0.036533177
17	0xbc6e9a52	-0.01456316
18	0xbcf21876	-0.02955268
19	0xbd062ad1	-0.032755677
20	0x3d18265c	0.037145957
21	0x3d2cc50a	0.0421801
22	0x3d0b5055	0.034012157
23	0x3da1da78	0.07902998
24	0xbd3ce957	-0.046120968
25	0xbba55ce3	-0.0050464734
26	0x3d6ae81d	0.057350267
27	0x3d020d0b	0.03175072
28	0x3cde636d	0.02714702
29	0xbcae2129	-0.021256046
30	0x3cc96cc7	0.024588002
31	0xbd2bea02	-0.041971214
32	0x3d267bfe	0.040645592
33	0xbd2941be	-0.041322462
34	0xbb51aed5	-0.0031995077
35	0x3cf55f46	0.029952656
36	0xbd03d065	-0.032181162
37	0xbccda07b	-0.025100937
38	0xbd4a3515	-0.04936703
39	0x3c0e03c1	0.008667887
40	0xbd262574	-0.04056306
41	0xba7a9f60	-0.0009560492
42	0x3c23a536	0.00998812
43	0xbd63c74b	-0.055609982
44	0xbbde7a60	-0.0067894906
45	0xbcf2ea80	-0.029652834
46	0x3b731632	0.0037092087
47	0x3d79d29d	0.060991872
48	0x3c0525b4	0.008126665
49	0x3bab0bc6	0.0052199094
50	0xbcbfc6c3	-0.023410207
51	0xbd39cfdf	-0.045364257
52	0xbd892da3	-0.06698158
53	0xbd619a51	-0.05507881
54	0x3d95f223	0.073215745
55	0xbbb9605a	-0.005657238
56	0xbd2002f2	-0.03906531
57	0x3a7af4b8	0.0009573209
58	0xbcae9b82	-0.021314386
59	0xbbac1b71	-0.0052522947
60	0x3b53c748	0.0032314826
61	0x3c4e4de9	0.012591817
62	0xbb7c2c66	-0.0038478612
63	0xbcee3baf	-0.029081194
64	0x3c28943c	0.010289248
65	0x3c332da4	0.010936175
66	0x3c9483d8	0.018129274
67	0x3c6705df	0.014100521
68	0xbcab0033	-0.020874118
69	0xbcfc7bd1	-0.030820759
70	0xbd214be3	-0.03937901
71	0xb8b03540	-8.4022526e-05
72	0xbc6b45c5	-0.014359896
73	0x3d3be7f1	0.045875493
74	0x3ba72382	0.0051006684
75	0xbca0d8d4	-0.019634642
76	0xbd78b998	-0.06072387
77	0x3d0572e5	0.032580275
78	0x3cfb1a2c	0.030652128
79	0xbcd276d2	-0.025691424
80	0x3cc095ad	0.023508871
81	0x3c49b6aa	0.012311617
82	0x3d2e48b8	0.04254982
83	0xbd342979	-0.043984864
84	0x3bee3325	0.0072692805
85	0xbc60160c	-0.013677131
86	0xbd2cfc1d	-0.04223262
87	0x3d0ec906	0.03485968
88	0x3c36dc49	0.0111609185
89	0xb7eff720	-2.8606097e-05
90	0x3d7fa77d	0.06241559
91	0xba686040	-0.000886444
92	0xbc0d6940	-0.008631051
93	0x3cd54960	0.026035964
94	0x3d805359	0.06265897
95	0xbbda2cd9	-0.0066581783
96	0x3c082070	0.008308515
97	0x3bb1b079	0.0054226485
98	0xbc92fbaf	-0.017942278
99	0x3ce5fa65	0.028073499
100	0x3cc0f238	0.023552999
101	0xbbc21a7e	-0.0059235683
102	0xbc25cb48	-0.010119267
103	0xbc72ff54	-0.014831383
104	0x3d2823cf	0.041049775
105	0x3cea211e	0.028580245
106	0xbcf6caa3	-0.030125922
107	0x3d241734	0.04006119
108	0x3c40365b	0.011731709
109	0xbaca3ebe	-0.0015430076
110	0x3bf0a40c	0.0073437747
111	0xbb2b99c0	-0.0026184171
112	0xbcc4ddde	-0.024031576
113	0x3b989ca1	0.0046573435
114	0x3c3e4a52	0.011614399
115	0xbc96de52	-0.018416557
116	0xbd1826d6	-0.03714641
117	0x3d94c62b	0.0726436
118	0xbd0d6cf1	-0.034527723
119	0xbbf769c0	-0.007550448
120	0x3cf3181d	0.029674584
121	0x3a7cb4db	0.00096399867
122	0x3cb021bd	0.021500463
123	0xbcdeb004	-0.02718354
124	0xbd1d4c7f	-0.03840303
125	0xbd5ac293	-0.053408217
126	0x3cd46e8d	0.025931621
127	0xbd96c178	-0.0736112
128	0xbd02a483	-0.03189517
129	0x3a45f4cc	0.0007551431
130	0xbd3c9561	-0.046040896
131	0xbd42236d	-0.047397066
132	0xbc7abc6c	-0.015303712
133	0xbbc4ad4e	-0.006002105
134	0x3d8c32f7	0.06845658
135	0x3d0e34e9	0.034718428
136	0xbd7685a8	-0.06018606
137	0xbca017cf	-0.019542603
138	0x3d40b600	0.04704857
139	0xbd1f29e5	-0.038858313
140	0x3d23c9d2	0.039987393
141	0x3c8ab40e	0.01693156
142	0xbd9d2ef1	-0.07674969
143	0x3d2041ff	0.03912544
144	0xbc77da51	-0.015127734
145	0xbd85569e	-0.065106615
146	0x3c1df26d	0.009640318
147	0x3d48fcbc	0.04906915
148	0xbcf87b9d	-0.03033238
149	0x38df1560	0.0001063745
150	0xbc93ab36	-0.018025976
151	0xbd1d78e8	-0.038445383
152	0xbd028aaa	-0.03187052
153	0xbb1fafeb	-0.002436633
154	0x3d1f1a14	0.03884323
155	0x3d0f5473	0.034992646
156	0x3b87019c	0.004120065
157	0x3c0c04c1	0.008546055
158	0xbd032548	-0.032017976
159	0xbd6ae08d	-0.057343055
160	0x3d055137	0.032548156
161	0x3c6a9272	0.014317142
162	0x3c31643e	0.010827122
163	0x3bb66f23	0.0055674477
164	0x3d40c2aa	0.047060646
165	0x3bc90f10	0.006135829
166	0xbd1f4e99	-0.038893316
167	0xbc04a32e	-0.008095546
168	0x3cfe4b7e	0.031041857
169	0xbc691eda	-0.014228547
170	0x3bc550de	0.006021603
171	0x3ae95afc	0.0017803605
172	0xbd084f78	-0.033278912
173	0xbc6576c0	-0.014005363
174	0x3c94dc1b	0.01817136
175	0xbd02a53e	-0.03189587
176	0xbc7006ec	-0.014650088
177	0xbd35ad0a	-0.044354476
178	0xbd1dc6f2	-0.038519807
179	0xbd1104da	-0.035405017
180	0xbd7642a0	-0.060122132
181	0xbd1868b3	-0.037209224
182	0xbd10160d	-0.03517728
183	0x3d1c9838	0.038231105
184	0xbbb126cb	-0.005406236
185	0xbbb2c5c5	-0.005455705
186	0x3d0e7b33	0.03478546
187	0x3d8f5545	0.06998686
188	0xbdc017a9	-0.09379513
189	0xbcbf2b15	-0.023335973
190	0x3bce3588	0.0062930025
191	0xbb82705f	-0.003980681
192	0x3d1b0acf	0.037852105
193	0xbd25aadb	-0.040446144
194	0xbc087f36	-0.008331111
195	0xbd6a6376	-0.05722376
196	0xbd2e18c3	-0.042504083
197	0xbc13d737	-0.009023479
198	0xbcaad848	-0.020855084
199	0xbd0d299b	-0.034463506
200	0xbcbbd61b	-0.022929242
201	0xbce92f3a	-0.028464902
202	0x3d0cfea5	0.034422535
203	0x3bace824	0.0052766968
204	0xbd6877a4	-0.056754723
205	0xbd0b4940	-0.034005404
206	0x3d16c38d	0.036807586
207	0x3c5d17f7	0.013494483
208	0x3c9aaad0	0.018880278
209	0xbd4a0e89	-0.049330268
210	0xbd6fbee1	-0.058531646
211	0xbc45daf0	-0.012076125
212	0x3b906fd4	0.004407862
213	0xbbdb715b	-0.0066968626
214	0xbcf28d12	-0.029608283
215	0x3bb0210a	0.0053750323
216	0xbd36cf12	-0.04463107
217	0x3c25fd02	0.010131123
218	0xbd2c887a	-0.04212234
219	0x3c4b4aac	0.01240794
220	0x3d08e0de	0.033417575
221	0x38b3cca0	8.5734995e-05
222	0xbb3c1cc3	-0.0028703667
223	0x3d242b9b	0.040080648
224	0xbd155573	-0.036458444
225	0x3d441767	0.04787388
226	0xbd7b83f5	-0.06140514
227	0x3ccf1eba	0.025283206
228	0x3cdbcea1	0.026831927
229	0x3c5fc196	0.013656994
230	0xbd945b58	-0.07243985
231	0xbc427a55	-0.011869987
232	0x3ce47fc0	0.027892947
233	0xbc982d77	-0.018576367
234	0x3d323506	0.0435076
235	0x3a4dff48	0.0007858169
236	0xbd5e141b	-0.054218393
237	0xbcbd764f	-0.023127703
238	0xbcf16ced	-0.029470885
239	0x3d9e792b	0.07737955
240	0xbacc6c5e	-0.0015596261
241	0x3cc2a759	0.023761438
242	0x3c01160c	0.007878792
243	0xbd0aa955	-0.033852894
244	0x3d45a60b	0.048254054
245	0x3c8dc538	0.017305955
246	0xbcb1a1b4	-0.021683551
247	0x3c5923ea	0.0132531915
248	0xbd0e553c	-0.034749255
249	0xbd8c7ff6	-0.06860344
250	0x3d1f6c07	0.038921382
251	0x3d2fc8bb	0.04291604
252	0x3bb03b6a	0.0053781765
253	0x3d2d4f26	0.04231181
254	0xbd17596b	-0.03695051
255	0xbae13c74	-0.0017184154

bias f4 [84]
0	0x3d359d10	0.04433924
1	0x3d15873e	0.03650593
2	0xbd12744e	-0.035755448
3	0x3cc70af7	0.02429722
4	0xbcc9e65d	-0.024645979
5	0xbc9e035b	-0.01928871
6	0xbd2f69fa	-0.042825677
7	0xbbf99c4b	-0.0076175085
8	0xbd542b54	-0.051799133
9	0xbd54272d	-0.051795173
10	0x3c98339d	0.018579299
11	0x3d4c083d	0.049812544
12	0xbda514e3	-0.080606245
13	0xbc68a434	-0.014199305
14	0xbc2bdf80	-0.010490298
15	0xbd0ae35f	-0.033908244
16	0x3c607662	0.0137001
17	0x3c87c987	0.016575588
18	0xbd8c2f91	-0.0684501
19	0x3da0d888	0.078538
20	0xbd8a265c	-0.06745598
21	0xbd1aaea9	-0.037764225
22	0xbd1484b0	-0.036259353
23	0xbd17f2b5	-0.037096698
24	0x3a814ba6	0.0009864464
25	0xbbb97c3d	-0.0056605623
26	0xbcd490cb	-0.025947949
27	0x3cf05854	0.029338993
28	0xbcd830bb	-0.026390424
29	0xbd037035	-0.03208943
30	0x3d64c602	0.055852897
31	0x3d2f2a97	0.042765226
32	0xbc940bbe	-0.018072005
33	0xbc659bce	-0.0140141975
34	0xbd2c8266	-0.042116545
35	0x3d27e29c	0.040987596
36	0xbd095170	-0.03352493
37	0xbc9af4dc	-0.018915586
38	0x3c23b184	0.0099910535
39	0x3c0420ad	0.008064431
40	0xbcbbe50e	-0.02293637
41	0xbd6d14f4	-0.05788131
42	0xbd5e389a	-0.0542532
43	0x3d4ae958	0.04953894
44	0xbd7fc4e8	-0.062443644
45	0xbc8c782e	-0.01714715
46	0xbca58f9b	-0.020210078
47	0xbd630ca0	-0.055431962
48	0xbcb4a475	-0.022051075
49	0x3cfd2706	0.030902397
50	0x3cf573e2	0.029962484
51	0x3ca8faea	0.020627458
52	0xbcd60f14	-0.026130237
53	0x3cd3d88e	0.025860097
54	0xbb8d17b2	-0.004305803
55	0x3dad9a33	0.08476677
56	0xbd13c919	-0.036080454
57	0xbb78fc58	-0.0037992205
58	0xbbae7646	-0.005324158
59	0xbd6f0443	-0.058353674
60	0x3c9ef860	0.019405544
61	0xbd621d94	-0.05520399
62	0x3ca80ab4	0.020512916
63	0xbc155ac0	-0.009115875
64	0x3d1d8fae	0.0384671
65	0xbcb01479	-0.021494137
66	0xbd92786f	-0.07151877
67	0xbd283182	-0.04106284
68	0xbc8728b9	-0.01649891
69	0xbbfc245c	-0.007694764
70	0xbc519061	-0.01279077
71	0xbd23e289	-0.040010963
72	0xbbc62a9e	-0.006047561
73	0xbd2e18f2	-0.04250426
74	0xbd43af7c	-0.047774777
75	0xbc886505	-0.016649732
76	0xbc70223e	-0.0146566015
77	0x3d066836	0.032814227
78	0xbd4ef6d0	-0.050528347
79	0x3d1927d8	0.037391514
80	0x3d21dc07	0.039516475
81	0xbcbe177e	-0.023204561
82	0xbc107331	-0.008816526
83	0xbce1b5a8	-0.02755244

weight f4 [2, 84]
0	0xbd0330ae	-0.032028846
1	0xbbec26db	-0.0072067804
2	0xbcb51905	-0.022106657
3	0xbd78a10d	-0.060700465
4	0xbc56e5c2	-0.013116302
5	0x3d5a08bc	0.053230986
6	0xbd12660a	-0.035741843
7	0xba10b32b	-0.0005519862
8	0x3bf10acc	0.0073560234
9	0x3d877805	0.06614689
10	0x3c3dd5d0	0.011586621
11	0xbcd89b72	-0.02644131
12	0x3d60fc54	0.05492814
13	0xbcf251c9	-0.029580014
14	0x3d2f2221	0.042757157
15	0x3dbe35a8	0.09287578
16	0x3db712df	0.08939146
17	0xbc2bd718	-0.010488294
18	0x3cbd43ca	0.023103613
19	0xbbdb93b5	-0.0067009577
20	0x3c117f6e	0.008880479
21	0x3d1c3c53	0.038143467
22	0x3c52a545	0.012856786
23	0x3d19f961	0.037591342
24	0x3cd585be	0.02606475
25	0x3d14bdbf	0.03631377
26	0x3d68ed8c	0.056867167
27	0x3c97ced8	0.018531248
28	0xbcd9e524	-0.02659852
29	0xbc176802	-0.009241106
30	0xbdb54e12	-0.08852781
31	0x3c7e9416	0.015538236
32	0x3c267017	0.01015856
33	0xb9d2cbd8	-0.00040206197
34	0xbcb63554	-0.022242226
35	0xbbe2f3c4	-0.006926032
36	0xbc4251fb	-0.011860366
37	0xbb1aff04	-0.0023650536
38	0xbb86aaee	-0.004109732
39	0x3cb46671	0.022021504
40	0x3d26aad4	0.04069026
41	0x3c9c87f4	0.019107796
42	0xbcbde508	-0.0231805
43	0xbd305ba2	-0.043056138
44	0xbc954b2f	-0.018224327
45	0x3d5ece3f	0.05439591
46	0x3dac170e	0.08402835
47	0x3c37e32d	0.0112235965
48	0x3c190567	0.009339667
49	0x3ddef4e8	0.10886556
50	0xbd9a169c	-0.07523844
51	0xbca73639	-0.020411598
52	0x3c75011e	0.01495388
53	0xbdd4fb71	-0.10399521
54	0xbc6c6b17	-0.014429829
55	0xbcdea487	-0.027178062
56	0xbd100d40	-0.035168886
57	0x3d0e9e78	0.034819096
58	0x3d13726a	0.035997786
59	0x3c8a2a08	0.016865745
60	0xbd2107c3	-0.039314043
61	0xbcb5c8fc	-0.022190563
62	0x39b64440	0.00034764595
63	0x3d83a661	0.06428219
64	0xbd053542	-0.032521494
65	0x3d88b832	0.066757575
66	0xbb39a182	-0.0028325026
67	0x3d44787d	0.04796647
68	0x3d8438a1	0.064561136
69	0x3bde6758	0.006787222
70	0x3d3ebe76	0.046568356
71	0x3c0a9494	0.008458275
72	0xbcaf79a1	-0.021420302
73	0x3bf73ccc	0.0075450893
74	0x3d92897e	0.07155131
75	0xbcf0954b	-0.029368063
76	0xbd68f1e3	-0.056871306
77	0x3d0dace6	0.034588717
78	0x3bdab01c	0.006673826
79	0xbc25012e	-0.010071082
80	0xbcae7742	-0.021297101
81	0x3cf4d411	0.029886277
82	0x3cb79fe3	0.022415107
83	0xbd09640d	-0.03354268
84	0x3d1797d8	0.037010044
85	0x3cac2ce1	0.021017494
86	0xbd1fd98e	-0.039025836
87	0xbbe45b47	-0.006968889
88	0xbd9aa2d6	-0.0755059
89	0x3cb22d04	0.02174998
90	0x3d43f5f2	0.047841974
91	0xbd856663	-0.06513669
92	0x3c180c0c	0.009280216
93	0x3cb1cb11	0.021703275
94	0xbd027d89	-0.031858
95	0x3cf65cef	0.030073611
96	0x3d05fad8	0.032709926
97	0xbc73033a	-0.014832312
98	0xbcd2217e	-0.025650736
99	0xbd8b6a94	-0.068074375
100	0xbcb4700b	-0.022026083
101	0x3b9f312b	0.004858156
102	0x3bc7c49a	0.006096435
103	0xbc28d69c	-0.010305073
104	0xbc8a49c0	-0.01688087
105	0xbd71a3bb	-0.058994036
106	0x3bdb8ddd	0.006700261
107	0xbc158a20	-0.00912717
108	0xbbae096c	-0.005311182
109	0xbd016ac8	-0.031595975
110	0x3c7badd5	0.015361269
111	0x3cad9f63	0.021194166
112	0xbd4dd41f	-0.050251123
113	0x3cd2c859	0.025730299
114	0xbd6c60f8	-0.057709664
115	0xbd26ad9c	-0.04069291
116	0xbc0ffef0	-0.008788809
117	0xbdbb5986	-0.091479346
118	0x3ca29635	0.019847015
119	0x3d4fbb85	0.050715942
120	0xbc286e94	-0.01028027
121	0x3c47cb0b	0.012194405
122	0x3da8950e	0.08231555
123	0xbd9c358f	-0.07627403
124	0xbd0f7bbd	-0.035030115
125	0xbc27be17	-0.010238192
126	0x3c8a10fb	0.0168538
127	0x3d4e511b	0.050370317
128	0x3c254700	0.0100877285
129	0xbcd752ee	-0.026284661
130	0x3ca465ac	0.020068012
131	0xbd1d6c6a	-0.03843347
132	0x3ca30cc3	0.019903546
133	0xbc4e7f6c	-0.012603622
134	0x3d1ade7b	0.03780983
135	0x3d679df9	0.05654714
136	0xbd41db66	-0.047328375
137	0x3bc0c566	0.0058829067
138	0xbcefec10	-0.029287368
139	0xbb370114	-0.0027924227
140	0xbd34cb21	-0.04413903
141	0xbd34a6f8	-0.044104546
142	0xbdb3e92c	-0.087847084
143	0xbd53e290	-0.05172974
144	0xbd7a8fd1	-0.06117231
145	0x3d4be7f0	0.04978174
146	0x3bc97028	0.0061474033
147	0x3bbb3a96	0.005713771
148	0xbade155b	-0.001694362
149	0xbb81e600	-0.0039641857
150	0x3cac9872	0.021068785
151	0xbcff0a02	-0.031132702
152	0x3c1b1ed6	0.009467801
153	0xbd9f3ade	-0.077749
154	0xbdaf1af1	-0.085500605
155	0xbd456ff7	-0.04820248
156	0x3c82ea87	0.015980972
157	0x3c9277eb	0.017879447
158	0xbc6ccced	-0.014453155
159	0xbd10dc7c	-0.03536652
160	0x3d6f68a6	0.05844941
161	0x3d28273e	0.04105305
162	0xbaff8b84	-0.0019496535
163	0x3da87537	0.08225482
164	0xbcd82812	-0.026386295
165	0x3c90b7ac	0.017665707
166	0x3a780e50	0.0009462582
167	0xbcc52f28	-0.024070337

bias f4 [2]
0	0x3d760805	0.06006624
1	0x3cd333f5	0.025781611
