model.pth (torch, 250111 bytes, 10 tensors)

weight f4 [6, 3, 5, 5]
0	0xbd88cef7	-0.066801004
1	0x3b1b8779	0.002373187
2	0xbd9854a7	-0.07438021
3	0x3ce2671a	0.027637053
4	0x3c21d45a	0.009877289
5	0x39df1bf0	0.0004255469
6	0x3cbf55e0	0.023356378
7	0xbcd7ed7e	-0.026358362
8	0x3d247d7d	0.040158737
9	0xbaba0407	-0.0014191874
10	0xbddb0a6d	-0.10695348
11	0xbd3f0334	-0.046633914
12	0xbb9561ee	-0.0045587933
13	0xbc3da63b	-0.011575277
14	0xbd84a511	-0.064767964
15	0xbd47d6b3	-0.048788738
16	0xbcdff844	-0.027340062
17	0xbdae403e	-0.08508347
18	0xbd7911b6	-0.060807906
19	0x3d0eb27c	0.034838185
20	0xbd8035bd	-0.0626025
21	0xbb751ea2	-0.0037402292
22	0xbd25b422	-0.04045499
23	0xbccdd7e4	-0.025127359
24	0x3d00ecec	0.031475946
25	0xbd150687	-0.036383178
26	0x3d0eef90	0.034896433
27	0xbc9ee804	-0.019397743
28	0x3a86af19	0.0010275572
29	0x3bd99b70	0.006640844
30	0x3da982bc	0.08276889
31	0x3bc6a23a	0.0060618194
32	0x3d5aa171	0.05337662
33	0xbbc35645	-0.005961212
34	0x3c6bd255	0.014393409
35	0x3ce2eaf3	0.027699923
36	0xbdc2d98f	-0.09514152
37	0x3d14da12	0.03634078
38	0xbd82a613	-0.063793324
39	0x3d2db373	0.042407464
40	0xbb8b0c46	-0.0042434065
41	0xbd1263f0	-0.03573984
42	0xbd043f59	-0.032286976
43	0xbd99c927	-0.0750907
44	0xbc817ba3	-0.015806025
45	0xbc02959e	-0.007970242
46	0xbce6af50	-0.028159767
47	0xbd230e68	-0.03980866
48	0xbd2acdc5	-0.041700143
49	0xbd0fd50c	-0.035115287
50	0xbd3fb812	-0.046806403
51	0x3a981eb1	0.0011605826
52	0x3d14b6a9	0.03630701
53	0xbc6468e9	-0.013941028
54	0x3c1d98e7	0.009618974
55	0xbd4a5377	-0.049396005
56	0xbcc4d1e1	-0.02402586
57	0xbc0768ee	-0.008264763
58	0xbc462d27	-0.012095726
59	0x3d1e4e2e	0.038648777
60	0xbd8214ef	-0.06351649
61	0xbd2c6150	-0.042084992
62	0xbd8492c4	-0.06473306
63	0xbca0ded8	-0.01963751
64	0x3c4449ca	0.011980483
65	0xbd3e9976	-0.04653307
66	0xbd2dc632	-0.042425342
67	0xbd112882	-0.035439022
68	0xbd26a44f	-0.04068404
69	0x3c6b72c2	0.014370622
70	0xbb9f1604	-0.0048549194
71	0xbce131a2	-0.027489487
72	0xbd8a0b99	-0.06740493
73	0xbc92835e	-0.017884906
74	0xbd26b95e	-0.040704124
75	0xbde8ba08	-0.11363608
76	0xbcbb3ffc	-0.022857659
77	0xbd67c12d	-0.05658071
78	0xbaae87d2	-0.0013315624
79	0x3c6ff710	0.014646307
80	0xbcbd7ef0	-0.023131818
81	0xbcf1def0	-0.02952525
82	0xbdbdf81c	-0.09275839
83	0xbdb3fe52	-0.08788742
84	0xbd97b4bf	-0.074075215
85	0x3c8c6ad6	0.017140787
86	0xbd276879	-0.040871117
87	0x3b8b1580	0.0042445064
88	0xbd01a142	-0.031647928
89	0x3c2508ee	0.01007293
90	0xbdbad02c	-0.09121737
91	0xbd9e07ca	-0.077163294
92	0x3cb7ccf3	0.022436595
93	0xbce40dc5	-0.027838597
94	0xbdb2498d	-0.08705435
95	0x3d23d5c3	0.03999878
96	0xbbe76142	-0.0070611546
97	0xbcacc25d	-0.021088773
98	0xbdeb72ef	-0.11496531
99	0xbcfc1209	-0.030770319
100	0xbcc222c0	-0.02369821
101	0xbc9a6518	-0.018847033
102	0xbd4e1537	-0.0503132
103	0xbc8d6231	-0.017258735
104	0xbd85cd53	-0.06533303
105	0xbda22cbc	-0.07918689
106	0x3c8aa767	0.016925527
107	0xbc6d501f	-0.014484434
108	0xbd82aff8	-0.063812196
109	0xbd9665f0	-0.07343662
110	0xbd957d31	-0.07299269
111	0xbd32fae9	-0.043696318
112	0xbd1d5b57	-0.038417187
113	0xbc2e391d	-0.010633734
114	0xbb300745	-0.0026859802
115	0x3d49048f	0.049076613
116	0x3b1fedc0	0.0024403185
117	0xb9be8f4e	-0.00036346394
118	0xbd94a181	-0.07257367
119	0x3ca2269c	0.019793801
120	0x3b386d7e	0.0028141434
121	0xbda4b2ba	-0.08041902
122	0xbdb12c86	-0.0865107
123	0xbc4d9b81	-0.012549282
124	0xbc7ba248	-0.015358515
125	0x3c5118dd	0.0127622755
126	0xbd81316c	-0.063082546
127	0xbccfc5d2	-0.025362883
128	0xbc0be0f6	-0.008537522
129	0xbd5b737d	-0.053576935
130	0xbd908873	-0.070572756
131	0xbc30985f	-0.010778516
132	0xbd3e73d1	-0.04649717
133	0x3cca2fc1	0.024680974
134	0xbdd6ffce	-0.104980096
135	0x3ceee6d1	0.029162796
136	0x3c2e1bc3	0.010626736
137	0x3c86be75	0.016448239
138	0xbd65bbe0	-0.056087375
139	0xbd054e8a	-0.032545604
140	0xbc9469c6	-0.018116843
141	0xbc438b5e	-0.011935083
142	0xbdb335ac	-0.087504715
143	0xb99ea7fe	-0.00030261272
144	0xbdd5b225	-0.10434369
145	0x3c386cd2	0.0112564135
146	0x3cbf9763	0.023387617
147	0xbdeec379	-0.11658377
148	0x3d1b095b	0.03785072
149	0xbc9f0d35	-0.019415477
150	0xbd8d9099	-0.069123454
151	0xbc209152	-0.009800272
152	0xbd9ffe7e	-0.078122124
153	0xb7bb0430	-2.2294087e-05
154	0x3b0f0cc7	0.0021827684
155	0x3d266c86	0.04063084
156	0xbd722c6b	-0.05912439
157	0xbd2d18d0	-0.04225999
158	0x3a438694	0.00074587134
159	0xbda94aa4	-0.0826619
160	0xbc9a3711	-0.018825086
161	0xbcfaf56c	-0.030634604
162	0xbd804f2d	-0.062651016
163	0x3c8f2f59	0.017478632
164	0x3c33f3aa	0.010983387
165	0xbd7e5470	-0.062092245
166	0xbd698b08	-0.057017356
167	0xbd57dda9	-0.052701626
168	0xbd8cc9ee	-0.068744525
169	0xbd8ef28a	-0.069798544
170	0xbbd0f826	-0.006377238
171	0xbd2b9309	-0.04188827
172	0xbb832316	-0.0040019853
173	0xbdb141b7	-0.08655112
174	0x3cb0c48d	0.021578098
175	0xbc842541	-0.016131045
176	0xbd123fb5	-0.035705287
177	0xbd4bc510	-0.04974848
178	0xbd1303bf	-0.035892244
179	0xbd0c96d0	-0.034323514
180	0xbcc03a20	-0.023465216
181	0xbd8f11e6	-0.06985836
182	0x3c19115e	0.00934252
183	0xb88c3016	-6.684677e-05
184	0xbc5472c0	-0.012966812
185	0xbd6945e6	-0.056951426
186	0xbd5e2bc4	-0.054240957
187	0xbdaccfba	-0.08438058
188	0xbdb40b55	-0.08791224
189	0xbdb8c5ea	-0.09022124
190	0xbdfccd7d	-0.12343881
191	0xbd485890	-0.048912585
192	0xbd11cea9	-0.035597477
193	0xbda767ea	-0.08174117
194	0xbe14e1e3	-0.14539294
195	0xbe0322bf	-0.12806223
196	0xbc745c5a	-0.014914596
197	0xbd090395	-0.03345068
198	0xbd11a1b4	-0.035554603
199	0xbb7a3c0e	-0.0038182768
200	0xbdddae38	-0.10824245
201	0x3b994321	0.004677192
202	0xbdbcc55d	-0.092173316
203	0xbd3d8f36	-0.046279155
204	0xbd58fce8	-0.052975565
205	0xbc40f723	-0.011777672
206	0xbd84bc50	-0.0648123
207	0xbdefc2b5	-0.11707059
208	0x3c65ded7	0.01403018
209	0xbd8bd5b1	-0.06827868
210	0xbc488692	-0.012239115
211	0x3c62bfc9	0.01383967
212	0xbd621ceb	-0.05520336
213	0xbda26ea2	-0.07931258
214	0xbc08860a	-0.008332739
215	0xbd8fd512	-0.07023062
216	0x3cf1823b	0.029481044
217	0xbc948cc9	-0.018133538
218	0xbd2e8fb8	-0.04261753
219	0xbd9febe0	-0.078086615
220	0xbd9b6132	-0.07586898
221	0x3c311452	0.010808067
222	0xbd81eea5	-0.06344346
223	0xbd94c99e	-0.07265018
224	0x3cc3d12c	0.023903452
225	0xbd2c5077	-0.042068925
226	0xbce11353	-0.027475035
227	0xbd19f097	-0.03758296
228	0x3c5ea3c4	0.013588849
229	0xbca8425f	-0.02053946
230	0xb92e7720	-0.0001663831
231	0xbd61d035	-0.055130202
232	0xbd9f9d6e	-0.07793699
233	0xbd96f4f2	-0.07370938
234	0xbc294a2c	-0.010332625
235	0xbdd3a554	-0.10334268
236	0xbd23c133	-0.03997917
237	0x3c3712db	0.011173929
238	0xbd954cf6	-0.0729007
239	0xbc826147	-0.015915526
240	0xbd5b8bbb	-0.053600054
241	0xbd9fa049	-0.07794244
242	0xbd0bd079	-0.034134362
243	0xbd0fff6f	-0.03515571
244	0xbd7072b9	-0.058703158
245	0xbd8752a7	-0.066075616
246	0xbc7098b2	-0.014684843
247	0xbd9b806c	-0.07592854
248	0xbd2b0c49	-0.041759763
249	0xbcc42290	-0.023942262
250	0xbbaebfc8	-0.0053329207
251	0x3d36d642	0.044637926
252	0xbdf5dd28	-0.12005073
253	0xbb8f3ce3	-0.004371272
254	0xbd2c07b7	-0.041999545
255	0xbb7285fe	-0.0037006135

bias f4 [6]
0	0xbb8dad28	-0.0043236203
1	0xbd26b89c	-0.0407034
2	0xbce4add6	-0.027914923
3	0xbcfe5b40	-0.03104937
4	0xbda39fd1	-0.07989467
5	0xbd110e00	-0.035413742

weight f4 [16, 6, 5, 5]
0	0xbd64ac5d	-0.05582844
1	0xbca03e81	-0.019561054
2	0xbd8cf37e	-0.0688238
3	0xbd99dc23	-0.07512691
4	0xbd846293	-0.06464114
5	0xbdcc0873	-0.09962549
6	0xb8f333eb	-0.000115968134
7	0xbc7d4000	-0.015457153
8	0xbd1f914d	-0.03895693
9	0xbd8cfa74	-0.06883708
10	0xbc96ff90	-0.018432409
11	0xbd406348	-0.046969682
12	0xbd257291	-0.040392462
13	0xbd82a009	-0.063781805
14	0xbd8f2656	-0.06989734
15	0x3aa97fd7	0.0012931776
16	0xbc081dc1	-0.008307875
17	0x3c6d56c5	0.0144860195
18	0xbcf969bc	-0.030445926
19	0xbbe32322	-0.0069316784
20	0x3c8b4817	0.017002149
21	0x3c6e470a	0.014543304
22	0xbd0a050f	-0.03369623
23	0xbd57c509	-0.05267814
24	0xbcddf53f	-0.027094482
25	0xbd8cbb9b	-0.068717204
26	0xbda563dd	-0.08075688
27	0xbd933f4f	-0.071898095
28	0xbd1af7f4	-0.037834123
29	0xbd7d3796	-0.06182059
30	0xbca5281b	-0.020160725
31	0xbd75d8c0	-0.060021162
32	0x3d2d0c2a	0.04224793
33	0xbd4d71fa	-0.050157525
34	0xbb957dae	-0.0045621013
35	0xbd908b28	-0.07057792
36	0x3ce27e9b	0.02764826
37	0xbd2692ce	-0.040667348
38	0xbdb025ec	-0.08600983
39	0xbc9a69ce	-0.01884928
40	0xbd2e7c2c	-0.04259889
41	0xbd6da60e	-0.05801969
42	0xbd08d9f0	-0.033410966
43	0xbba88282	-0.005142511
44	0xbce936c9	-0.028468506
45	0xbd7bafe1	-0.061447028
46	0x3b9568a9	0.0045595956
47	0xbcf2fcdb	-0.029661587
48	0x3c462474	0.012093652
49	0xbd8adf2a	-0.067808464
50	0xbd5eaae5	-0.054362196
51	0x3c2e3a15	0.010633965
52	0x3c524253	0.012833196
53	0x3c0b92c3	0.008518877
54	0xbccb235c	-0.024797134
55	0xba71272f	-0.0009199259
56	0xbcf86e48	-0.030326024
57	0xbc38da1c	-0.01128247
58	0xbbf9c5bb	-0.0076224483
59	0xbd364bd5	-0.044505913
60	0x3bbb6960	0.005719349
61	0x3d3ce1ad	0.04611366
62	0x3ced277b	0.02894949
63	0x3cd3bde5	0.025847385
64	0xbd6d2d7b	-0.0579047
65	0xbcd4bc6c	-0.025968753
66	0xbd3b6cb4	-0.045757964
67	0xbc2ccb67	-0.010546542
68	0xbcaa8267	-0.020814134
69	0xbd8a476a	-0.067519024
70	0xbd2859bd	-0.041101206
71	0xbd607c98	-0.05480632
72	0x3d3124db	0.04324804
73	0xbcee4c79	-0.0290892
74	0xbc35a6b7	-0.011087111
75	0xbd825038	-0.06362957
76	0xbca742a7	-0.020417525
77	0xbd032746	-0.032019876
78	0xbdad16af	-0.08451592
79	0xbd5b96fe	-0.053610794
80	0xbd308704	-0.04309751
81	0xbce5e10f	-0.028061418
82	0xbd0551f8	-0.032548875
83	0xbb977324	-0.00462188
84	0xbd6a6fc5	-0.057235498
85	0xbce6732c	-0.02813109
86	0xbcff1b4c	-0.031140946
87	0xbc2c3fac	-0.010513227
88	0xbdd9df4e	-0.10638295
89	0xbd3f2967	-0.046670344
90	0xbd39c3f7	-0.045352902
91	0xbd6ac519	-0.057316873
92	0xbd167332	-0.036730953
93	0xbd4a41f3	-0.0493793
94	0xbd84bc8a	-0.064812735
95	0xbd55c17c	-0.052186474
96	0xbc6822bd	-0.0141684385
97	0xbc9979d3	-0.018734848
98	0xbb3ccefb	-0.0028809893
99	0xbd281b81	-0.041041855
100	0xbc963a30	-0.018338293
101	0xbd9c6b48	-0.0763765
102	0xbcfbf919	-0.030758427
103	0x3cbe398a	0.023220796
104	0xbd3cd03a	-0.046097018
105	0xbd896459	-0.06708593
106	0xbd88a1f6	-0.066715166
107	0x3afc3c8e	0.0019244121
108	0x3c2ea887	0.010660297
109	0x3cb1f11c	0.021721415
110	0xbd6306c2	-0.055426367
111	0x3c90ea97	0.017689986
112	0xbd66ccf0	-0.056347787
113	0xbb2c62a7	-0.0026303919
114	0xbd04a1e2	-0.032380946
115	0xbcaba0c3	-0.02095068
116	0xbd4ff8df	-0.05077445
117	0xbd573b73	-0.05254693
118	0x3bee1bc6	0.0072664944
119	0x3bd55993	0.006510922
120	0xbd860225	-0.06543378
121	0xbd6a8877	-0.05725905
122	0x3bc4eaf7	0.0060094553
123	0xbcc42045	-0.023941169
124	0xbbcb1752	-0.0061978484
125	0x3c7348dc	0.014848914
126	0x3d188fc4	0.03724648
127	0xbc46d8d0	-0.012136653
128	0x3d1007da	0.035163738
129	0x3d561a13	0.05227096
130	0x3d0688f8	0.032845467
131	0x3cf82465	0.030290792
132	0x3bb75c9f	0.005595758
133	0x3c8523bb	0.01625239
134	0xbb8ed685	-0.004359069
135	0xbcf3e4e7	-0.029772235
136	0x3d25ed23	0.040509354
137	0xbce42554	-0.02784983
138	0x3c52cc31	0.012866066
139	0x3be5cdca	0.0070130574
140	0xbc8999d1	-0.016796978
141	0x3d719f30	0.058989704
142	0x3b144c29	0.0022628403
143	0xbd43dbeb	-0.047817152
144	0xbc47902a	-0.0121803675
145	0x3d2ffad0	0.042963803
146	0x3d25d7a3	0.04048885
147	0x3cfea42b	0.03108414
148	0xbd2658d7	-0.040612068
149	0x3bac9a20	0.0052673966
150	0xbd1926d4	-0.037390545
151	0xbd3e27b1	-0.04642457
152	0xbd31615e	-0.043305747
153	0x3c7b55dc	0.015340295
154	0xbd2696da	-0.040671207
155	0xbc708696	-0.014680525
156	0xbbba584c	-0.0056867953
157	0xbd494b2c	-0.049143955
158	0x3cb1de22	0.021712366
159	0x3c8422a4	0.0161298
160	0xbc658858	-0.014009558
161	0xbd814772	-0.06312455
162	0x3d6e0a13	0.058115076
163	0xbd33ccb9	-0.04389641
164	0x3b31ce9e	0.002713121
165	0xbca4e23e	-0.020127412
166	0xbd113143	-0.03544737
167	0xbd258053	-0.040405583
168	0x3d0440bb	0.032288294
169	0xbc33187b	-0.01093113
170	0xbc704fee	-0.014667494
171	0x3c44c46a	0.012009719
172	0xbce61187	-0.02808453
173	0xbce73702	-0.028224472
174	0xbd0ff96e	-0.035149984
175	0xbd83cff8	-0.06436151
176	0xbd175861	-0.03694952
177	0xbba2c33f	-0.004967123
178	0xbd0db854	-0.034599617
179	0xbcf4cd0a	-0.029882926
180	0xbcc2c0fe	-0.023773666
181	0xbd023d21	-0.03179658
182	0x3a8744fc	0.0010320242
183	0xbd36bcf5	-0.044613797
184	0xbd66dc0c	-0.056362197
185	0xbd5b11d0	-0.053483784
186	0x3c814b39	0.01578294
187	0xbd6fe420	-0.058567166
188	0x3cf67372	0.030084345
189	0x3d1cf4c6	0.03831937
190	0xbda32d84	-0.07967666
191	0xbd55cfb4	-0.052200034
192	0xbc439142	-0.011936488
193	0x3c212e4a	0.009837696
194	0xbd467269	-0.048448954
195	0xbd08627a	-0.03329704
196	0xbc309c6c	-0.010779481
197	0xbd172add	-0.036906112
198	0xbcf5c9e4	-0.030003496
199	0xbcc7224d	-0.024308348
200	0xbd3e5455	-0.046467144
201	0xbd2ec65f	-0.04266965
202	0xbd67382c	-0.056450054
203	0xbce36000	-0.027755737
204	0xbda11833	-0.07865944
205	0xbd65e838	-0.056129664
206	0x39ee148c	0.00045410206
207	0x3aa47c77	0.00125493
208	0xbd335193	-0.043778967
209	0x3c3ee050	0.01165016
210	0x3ca6c078	0.020355448
211	0x3d39e13d	0.04538082
212	0x3d414a47	0.047189977
213	0xbd26155c	-0.040547714
214	0x3d4721cd	0.04861622
215	0x3c10c750	0.008836582
216	0xbd9934e1	-0.07480789
217	0x3bc4ac4f	0.006001986
218	0xbcb018bf	-0.021496175
219	0x3c726823	0.014795336
220	0xbd4a034f	-0.04931956
221	0xbc5183ef	-0.012787803
222	0xbd19f7fd	-0.037590016
223	0x3afbbc55	0.0019205908
224	0xbd2a2de9	-0.04154769
225	0xbd5a4005	-0.05328371
226	0xbdca202d	-0.09869418
227	0xbd35a09c	-0.044342622
228	0x3c2c39fd	0.010511872
229	0xbd317895	-0.043327887
230	0xbcaa13f5	-0.02076147
231	0xbda46891	-0.08027757
232	0xbd886a29	-0.066608734
233	0xbcaf7f67	-0.021423055
234	0xbc5e52a0	-0.013569504
235	0xb999f673	-0.00029366053
236	0xbd3a67dc	-0.045509204
237	0xbc8cbaee	-0.017178979
238	0xbcc9fd44	-0.0246569
239	0xbd0060c1	-0.03134227
240	0xbd852ac7	-0.065023
241	0xbcef897c	-0.029240362
242	0xbd81e675	-0.06342784
243	0xbca824a4	-0.020525284
244	0xbc502849	-0.012704917
245	0xbd848c65	-0.06472091
246	0xbcf32fac	-0.029685818
247	0xbce734ac	-0.028223358
248	0x3aaf2087	0.0013361134
249	0xbd21f743	-0.039542448
250	0xbd46929a	-0.048479654
251	0xbd714dd8	-0.05891213
252	0xbd06e5ed	-0.032934118
253	0x3c53b80e	0.0129223
254	0xbc0bfdbf	-0.0085443845
255	0xbd2fe95c	-0.04294716

bias f4 [16]
0	0xbd7c0a43	-0.061533224
1	0xbd1ac375	-0.03778406
2	0x3d87d7da	0.06632967
3	0x3d3a527a	0.045488812
4	0xbcab9fcb	-0.020950219
5	0x3ce7865d	0.028262312
6	0x3d6b63c6	0.0574682
7	0xbd275ae3	-0.04085816
8	0xbc0536ae	-0.008130712
9	0xbca3934f	-0.019967703
10	0xbce93854	-0.028469242
11	0xba9d20d4	-0.0011987933
12	0xbd699519	-0.057026956
13	0xbc0522b2	-0.008125948
14	0xbd19755f	-0.03746545
15	0xbc4c8a91	-0.012484209

weight f4 [120, 400]
0	0xbc1fae47	-0.009746141
1	0xbc3f777b	-0.011686201
2	0xbce36b3c	-0.027761094
3	0xbbcdedbc	-0.0062844437
4	0xbc5d5364	-0.013508651
5	0xbc0491dd	-0.008091417
6	0xbd29a65d	-0.041418422
7	0xbc97e3ef	-0.018541304
8	0xbc886687	-0.016650451
9	0xbc06dfa1	-0.008232028
10	0x3be9f61d	0.0071399347
11	0xbca438e2	-0.020046655
12	0xbc599583	-0.013280275
13	0xbd2980b3	-0.041382503
14	0xbbb95cc5	-0.005656811
15	0x3c02e505	0.007989173
16	0xbbccbe3c	-0.0062482636
17	0xbc909d57	-0.01765315
18	0xbcc57619	-0.024104165
19	0x395c9313	0.00021035624
20	0xb89afc1b	-7.3902505e-05
21	0xbd1a7805	-0.037712116
22	0x3b98621f	0.004650369
23	0x3ca303c1	0.019899251
24	0xbaa4cac0	-0.0012572631
25	0xbcf9a188	-0.030472532
26	0xbd8d5f1b	-0.069029056
27	0xbd36d0e0	-0.044632792
28	0xbd1e0ebc	-0.03858827
29	0xbc7b43f1	-0.015336023
30	0xbc9be947	-0.019032134
31	0xbd2fbaf9	-0.04290292
32	0xbc9b5439	-0.018961059
33	0xbcf95010	-0.030433685
34	0xbceac8d8	-0.028660223
35	0xbcba8ca4	-0.02277214
36	0xba1484c1	-0.0005665534
37	0xbcb8704d	-0.022514487
38	0xbb90c6cd	-0.00441823
39	0xbd5e513f	-0.0542767
40	0xbbfcf4fc	-0.007719634
41	0xbc88ffa1	-0.016723456
42	0xbd35f0e4	-0.044419184
43	0xbd60dc43	-0.054897558
44	0x3c01bb57	0.0079182
45	0xbd375063	-0.044754397
46	0xbcbcbd90	-0.02303961
47	0xbd5ef367	-0.054431345
48	0xbcac013d	-0.020996684
49	0xbcbda85b	-0.023151567
50	0xbd100547	-0.035161283
51	0xbcc0bb89	-0.023526924
52	0xbc56d4bc	-0.013112243
53	0xbbfd3b8c	-0.007728046
54	0xbd0f0a5c	-0.03492199
55	0xbd1be450	-0.038059533
56	0xb931252b	-0.00016893882
57	0xbd6ed871	-0.058311883
58	0xbccd24ff	-0.025042055
59	0xbb7cc5bd	-0.003857001
60	0xbca5ab4d	-0.020223284
61	0xbd2ce46d	-0.04221003
62	0xbccadb29	-0.024762707
63	0xbd246727	-0.040137436
64	0xbcf5bfab	-0.029998621
65	0xbc4af838	-0.0123882815
66	0xbcc1a799	-0.023639487
67	0xbd1f7840	-0.03893304
68	0xbc78a8e8	-0.015176989
69	0xbc089c6e	-0.008338077
70	0xbcd2b6b1	-0.02572188
71	0xbcf632f9	-0.030053603
72	0xbd6f806c	-0.058472082
73	0xbc9c5b44	-0.019086488
74	0xbad36389	-0.0016127686
75	0xbaa5e151	-0.001265565
76	0x3c4c4563	0.012467715
77	0xbbafa1d8	-0.0053598695
78	0x3c8c4279	0.01712154
79	0xbce41360	-0.02784127
80	0x3c12498e	0.00892867
81	0xbc49369c	-0.012281086
82	0xbc8bb050	-0.017051846
83	0xbc5d7bef	-0.013518318
84	0xbc691549	-0.014226266
85	0xbb897b8f	-0.0041956375
86	0x3cab74b9	0.020929681
87	0x3c45b511	0.012067095
88	0x3b911e47	0.004428658
89	0x3c3590c7	0.011081881
90	0xbc912b07	-0.017720712
91	0x3b7f5f4b	0.003896671
92	0xbc3706bc	-0.011171039
93	0xbca28b87	-0.019841922
94	0x3cda6c50	0.026662976
95	0xbb29552b	-0.0025838118
96	0xbad39475	-0.0016142266
97	0xbc8c7ffb	-0.01715087
98	0x3c8ff280	0.017571688
99	0xbd1d9d74	-0.038480237
100	0xbd6cea60	-0.057840705
101	0xbd0c20d8	-0.03421101
102	0xbc9b4b3d	-0.018956775
103	0xbd554dec	-0.052076265
104	0xbd27694e	-0.04087191
105	0xbc3418c8	-0.010992236
106	0x3c03b89f	0.008039623
107	0xbd5332ed	-0.05156224
108	0xbd48199b	-0.048852544
109	0xbce54753	-0.027988112
110	0xbadbb67b	-0.0016762757
111	0xba884fdb	-0.0010399775
112	0xbc94aa53	-0.018147623
113	0xbd1b6dd9	-0.037946556
114	0xbd35328b	-0.044237655
115	0xbc27d201	-0.01024294
116	0xbcf2b395	-0.029626647
117	0xbcb37e43	-0.021910792
118	0xbca8ef0d	-0.0206218
119	0xbcbbd8c5	-0.022930512
120	0xbd03136a	-0.032000937
121	0xbd061afa	-0.03274057
122	0xbc97b204	-0.018517502
123	0xbd43bc3b	-0.047786932
124	0xbd4ee1c3	-0.050508272
125	0xbcafe29f	-0.021470366
126	0xbd87e044	-0.06634572
127	0xbd08473b	-0.033271056
128	0xbbe2df84	-0.006923618
129	0xbcbb3428	-0.022852018
130	0xbd077f39	-0.033080313
131	0xbcaba02c	-0.0209504
132	0xbc819e7c	-0.015822642
133	0xbcf5a017	-0.029983563
134	0xbcaf42b4	-0.021394111
135	0xbca29b0a	-0.019849319
136	0xbd080283	-0.03320552
137	0xbc8b4321	-0.016999783
138	0xbd3f9224	-0.04677023
139	0xbbe8d9e3	-0.0071060522
140	0xbce512b7	-0.027963025
141	0xbd01dc8b	-0.031704467
142	0xbc3609c1	-0.011110724
143	0xbc9b3cf1	-0.018949958
144	0x3b25d2c0	0.0025302619
145	0xbcb4e62f	-0.022082416
146	0xbd3c16b5	-0.045920093
147	0xbcc59b0f	-0.02412179
148	0x3c3bc0d3	0.011459547
149	0xbc1c42df	-0.009537428
150	0xbc997b8c	-0.01873567
151	0xbd2bb6f0	-0.04192251
152	0xbd0dabbf	-0.034587618
153	0xbcd564b9	-0.026049005
154	0xbca288c6	-0.01984061
155	0x38b8d4bf	8.813431e-05
156	0xbc5dffc8	-0.0135497525
157	0x3ca4cd10	0.020117313
158	0xbc7fa261	-0.015602679
159	0xbc6213b8	-0.013798647
160	0x3b670cb5	0.0035255377
161	0xbd2de0ad	-0.042450596
162	0xbc0f8ae4	-0.008761141
163	0xbcfbce1f	-0.030737935
164	0x3aea5221	0.001787726
165	0xbbecc4cd	-0.007225609
166	0xbbf64bcd	-0.0075163604
167	0xb94c15ab	-0.00019463028
168	0x3af87069	0.0018954399
169	0xbc5ca261	-0.0134664485
170	0xbcdfed1c	-0.027334742
171	0xbc64d27b	-0.013966198
172	0xbceb6485	-0.028734455
173	0xbc159258	-0.009129129
174	0x3d1748b3	0.036934566
175	0xbd103995	-0.035211165
176	0xbd5bdc20	-0.053676724
177	0xbd108da9	-0.035291348
178	0xbc8c0377	-0.017091496
179	0xbd20be94	-0.03924425
180	0xbd069bcc	-0.032863423
181	0xbb464d3f	-0.0030258445
182	0xbd1b06dd	-0.037848342
183	0xbd1f8a1f	-0.038950082
184	0xbc98fe65	-0.018675992
185	0xbcba286f	-0.022724358
186	0xbd512924	-0.051064625
187	0xbd173941	-0.036919836
188	0xbca0c312	-0.019624267
189	0xbcae392b	-0.021267494
190	0xbce0b55f	-0.027430234
191	0xbb56dccb	-0.0032785411
192	0xbd09e0e0	-0.033661723
193	0xbd00475b	-0.03131805
194	0xbcf0d758	-0.029399559
195	0xbd0e03e7	-0.03467169
196	0xbd1c5acd	-0.038172532
197	0x3c330ce4	0.010928366
198	0xbca42f4d	-0.020042086
199	0xbce0eb8d	-0.02745607
200	0xbca3b3a3	-0.019983118
201	0xbd046fa5	-0.032333035
202	0xbc829bb0	-0.015943378
203	0xbcd11403	-0.025522238
204	0xbd0a3655	-0.03374322
205	0xbd35c5fb	-0.044378262
206	0xbcd9b8b3	-0.02657733
207	0xbc94e4ad	-0.018175447
208	0xbce59795	-0.028026382
209	0xbceeae03	-0.02913571
210	0xbc222018	-0.009895347
211	0xbce189ad	-0.02753147
212	0xbcfe531d	-0.03104549
213	0xbca2c5bf	-0.019869683
214	0xbcdfe7e0	-0.027332246
215	0xbc2fd9a7	-0.010733045
216	0xbceb99cb	-0.028759858
217	0xbc6420af	-0.013923808
218	0xbd25695d	-0.040383685
219	0xbad5f8e5	-0.0016324787
220	0x3c2d99c1	0.01059574
221	0xbd7c7090	-0.061630785
222	0xbcc5044d	-0.024049902
223	0xbc955bf7	-0.018232329
224	0xbc370b18	-0.011172079
225	0xbd506d67	-0.050885584
226	0xbd02822d	-0.031862427
227	0xbcadb823	-0.021205967
228	0xbd55f0e3	-0.05223168
229	0xbc98c7de	-0.018649992
230	0xbcbde495	-0.023180285
231	0xbc30d6a5	-0.010793363
232	0xbd45fc71	-0.04833645
233	0xbd4af2b4	-0.049547866
234	0xbce7d141	-0.028298022
235	0xbc628e35	-0.01382785
236	0xbd2e657d	-0.042577256
237	0xbd223d1f	-0.03960907
238	0xbd0e81c7	-0.034791734
239	0xbcf6e4b1	-0.030138345
240	0xbcf692dc	-0.030099325
241	0xbcbb67c0	-0.02287662
242	0xbc8b9559	-0.017038988
243	0xbd5c061c	-0.053716764
244	0xbd133c3e	-0.035946123
245	0xbd289cfa	-0.04116533
246	0x3c2dc758	0.010606609
247	0xbcb9897d	-0.022648567
248	0xbd3a47cf	-0.04547864
249	0xbd332c1c	-0.043743238
250	0xbd003db4	-0.031308845
251	0xbc6d4c13	-0.01448347
252	0xbd09bfae	-0.033630066
253	0xbd0cbe5a	-0.03436122
254	0xbc872065	-0.01649494
255	0xbcbfe501	-0.023424627

bias f4 [120]
0	0xbd7b1353	-0.061297726
1	0xbc1c6817	-0.009546301
2	0x3de5f107	0.11227613
3	0x3c012a27	0.007883585
4	0xbcbf4d01	-0.023352148
5	0xbca509de	-0.020146307
6	0xbccfb70c	-0.025355838
7	0x3d0ae085	0.033905525
8	0xbd087a2b	-0.033319633
9	0xbd317ff9	-0.043334935
10	0xbc05c45b	-0.008164491
11	0x3d96705f	0.07345652
12	0xbd6161fb	-0.055025082
13	0xbc6a157f	-0.014287352
14	0x3d497030	0.049179256
15	0xbc7dba84	-0.015486363
16	0xbd26a97f	-0.040688988
17	0x3d06802f	0.03283709
18	0xbc9f2b4d	-0.019429827
19	0x3af80054	0.0018920996
20	0xbcfa0700	-0.030520916
21	0xbb4414ff	-0.0029919741
22	0xbcca6d4e	-0.024710324
23	0xbcee5d2a	-0.029097158
24	0xbd5e388e	-0.054253154
25	0xbcffff86	-0.031249773
26	0xbbebbc5d	-0.0071940855
27	0x3d9391b5	0.07205526
28	0xbce70dd1	-0.02820483
29	0xbd224a85	-0.03962185
30	0xbd204e76	-0.039137326
31	0x3d6a4ed1	0.05720407
32	0xbb8e8eaf	-0.0043505053
33	0xbc54e669	-0.012994387
34	0xbd1a91e6	-0.037736796
35	0xbd0bc071	-0.034119073
36	0x3dc2061e	0.09473823
37	0xbca6bfb5	-0.020355085
38	0x3da95d24	0.08269718
39	0xbc93a01b	-0.01802068
40	0xbc5f5ee2	-0.013633462
41	0x3d99cca4	0.07509735
42	0xbd17f46d	-0.037098337
43	0x3d5d22ed	0.053988386
44	0xbd1490a4	-0.036270753
45	0x3ca17720	0.019710124
46	0xbbcff7aa	-0.0063466625
47	0xbd30d12d	-0.043168236
48	0x3d91bb41	0.07115794
49	0xbcea9c53	-0.028638994
50	0x3d83af9c	0.06429979
51	0xbc3030bf	-0.0107538095
52	0x3d047470	0.032337606
53	0xbce84763	-0.028354352
54	0x3c98ded6	0.018660944
55	0xbd29845e	-0.041386
56	0xbc7d3f59	-0.015456998
57	0xbd0cdbba	-0.034389235
58	0xbd204fb8	-0.039138526
59	0xbc69532c	-0.014241021
60	0xbd0e8f78	-0.03480479
61	0xbc196333	-0.00936203
62	0x3bb28f98	0.0054492466
63	0xbce2d65d	-0.027690107
64	0xbd0b32f8	-0.033984154
65	0xbcd57631	-0.026057335
66	0xbcf773ef	-0.030206649
67	0x3d3fdbbd	0.046840418
68	0xbd075490	-0.03303963
69	0x3d7b99c9	0.061425958
70	0xbcff1fad	-0.031143034
71	0x3d4dbee5	0.05023088
72	0xbb9379da	-0.00450061
73	0xbabb86b2	-0.001430711
74	0xbd08d7db	-0.03340898
75	0x3c3d3536	0.011548331
76	0xbd628a7b	-0.055307847
77	0xbc880a0b	-0.016606351
78	0xbce89953	-0.028393423
79	0xbd0e276d	-0.034705568
80	0xbaf10b67	-0.0018390239
81	0xbcdc400d	-0.02688601
82	0x3c000b29	0.007815161
83	0xbc88e20f	-0.016709356
84	0x3d47ea2b	0.048807304
85	0xbcaed4f4	-0.021341778
86	0xbd56e8c3	-0.052468073
87	0xbcf9c0be	-0.030487414
88	0xbd939689	-0.07206447
89	0xbcb291a9	-0.021797972
90	0xbd662e9e	-0.0561968
91	0xbcbab9ff	-0.022793768
92	0x3cd3fc2d	0.025877083
93	0x3d80ceb7	0.06289428
94	0xbc320758	-0.010866009
95	0x3c4adca0	0.012381703
96	0xbb2f267e	-0.0026725824
97	0x3d3a0e33	0.045423698
98	0x3c01a6fc	0.007913347
99	0xbb5a1fc3	-0.0033283092
100	0xbc46ea4c	-0.012140822
101	0xbcce6edb	-0.025199344
102	0xbbb24bbe	-0.005441158
103	0x3d9d9239	0.076939054
104	0x3d143079	0.03617904
105	0xbcf589ff	-0.029973028
106	0x3d0425f7	0.03226277
107	0xbc752e8a	-0.014964709
108	0xbbac0b33	-0.0052503585
109	0xbce5fadc	-0.02807372
110	0xbd294ddf	-0.04133403
111	0x3a7339e0	0.00092783384
112	0x3b4409a3	0.002991297
113	0xbd261380	-0.04054594
114	0xbc318bba	-0.010836536
115	0xbcf6b430	-0.030115217
116	0xbcd90276	-0.026490431
117	0xbc5eceda	-0.013599122
118	0xbcc5eecb	-0.024161717
119	0xbc84cf1d	-0.01621204

weight f4 [84, 120]
0	0xbb9242dd	-0.004463537
1	0x3ca2efcf	0.01988974
2	0x3ce5b804	0.028041847
3	0xbd93db81	-0.072196014
4	0xbc2e0f45	-0.010623758
5	0xbcbcd83b	-0.023052325
6	0xbb899041	-0.0041981046
7	0x3d8b77bd	0.06809948
8	0xbc98d97d	-0.018658394
9	0x3adf6af8	0.0017045429
10	0x3c748bfd	0.014925954
11	0x3da7e292	0.08197512
12	0x3cc7e6a3	0.024401968
13	0xbdb0e5bf	-0.086375706
14	0x3cc76e19	0.02434449
15	0x3bb95048	0.005655322
16	0x3ccca40d	0.02498057
17	0x3c815596	0.01578788
18	0x3ceabfb1	0.028655859
19	0xbcbe4e37	-0.023230655
20	0x3c1213e1	0.008915872
21	0xbbca15e5	-0.006167161
22	0x3c571e1b	0.013129736
23	0x3c353400	0.011059761
24	0xbabf68a0	-0.0014603324
25	0x3c06f78d	0.008237732
26	0xbb9a8d24	-0.0047165323
27	0x3d41ca20	0.047311902
28	0xbb3e9a17	-0.0029083544
29	0x39ebcaa8	0.00044973684
30	0xbce4e290	-0.027940065
31	0x3d0c3f4f	0.034240063
32	0x3bc824f8	0.0061079226
33	0x3c4b7d83	0.012420061
34	0xbc812411	-0.015764268
35	0x3cc57fbd	0.024108762
36	0x3c8501c7	0.016236199
37	0x3d6371d8	0.05552849
38	0x3d758f64	0.0599512
39	0xbc93eecf	-0.018058209
40	0xbd998c93	-0.074975155
41	0x3dc4c8cf	0.09608614
42	0x3d8cc921	0.068743
43	0x3d9cf748	0.07664353
44	0x3cfa91f5	0.030587176
45	0x3dcc3816	0.09971635
46	0x3cf3b00f	0.029747037
47	0xbc81eb7b	-0.015859356
48	0x3d0170b5	0.031601626
49	0xbb64e94d	-0.0034929097
50	0x3dd5c119	0.10437221
51	0x3d6e7b1b	0.05822287
52	0x3cb1b962	0.021694843
53	0x3d3647cd	0.04450207
54	0x3d8a437d	0.067511536
55	0xbd6cc970	-0.057809293
56	0x3be424c0	0.0069623888
57	0xbd8f3f62	-0.06994511
58	0xbd2f0b3c	-0.042735323
59	0xba2740ba	-0.00063801894
60	0xbd7f20ef	-0.062287267
61	0xbd338b03	-0.043833744
62	0x3d71a902	0.05899907
63	0x3d72a8d0	0.059243023
64	0xbc62c116	-0.013839981
65	0xbd5d3dfb	-0.054014187
66	0x39d00770	0.00039678393
67	0x3c61dc4b	0.013785432
68	0xbced8105	-0.028992185
69	0x3d89b41e	0.06723808
70	0x3ce995b2	0.028513763
71	0x3d8abbd1	0.067741044
72	0x3d74f975	0.059808213
73	0x3c64a031	0.013954208
74	0xbadf6211	-0.0017042776
75	0x3bf4b8b6	0.0074683083
76	0xbc01d286	-0.007923728
77	0x3c5a18f8	0.013311617
78	0xbd121cd7	-0.035672035
79	0x3cd1128d	0.025521541
80	0x3cd089dd	0.025456363
81	0x3c95da00	0.018292427
82	0xbc4683f0	-0.012116417
83	0xbd0275a1	-0.03185046
84	0x3d10c850	0.035347283
85	0x3d5beda8	0.053693444
86	0x3c6ae3d3	0.014336544
87	0x3c98d4a4	0.018656082
88	0xbbe275dc	-0.0069110226
89	0x3c398d6b	0.011325221
90	0x3c55fec5	0.01306123
91	0x3b660bd7	0.0035102272
92	0x3d2c6b55	0.042094547
93	0x3dce438c	0.10071477
94	0xbc149ff9	-0.009071344
95	0x3cdb29db	0.026753357
96	0x3b16aae1	0.0022990035
97	0x3d5007e0	0.05078876
98	0xbc206035	-0.009788563
99	0xbcbe02e8	-0.023194745
100	0xbb776b6b	-0.0037753235
101	0xbc7e8c3d	-0.015536365
102	0xbd843fb7	-0.06457465
103	0x3d83de6e	0.064389095
104	0x3d5749b6	0.05256053
105	0xbce0adb7	-0.027426584
106	0xbbbd2194	-0.005771825
107	0xbd42ef27	-0.047591355
108	0x3b052383	0.0020315356
109	0xbc037fe8	-0.008026101
110	0x3c245deb	0.010032157
111	0x3cfae256	0.030625504
112	0xbc1b6045	-0.009483402
113	0x3b137ba7	0.0022504122
114	0xbc10a32a	-0.008827964
115	0xbb8668cd	-0.0041018487
116	0x3d13ee32	0.036115833
117	0xbd06e1f4	-0.03293033
118	0xbd352ec3	-0.04423405
119	0x3c9d2d6f	0.019186703
120	0x3c34c264	0.011032674
121	0xbd748943	-0.059701215
122	0xbda2137a	-0.07913871
123	0xbcd8a78c	-0.02644708
124	0x3d4d70d3	0.050156426
125	0xbd780f4c	-0.060561463
126	0x3cf29086	0.02960993
127	0xbcba106b	-0.022712907
128	0xba73aa15	-0.00092950586
129	0x3c6fd95f	0.014639228
130	0x3c9b1bbf	0.018934129
131	0x3b4ff46a	0.0031731375
132	0x3ca026ee	0.019549813
133	0xbd2ecd7d	-0.042676438
134	0xbcc5959b	-0.024119189
135	0xbd1d15c9	-0.038350854
136	0x3b4b1b88	0.0030991752
137	0xbdc2eed3	-0.09518208
138	0x3d1b5b21	0.037928704
139	0x39ce48da	0.0003934566
140	0x3c51e008	0.012809761
141	0xbccd6788	-0.025073782
142	0xbd2b52b0	-0.041826904
143	0x3d82b17b	0.06381508
144	0x3cb9a79e	0.022662934
145	0x3b9715d3	0.004610756
146	0xbd5e59de	-0.054284923
147	0x3b1fa174	0.0024357708
148	0xbccab0f5	-0.024742583
149	0xbcdb69ef	-0.026783912
150	0x3d2c0828	0.041999966
151	0xbcbdbd16	-0.023161452
152	0x3cc95232	0.024575327
153	0x3c33a085	0.010963564
154	0xbcb49a14	-0.022046126
155	0xbd1e9893	-0.038719725
156	0xbd65ec78	-0.056133717
157	0x3c3d81cf	0.011566593
158	0xbd0bbef1	-0.034117643
159	0xbc15961d	-0.009130028
160	0x3c0ddea4	0.008659039
161	0xbd23d49e	-0.03999769
162	0xbc8b1881	-0.016979458
163	0xbcc5509a	-0.024086285
164	0xbcf4f931	-0.02990398
165	0xbca3704b	-0.019951006
166	0xbd7c2107	-0.061554935
167	0x3b8888e7	0.0041667107
168	0xbdc5a67b	-0.09650894
169	0xbc384411	-0.011246697
170	0x3afcb674	0.001928045
171	0x3d38d8a0	0.045128465
172	0xbc5cfc06	-0.013487821
173	0x3cc30530	0.023806185
174	0xbd0af68c	-0.03392653
175	0xbccab2ba	-0.024743427
176	0xbd4fdfe4	-0.050750628
177	0x3cfdd99b	0.030987551
178	0x3bac4ec8	0.005258415
179	0xbd829692	-0.06376375
180	0xbd3f56e0	-0.04671371
181	0xbbea3fd1	-0.007148721
182	0xbce1fdff	-0.027586935
183	0xbbbb750b	-0.0057207397
184	0xbc425f10	-0.011863485
185	0x3b8fd97b	0.0043899394
186	0xbdb02eeb	-0.08602699
187	0xbd245838	-0.040123194
188	0xbbd1ce88	-0.0064027943
189	0xbda4de93	-0.08050265
190	0x3abf310d	0.0014586762
191	0xbd0e5fee	-0.034759454
192	0x3bd63183	0.006536664
193	0xbcd5223e	-0.026017305
194	0xbaeba580	-0.00179784
195	0xbc0f9dc3	-0.008765641
196	0x3c941967	0.018078519
197	0xba720bcd	-0.0009233326
198	0xbd44d5d9	-0.048055504
199	0xbcad1bd3	-0.021131432
200	0xbcec5964	-0.028851219
201	0xbd0002bf	-0.03125262
202	0x3b3adfd4	0.002851476
203	0xbd04d7f3	-0.032432508
204	0xbcaf8f54	-0.021430649
205	0x3c764a1a	0.015032316
206	0x3cf459c1	0.029827954
207	0x3cc04972	0.023472521
208	0x3c67c4df	0.014146059
209	0x3ce0b90b	0.027431985
210	0x3d4c93ba	0.04994557
211	0xbcf09298	-0.029366776
212	0xbd0cb14e	-0.03434878
213	0xbc906d01	-0.017630102
214	0xbda52da2	-0.080653444
215	0xbd786305	-0.060641307
216	0xbd01fcb5	-0.03173514
217	0xbd419240	-0.047258615
218	0x3ba4bb02	0.005027176
219	0xbd462d72	-0.048383184
220	0x3c85a099	0.01631193
221	0x3afead8a	0.0019430381
222	0xbbfb27f8	-0.0076646768
223	0xbd9fa87d	-0.077958085
224	0xbc44297f	-0.011972784
225	0x3c86834d	0.016420031
226	0x3c534b3e	0.012896357
227	0xbd14722a	-0.036241688
228	0xbcf72b88	-0.030172125
229	0xbcf2a9db	-0.029622009
230	0xbd217ae3	-0.039423835
231	0x3c763f7b	0.015029783
232	0xbd742b39	-0.059611533
233	0xbd2679ae	-0.040643387
234	0xbc55c435	-0.013047268
235	0x3d2483e1	0.040164832
236	0x3c962a0b	0.018330595
237	0xbbd459b9	-0.0064804223
238	0x3c97fcb8	0.018553123
239	0xbc3625b5	-0.0111173885
240	0x3d28c6cc	0.041205212
241	0xbd26286b	-0.04056589
242	0x3d777b84	0.060420528
243	0x3d95c710	0.07313359
244	0xbc033d3c	-0.008010205
245	0x3b05ca4a	0.0020414763
246	0xbd2ac9c6	-0.041696332
247	0x3b8674c2	0.004103274
248	0xbdb07418	-0.08615893
249	0x3d0dedcd	0.034650613
250	0xbbd114d4	-0.0063806567
251	0xbdf1d100	-0.11807442
252	0x3c87d6a1	0.016581835
253	0xbd234455	-0.03986009
254	0xbd7da7e4	-0.06192769
255	0xbd18eda8	-0.03733602

bias f4 [84]
0	0x3db30034	0.08740273
1	0xbc72ef56	-0.01482757
2	0xbaea2a0e	-0.0017865316
3	0xbd284b09	-0.041087184
4	0xbbcfbc4f	-0.006339587
5	0xbc968ced	-0.018377746
6	0xbd6047ed	-0.054756094
7	0x3d797cf2	0.060910173
8	0xbcbb2844	-0.022846349
9	0x3d9fea0e	0.07808314
10	0x3d337d28	0.04382053
11	0xbcc202fb	-0.023683062
12	0xbc482163	-0.012214991
13	0xbcc4e509	-0.024034994
14	0xbd848ebf	-0.06472539
15	0x3d90e933	0.07075729
16	0xbcde521a	-0.027138758
17	0xbc2a79b4	-0.010404993
18	0x3d83ec51	0.06441558
19	0xbbcefa11	-0.0063164313
20	0xbd272c83	-0.040813934
21	0xbd4b325e	-0.04960858
22	0xbcb89306	-0.022531044
23	0xbb82c0da	-0.003990275
24	0xbdc03eff	-0.093870156
25	0xbc3ce687	-0.011529571
26	0x3def0bcf	0.11672174
27	0x3c485019	0.012226128
28	0xbcb23b50	-0.021756798
29	0x3da2ef30	0.07955778
30	0xbcf61a5e	-0.03004187
31	0xbd2a1d48	-0.04153183
32	0xbd0015fb	-0.031270962
33	0x3d5a686a	0.053322233
34	0xbcde0da9	-0.027106123
35	0x3d6c3ce9	0.057675276
36	0xbc8c175e	-0.017100986
37	0x3d432c77	0.047649827
38	0x3d91fed3	0.07128682
39	0xbcc1c44e	-0.023653176
40	0x3db7deab	0.089780174
41	0x3ce26a45	0.027638564
42	0xbd678770	-0.056525648
43	0x3d156e60	0.036482215
44	0x3e1006bd	0.1406507
45	0x3d1221d0	0.035676777
46	0xbac172bd	-0.0014758926
47	0x3dfdc57c	0.12391183
48	0xbd9745d7	-0.07386368
49	0x3dd76051	0.10516418
50	0xbd2f6c84	-0.042828098
51	0x3d4bb852	0.04973633
52	0xbc7e4982	-0.015520455
53	0xbd8548cd	-0.06508026
54	0xbdae16e7	-0.08500462
55	0x3d92d027	0.07168608
56	0xbd17f13d	-0.037095297
57	0xbcc63eee	-0.02419993
58	0x3e0d4245	0.13794811
59	0x3dac8098	0.08422965
60	0xbd9aee9a	-0.07565041
61	0xbd5809b8	-0.052743644
62	0xbca4594a	-0.020062108
63	0xbc838665	-0.016055295
64	0xbd4fb032	-0.050705142
65	0xbcca2a42	-0.024678353
66	0xbd047c10	-0.032344878
67	0xbc7b2a55	-0.015329917
68	0xbd751720	-0.059836507
69	0x3dbe4118	0.092897594
70	0xbc8a971b	-0.016917756
71	0xbd72f770	-0.059318006
72	0xbd30ddb4	-0.043180183
73	0xbc9c3f19	-0.019073056
74	0xbd8a686e	-0.067582
75	0x3daa1683	0.08305075
76	0xbd56ff95	-0.052489836
77	0xbc168272	-0.009186374
78	0x3db14123	0.08655002
79	0xbd6c0ef1	-0.057631437
80	0xbcc7ccf1	-0.024389716
81	0xbc5233bd	-0.012829718
82	0x3d8a3ae9	0.067495175
83	0xbcede990	-0.029042035

weight f4 [2, 84]
0	0xbd6c35a7	-0.057668354
1	0x3cbf41d7	0.023346825
2	0x3ce8cd30	0.028418154
3	0xbc41b4cc	-0.0118228905
4	0x3b98de8d	0.004665202
5	0xbc84d65a	-0.016215492
6	0xbcfae399	-0.030626105
7	0x3c3d5c39	0.011557632
8	0xbbc7cc64	-0.0060973633
9	0xbd6b04e6	-0.05737772
10	0xbcc9b88c	-0.024624132
11	0x3d2d0bf5	0.04224773
12	0xbc0252f0	-0.007954344
13	0xbd165146	-0.036698602
14	0x3c8a6cbb	0.01689755
15	0xbb75db06	-0.0037514581
16	0xbc5a4d4c	-0.013324093
17	0xbcde9876	-0.027172308
18	0xbbb35694	-0.0054729674
19	0x3d02c0e4	0.031922236
20	0x3ce23209	0.02761175
21	0x3d2a314e	0.041550927
22	0x3c30d5c4	0.010793153
23	0x3cf9b245	0.030480513
24	0xbb6bdd77	-0.0035990158
25	0x3cac9a43	0.021069651
26	0xbd6e5064	-0.058182135
27	0xbc5cc4e0	-0.013474673
28	0x3aeaba68	0.0017908337
29	0x3c547aa8	0.012968697
30	0x3a8fe130	0.0010977145
31	0xbc9c3987	-0.0190704
32	0xbcf277b8	-0.029598102
33	0xbd6151d6	-0.055009685
34	0x3cd3c138	0.02584897
35	0xbd86261a	-0.06550236
36	0x3c86e677	0.016467316
37	0xbce64f8b	-0.0281141
38	0xbd99b58e	-0.07505332
39	0xbcffd4a7	-0.03122933
40	0xbd68ceb2	-0.056837745
41	0xbcffbece	-0.031218912
42	0x3c635b07	0.013876683
43	0xbd1281d8	-0.03576836
44	0xbd98775b	-0.0744464
45	0xbd626f50	-0.055281937
46	0xbcee3a88	-0.029080644
47	0xbd50145e	-0.050800674
48	0x3d1ea610	0.03873259
49	0x3c072bd0	0.008250192
50	0x3cc23d3d	0.023710841
51	0x3c843824	0.016140051
52	0xbca3adfb	-0.019980421
53	0x3d5b426b	0.053530138
54	0x3c113283	0.008862141
55	0xbd0f71c3	-0.0350206
56	0x3dec58f7	0.11540406
57	0x3c6a1d4b	0.014289211
58	0xbd98196a	-0.07426722
59	0xbd17a6a0	-0.03702414
60	0x3ae79b51	0.0017670189
61	0x3d15548b	0.03645758
62	0x3cb0d23b	0.02158462
63	0x3cef60f4	0.029221036
64	0xbc8b2aed	-0.016988242
65	0x3cb21bd3	0.021741783
66	0xbcd98280	-0.026551485
67	0x3b27add9	0.00255858
68	0xbbbf3230	-0.0058348402
69	0xbc35198c	-0.011053454
70	0x3cb6a58f	0.022295741
71	0x3c891365	0.01673288
72	0x3d6298f6	0.055321656
73	0x3c9a85e5	0.018862674
74	0xbd2c6fff	-0.042098995
75	0xbc22459c	-0.0099042915
76	0x3d318891	0.04334313
77	0xbc8b1490	-0.016977578
78	0xbde58d08	-0.1120854
79	0xbc87e637	-0.016589267
80	0x3bb4999a	0.005511475
81	0xbc85918d	-0.016304756
82	0xbd0bf7eb	-0.03417198
83	0x3cb78209	0.022400873
84	0x3dbeac72	0.09310235
85	0x3cebb074	0.028770663
86	0x3ade2084	0.0016946946
87	0x3c87d68d	0.016581798
88	0x3d00094e	0.031258874
89	0xbcfe1f8b	-0.0310209
90	0x3d1ae325	0.03781428
91	0x3d78b66a	0.06072084
92	0xbd40730d	-0.04698472
93	0x3da4ec32	0.08052863
94	0x3ca0cb89	0.019628303
95	0x3c679c78	0.014136426
96	0x3d1d6301	0.038424496
97	0xbd0b64ff	-0.034031864
98	0xbd0d04b9	-0.034428332
99	0x3d69c848	0.05707577
100	0x3d03ec09	0.032207523
101	0xbc810dae	-0.015753593
102	0x3d13b3bb	0.036060076
103	0x3cb88203	0.022522932
104	0x3c35f8d1	0.011106686
105	0x3d7fdc0e	0.06246572
106	0x3b04016a	0.0020142444
107	0x3c84f2d3	0.016229069
108	0xbb5b0aba	-0.0033423142
109	0xbcedd626	-0.029032778
110	0x3dae66e0	0.085157156
111	0xbc8356b6	-0.016032558
112	0x3cf41ad5	0.02979795
113	0x3d4aa5f6	0.04947468
114	0x3d192576	0.03738924
115	0xbcd50de0	-0.026007593
116	0x3bb30fd4	0.0054645333
117	0xbc2663be	-0.010155616
118	0xbc8a9568	-0.016916946
119	0x3d23e4b6	0.040013038
120	0x3d0403c9	0.032230172
121	0xbbf2f026	-0.007413882
122	0x3d5ba996	0.053628527
123	0xbb6a7bba	-0.0035779313
124	0x3d642b49	0.055705342
125	0xbc304168	-0.010757782
126	0x3c22b5fa	0.009931082
127	0xbcf7802d	-0.030212486
128	0x3dc46ee3	0.095914625
129	0x3cf613fa	0.030038822
130	0x3d563aee	0.052302293
131	0x3d9d1d26	0.07671575
132	0x3bbe031c	0.0057987105
133	0x3d9b592c	0.075853676
134	0x3d02aa81	0.031900886
135	0x3c95acdb	0.0182709
136	0x3c4cff00	0.012511969
137	0x3c2cd3a0	0.010548502
138	0x3d055731	0.032553855
139	0x3c442865	0.011972521
140	0x3a188224	0.00058177323
141	0xbaf996e5	-0.0019042162
142	0x3d3f766a	0.046743788
143	0xbcb00c44	-0.021490224
144	0x3c77f0b7	0.0151330745
145	0x3d47f0b4	0.048813537
146	0xbcfcd661	-0.030863943
147	0xbbe225d2	-0.006901481
148	0xbce67a68	-0.02813454
149	0xbcd68724	-0.026187487
150	0xbd353a3a	-0.044244982
151	0xbcc19546	-0.02363075
152	0x3d066dbf	0.032819506
153	0x3d5ace76	0.053419553
154	0x3c386566	0.011254644
155	0x3c0e8cee	0.008700592
156	0x3d24e855	0.04026063
157	0x3ca76439	0.020433532
158	0xbce16159	-0.02751224
159	0x3d34b7a7	0.044120457
160	0x3d522778	0.05130717
161	0x3d4d743b	0.050159674
162	0x3d941c8d	0.07232008
163	0xbd98d0a1	-0.07461668
164	0xbca32c49	-0.019918578
165	0xbcda493d	-0.02664625
166	0x3d246172	0.040131994
167	0xbd003383	-0.031299125

bias f4 [2]
0	0xbd024789	-0.031806502
1	0x3da88a0f	0.082294576
