model.pth (torch, 250111 bytes, 10 tensors)

weight f4 [6, 3, 5, 5]
000000 38 a7 77 bd d2 e1 ba bb 52 64 79 bb d7 fb 28 bd
       -0.060462207 -0.0057031894 -0.003805418 -0.0412558
000010 30 7f 89 bd aa a2 a3 bb 8e 69 5b bd f1 ed 44 bd
       -0.06713712 -0.0049937563 -0.05356746 -0.04807848
000020 41 30 0b 3d 5b 4d 20 bc 86 26 23 3d d2 cc 10 bd
       0.033981565 -0.009784068 0.03983166 -0.035351582
000030 fe 2d e3 bc 5e 8b 69 bd 35 71 c7 bc 1a 40 c5 bc
       -0.027731892 -0.057017677 -0.024345974 -0.024078418
000040 98 36 e2 3c b5 5b 93 bd 8a 45 8c bd 78 d2 cb ba
       0.027613923 -0.07195226 -0.06849201 -0.0015550395
000050 9f 81 5e bd 77 4b cd bc 56 84 09 bd a9 6c 89 bd
       -0.054322835 -0.025060399 -0.03357347 -0.067101784
000060 76 96 49 bc f9 7d 04 3d da 0d a2 bd ef 5d 5e 3c
       -0.012303939 0.0323467 -0.07912798 0.0135722
000070 39 78 f4 bd 25 bc 7a bd b1 5f ce bd a0 b2 fa bd
       -0.11936993 -0.061214585 -0.100768454 -0.12241101
000080 0e d0 1c 3c 58 09 d6 bc 04 8a c7 bc 6a 77 90 bc
       0.0095710885 -0.026127502 -0.024357803 -0.017635066
000090 f3 21 4b bc 7d c5 98 bd b0 95 05 3d 90 d5 7e bd
       -0.012398231 -0.07459543 0.032613456 -0.062215388
0000a0 fe 1c 68 3d 10 dc 29 3c 7c 9f 0d bd bb 77 54 bd
       0.056668274 0.010367408 -0.034575924 -0.051871996
0000b0 11 a9 c9 bd 45 b0 43 bd 7e ff f1 bc e6 b1 8d bd
       -0.098467 -0.047775526 -0.029540773 -0.06918697
0000c0 75 53 8d bd cb 27 39 bc e1 59 b6 3c 24 00 a2 bc
       -0.06900684 -0.011300991 0.022259654 -0.019775458
0000d0 b6 9d 53 bd f0 fd 46 3c 9f a7 72 bc ef ba 03 bd
       -0.051664077 0.012145504 -0.014810472 -0.032160696
0000e0 de 3b 09 bc 1c 5c 06 bd b1 ee 34 bd d6 68 64 bd
       -0.00837609 -0.032802686 -0.044172946 -0.05576404
0000f0 ec 1b b5 3b 4a b0 71 bd 46 4f ba bd 4a 63 c7 3c
       0.00552701 -0.059006013 -0.090971515 0.024339337
000100 f8 c9 55 bd e0 1e bf 3c f0 ca ef 3c d8 71 3d bd
       -0.052194566 0.023330152 0.029271573 -0.046251148
000110 b4 ac a1 bd 2e 9b e6 bc dc b8 aa 3c 2f 80 04 bd
       -0.07894269 -0.028150167 0.020840101 -0.032348808
000120 fa ad b1 bd 6d b9 56 bd 72 10 83 bd 46 95 06 bd
       -0.086757615 -0.05242293 -0.06399621 -0.032857202
000130 5d e7 20 3c 53 4e 38 bd e1 45 0b bd 12 fa d3 bd
       0.009820786 -0.04499657 -0.03400219 -0.103504315
000140 15 a3 c9 bd a6 3d 7c bd b4 c2 3b bd 71 fd 3c bc
       -0.098455586 -0.06158223 -0.04583998 -0.0115350345
000150 23 45 4f bd 14 30 9f bc 28 ac 36 3d 22 21 25 bd
       -0.050603043 -0.019432105 0.044597775 -0.0403148
000160 ce 36 de 3a 83 da a3 bd 76 2c 88 bc f2 a8 ce bc
       0.0016953589 -0.08000662 -0.016622763 -0.025227044
000170 57 f8 22 bd d1 33 b1 bd 7b 9a cc bd c7 6a f8 bb
       -0.039787617 -0.08652461 -0.09990402 -0.007581088
000180 17 42 53 bd 4c da 38 bd 2f ba f7 3a d2 e0 aa bc
       -0.0515767 -0.04513006 0.0018900092 -0.020859156
000190 74 eb 7e bd 26 5e 57 3c 33 b9 48 bd 7e 22 4e bd
       -0.062236264 0.013145005 -0.049004745 -0.050325863
0001a0 7b 90 4c bd 2b 87 ae bd 80 e8 f4 bd d7 b0 ab 3c
       -0.049942475 -0.08521875 -0.11958408 0.020958347
0001b0 e5 2f 84 3c 8e b3 8b 3c 46 b7 6e bd 3b 4f 86 3c
       0.01613612 0.017053392 -0.058280252 0.016395202
0001c0 41 a3 6f bd f5 9d 05 3d 33 a7 0f bd cf 49 43 bd
       -0.0585053 0.032621343 -0.035071563 -0.04767781
0001d0 30 c0 33 3c 52 d5 30 bb 31 91 80 bc 08 f0 73 bd
       0.010971114 -0.0026982618 -0.015694233 -0.059555084
0001e0 5a fd 08 3d 96 66 97 bb bb 56 0e 3d b3 5a 8a bd
       0.03344474 -0.0046203835 0.03475068 -0.06755581
0001f0 28 ac a1 bd e6 f5 86 bd 2d e3 42 bd 56 ed 64 3c
       -0.07894164 -0.0658987 -0.047579933 0.013972601
000200 9f eb d9 bc f1 ab 45 bd 09 d8 9e bc 15 ed 05 3c
       -0.02660161 -0.04825968 -0.019390123 0.008174201
000210 8b f0 1e bd 2c 49 2c 3d f4 c5 43 bd b8 e6 e6 bd
       -0.03880362 0.04206197 -0.047796205 -0.11274475
000220 8b 38 7f bd d8 8d 4c bd 65 35 64 bd 0f 6b ca bc
       -0.062309783 -0.04993996 -0.055714983 -0.024709253
000230 4e ee f1 bc 99 8d 18 3d bb 9f 6e 3d c2 d9 93 bd
       -0.029532578 0.037244413 0.0582578 -0.072192684
000240 33 31 ed bc 5d f1 e3 3c 94 22 01 bd ed ba a0 bc
       -0.028954124 0.027825052 -0.031527117 -0.019620383
000250 2f 8a 69 bd 20 07 e0 37 2c d0 c8 3c 4c 00 8f bd
       -0.057016548 2.6706199e-05 0.024513327 -0.069824785
000260 92 de 00 bd 0f ba da bc e0 da 0d 3c d1 c4 2a bc
       -0.03146226 -0.026700048 0.008658141 -0.010422901
000270 2d 11 a3 3c bb d1 b7 bc c5 53 42 bc c7 cc 7c 3c
       0.019905651 -0.022438874 -0.0118607925 0.015429682
000280 8f e3 10 3b d6 32 c1 bd 78 0d 30 bc 76 b9 e5 bc
       0.0022108292 -0.09433524 -0.010745399 -0.028042536
000290 2d 80 1a bc 0b 60 17 bd 46 b9 6b bd 95 6c 77 3d
       -0.009429974 -0.036956828 -0.057549737 0.060406286
0002a0 11 b9 6d bd 56 ca 1c 3d 9a d7 e4 bc 06 48 9a bd
       -0.05803782 0.0382789 -0.027934838 -0.07533269
0002b0 44 52 0d bd 80 d7 8f bd a1 39 86 3d fd f1 14 3c
       -0.034502283 -0.07023525 0.065539606 0.009090898
0002c0 a3 77 ba bd 2c a4 3e bd cc 5b c8 bc 72 ab 7b 3c
       -0.0910485 -0.046543285 -0.024457835 0.0153607
0002d0 c6 bc d0 bd 19 a8 33 3d e6 21 42 bd e6 3f 05 ba
       -0.10192256 0.043861482 -0.04739561 -0.0005083069
0002e0 f5 48 01 bd 17 e1 da bc 28 50 7a bc cd 51 06 3b
       -0.031563718 -0.02671866 -0.0152779 0.0020495534
0002f0 54 ee b9 bd 25 f5 b4 bc 8f ad 65 bd a9 27 33 bd
       -0.090786606 -0.02208955 -0.05607372 -0.043738995
000300 3e ee 6c bd 5b 6c 57 3d 9a 86 d8 bc cd f2 da bc
       -0.057844393 0.05259357 -0.02643137 -0.026727105
000310 6e 40 b4 3b b8 4b 98 bd 9c 3f b4 bc e0 c7 2c bd
       0.0055008447 -0.07436317 -0.022002988 -0.042182803
000320 7e 65 2b bd b0 b4 0d bd 47 28 6a bc c9 c3 81 bd
       -0.041844837 -0.034596145 -0.014291829 -0.06336171
000330 3f 36 98 bc 53 a5 98 bd c1 88 1f 3d 08 29 59 bd
       -0.018580554 -0.07453408 0.038948778 -0.053017646
000340 10 4b a2 bc 99 84 80 bc 87 3c ca bc 7f 1d 89 bd
       -0.019811183 -0.015688227 -0.024687065 -0.06695079
000350 cb 9a c6 bc 6d 62 ed bd e4 90 dd bc b6 09 b0 3c
       -0.024243733 -0.11591039 -0.027046628 0.021489006
000360 8c 86 a7 bb e9 44 7c bc 2b 56 e1 bb c9 5b 79 bd
       -0.005112475 -0.015397289 -0.006876727 -0.06087855
000370 ac 3e 08 bd 0d f2 56 bd b4 26 42 3b 3d 60 27 bd
       -0.033262894 -0.05247693 0.002962512 -0.040863264
000380 df 11 72 3d 11 38 b3 bc 01 65 c7 3c 4d 30 66 3c
       0.059099074 -0.02187732 0.024340155 0.014049602
000390 92 73 2c 3d 7b 0e d7 bb 7d 82 b5 bc a1 09 bf bc
       0.042102404 -0.0065630055 -0.022156948 -0.023320021
0003a0 1b 21 d6 bb 87 f6 85 bd 9f 5f e5 bd b3 fb fb 3c
       -0.006534708 -0.06541162 -0.11199879 0.030759668
0003b0 62 62 af bd 80 a8 63 bd 42 a6 74 bc 87 77 de bd
       -0.08563687 -0.055580616 -0.014932217 -0.10862642
0003c0 4b d1 25 3c 22 5a 04 bd 20 75 57 3d eb 62 79 bd
       0.0101207 -0.03231252 0.052601933 -0.06088535
0003d0 d6 84 03 be 78 64 e7 bd 4a 78 94 bd 33 3a 89 3d
       -0.12843642 -0.1129846 -0.07249506 0.06700554
0003e0 bb da 2c bd 40 30 04 bd b2 79 be bc 49 66 83 bd
       -0.042200785 -0.032272577 -0.023251388 -0.06415994
0003f0 df 88 90 bc b7 bd eb 3b 8e b4 28 bd 82 40 ab 3b
       -0.01764339 0.0071942466 -0.041187815 0.005226196

bias f4 [6]
000000 b8 cf b2 bc 6b d0 20 bd 99 3c 5a bc 37 1f c0 bc
       -0.021827564 -0.039261263 -0.013320112 -0.023452384
000010 f2 61 24 bc 72 2f dd bc
       -0.010033118 -0.027000163

weight f4 [16, 6, 5, 5]
000000 8b c1 da bc 3e 95 c8 bd 9a 8e 2f bd 84 10 47 bd
       -0.026703617 -0.09794091 -0.042860605 -0.048599735
000010 1c ac c3 bc 3e 59 0b bd f0 ee 7b bd 19 19 7e 3b
       -0.02388578 -0.034020655 -0.061507165 0.0038772284
000020 10 34 99 bd 5d 38 13 3c 3e 17 cd bc ec 40 25 3c
       -0.07480633 0.008985606 -0.025035497 0.010086279
000030 ee 06 7a bc 55 38 e5 ba 72 06 01 bd 01 05 16 bd
       -0.015260441 -0.0017488102 -0.031500287 -0.036625866
000040 7f d7 4c bc 58 fd 80 3d f5 f9 83 bc 8f 60 46 bd
       -0.01250255 0.062983215 -0.0161104 -0.04843193
000050 c3 17 0b bd 08 6c 75 bd a2 32 ab bc 58 2c 82 bd
       -0.033958208 -0.05991748 -0.020898167 -0.06356114
000060 b5 aa e7 3b 47 77 38 bd 4b b2 21 bd bc 7b 61 bd
       0.0070699104 -0.045035627 -0.039476674 -0.055049643
000070 b3 e0 82 bd f5 14 a1 bc 5d 51 d8 bc f2 c0 b9 bc
       -0.06390514 -0.019663313 -0.026405985 -0.022675011
000080 8b 03 f6 bc 5d 3e e0 bb 1f d0 0b bc b4 1f ba 3c
       -0.030030986 -0.006843372 -0.008533507 0.022720195
000090 3e 99 87 bd 99 3a 27 bd 83 c8 61 bd 2e 25 73 bd
       -0.066210255 -0.040827367 -0.055122864 -0.05936163
0000a0 84 b0 4c 3b 22 d6 21 bd 83 31 89 bc 86 71 88 bd
       0.0031233141 -0.039510854 -0.016747242 -0.06662278
0000b0 a4 ce 81 bb c3 17 c5 3c 1c ed d8 bc e7 5b 48 bd
       -0.003961401 0.024059182 -0.02648025 -0.04891577
0000c0 24 7c 0c bd 7f d8 0a bc 87 96 93 bc b2 59 83 bd
       -0.034298077 -0.008474468 -0.018016113 -0.064135924
0000d0 86 f2 a9 bc a4 92 2c bd 6c b8 b5 bd 93 d7 1d bd
       -0.020745527 -0.042132035 -0.08873066 -0.038535666
0000e0 37 24 72 bd 45 d1 eb bb fa d1 97 b9 a1 ff 91 bd
       -0.05911657 -0.0071965777 -0.0002895741 -0.071288355
0000f0 6d 02 f3 bc f5 1d 0b bd 88 f9 0e bd 54 45 23 3d
       -0.029664243 -0.033964116 -0.03490594 0.03986104
000100 ba 7a 18 bd 93 40 bc bd 94 b0 d7 3a d6 dd f9 bc
       -0.037226416 -0.09192004 0.0016455823 -0.030501287
000110 22 f0 41 bd b5 e1 83 bd 62 66 26 bd 04 38 94 bd
       -0.04734815 -0.064395346 -0.040624984 -0.07237247
000120 e5 3c 39 3d b8 53 e9 bc 84 2f 45 bc c4 7c 13 bb
       0.04522409 -0.028482303 -0.012035254 -0.0022504786
000130 2d cd 45 bc 91 b5 a0 bd cd 36 4a bd 2f ee 02 bc
       -0.0120728435 -0.07847131 -0.04936867 -0.007991358
000140 fb 03 bb 3c 13 d3 92 3c 59 ab 76 bc 84 9c d8 bc
       0.022829046 0.017922914 -0.015055501 -0.02644182
000150 58 da e4 ba 6f 7b 4d bd 90 cb af bc 10 3a 1d 3d
       -0.0017460091 -0.050166544 -0.02145937 0.03838545
000160 6c e8 ba bc f0 37 4b 3a b1 2a e9 3a bf 2e c3 3a
       -0.022815906 0.0007752171 0.0017789212 0.0014891251
000170 99 eb 30 3c fc a2 fd 3b bf 0d 26 ba 0c 14 c4 bc
       0.010798358 0.0077403765 -0.0006334446 -0.02393534
000180 ab eb 97 bc 48 e1 13 bd 7d f4 7f bc 1c d8 03 3c
       -0.018544992 -0.036103517 -0.015622255 0.00804713
000190 90 9c f1 bc 9c 62 8f bd ff 45 b8 bc fc c0 4e 3c
       -0.0294936 -0.0700123 -0.022494314 0.012619253
0001a0 06 2c 25 3d a7 60 44 bc b7 bc 33 bd 3d 5d 25 bd
       0.040325187 -0.011985934 -0.043881144 -0.040372122
0001b0 6c 49 d0 bc ae 1a 7f bd 40 c5 08 bd 6e 1f b5 bb
       -0.025425635 -0.062281303 -0.033391237 -0.0055274284
0001c0 1f 3b d2 3c 6c fd b7 bd 7f 8d c9 bc 8c c0 01 3b
       0.025662957 -0.08983883 -0.024603603 0.0019798605
0001d0 67 57 b4 bc 74 a3 0e 3d a3 3f c7 3c f2 12 2b bd
       -0.022014333 0.03482385 0.024322337 -0.041766115
0001e0 e7 36 7b bd 18 cd 17 bc 84 23 94 bc 3f a1 57 bd
       -0.061331656 -0.009265207 -0.018083341 -0.05264401
0001f0 11 c0 8d 3b c8 b5 51 bc 8a 3b b2 bd 56 58 57 bd
       0.0043258746 -0.012799688 -0.087027624 -0.052574478
000200 8f ff 24 bd 03 21 0f bd cc 0f 49 3a 81 79 0e bc
       -0.040282782 -0.03494359 0.00076698954 -0.008695961
000210 c1 a3 3a bd 35 11 ac bb 53 b0 75 3b 04 d8 91 bb
       -0.045566324 -0.0052510747 0.003748913 -0.0044508
000220 ad cd e8 bc 82 5a 2e bd 45 c9 96 3b 92 92 e9 3b
       -0.028418386 -0.042566784 0.00460163 0.0071280682
000230 eb f5 3d bd 5f 19 9c bc ba 0b 09 bd fb 45 35 bd
       -0.046377104 -0.019055067 -0.03345845 -0.04425619
000240 bb 68 4e bd 0f 37 52 bd 4d 25 4a bd 67 fd 64 bd
       -0.050392848 -0.05132204 -0.04935198 -0.055905726
000250 16 26 53 bc 06 64 36 bd e3 6d 8b bc 21 83 16 bd
       -0.012887498 -0.044528984 -0.017020172 -0.036746148
000260 1c 7f 30 3d 64 94 a9 3c 2e 30 49 bc 18 84 64 bd
       0.04308997 0.020700641 -0.012279553 -0.055790037
000270 a7 21 59 3d e6 c5 5f 3a 65 6c 19 3d f4 a6 4b 3d
       0.05301061 0.0008536264 0.03745689 0.049719766
000280 e6 ae a5 bc a7 d4 83 3d 7d 17 a5 3c 5b c2 7f ba
       -0.020225 0.064370446 0.020152802 -0.0009756439
000290 1e 6f 63 bc 58 05 a2 bd 0b 13 08 3d 52 87 83 3c
       -0.013881473 -0.079111755 0.033221286 0.016055737
0002a0 3c 3a e6 3c 11 3b 45 bc c7 b7 97 bc 49 14 6a 3c
       0.02810394 -0.012038008 -0.018520249 0.014287063
0002b0 6c a4 23 3d 21 bc a3 bc 3b b3 6f 3c 98 d2 a3 bc
       0.039951727 -0.019987168 0.014630134 -0.01999788
0002c0 5a 22 38 bd fe c6 cd bc dc cc dc bc b1 dd 6b bc
       -0.044954635 -0.025119301 -0.026953153 -0.014396117
0002d0 91 6c 82 3d 00 7e 4c bd dc f4 db 3b 2c b9 93 3c
       0.06368364 -0.04992485 0.006712539 0.018032633
0002e0 b2 19 62 3b c0 60 fe ba fc 34 ba bc 61 d9 0a ba
       0.003450018 -0.0019407496 -0.022730343 -0.0005296674
0002f0 10 5d 51 3d 4c 00 db 3c a3 41 b7 3c 22 1a 1d bd
       0.051114142 0.02673354 0.022370165 -0.038355
000300 2b 66 94 3d d8 eb ab bc c1 a5 35 3c 86 58 ae bc
       0.072460495 -0.020986483 0.011086882 -0.021282446
000310 d4 7b 72 3c ba 83 32 3d 97 de 8f bb ec 22 a3 3b
       0.014800031 0.043582655 -0.0043905484 0.0049785282
000320 f3 d6 8f bd 9a fa ce 3b e1 38 47 bb 5c 06 be bb
       -0.0702342 0.006316495 -0.0030398893 -0.005799098
000330 c3 a7 be bb c1 ba a4 bd 42 45 9b bc 07 9f 2e ba
       -0.0058183386 -0.08043433 -0.018953923 -0.000666127
000340 84 99 7c bd 39 49 b4 bc f5 62 bd bb fb ea c8 3c
       -0.06166984 -0.022007572 -0.005779619 0.02452611
000350 10 a2 05 3d ef 0a 9e 3c 35 99 86 bc 97 5c 6b bc
       0.032625258 0.019292323 -0.016430477 -0.014365337
000360 29 6c bf bc ad 90 71 3d 88 32 20 3d c4 24 54 bd
       -0.023367004 0.058975864 0.03911069 -0.051792875
000370 37 6b 1a bd 3b df 33 bd d5 98 13 bd d5 b0 9c 3b
       -0.037699904 -0.04391406 -0.036034424 0.004781822
000380 3e 49 0c bd c3 04 81 3b fe 27 31 bc 82 43 26 bc
       -0.034249537 0.003937335 -0.010812758 -0.010147931
000390 cc 39 48 bd 99 d9 8c 3d 14 7d b5 ba 3e 0a 21 ba
       -0.048883244 0.06877441 -0.001384648 -0.0006143189
0003a0 7a 46 dc 3c 3f 50 bc 3c d8 a8 45 3d 00 1b c8 bb
       0.026889075 0.022987483 0.048256725 -0.0061067343
0003b0 6f a9 9d 3d d5 12 ec 3c a4 b9 12 3d 02 bb c0 3d
       0.076983325 0.028817574 0.035821572 0.09410669
0003c0 67 ff b7 bd 49 db 99 3c f4 e2 a7 3a 1a 36 78 bd
       -0.08984261 0.018781321 0.0012808726 -0.06059847
0003d0 6f e9 9a 3b 01 39 b9 3c c2 73 3f 3d c2 33 92 3c
       0.0047275345 0.02261019 0.046741255 0.017846946
0003e0 37 36 9a bd 9b 66 31 bc 26 d3 42 bc 0e 0c 9d bc
       -0.07529872 -0.010827686 -0.011891162 -0.019170787
0003f0 93 cb 24 3d dd 7c 3a bd 88 e6 f5 bc b2 75 1c bb
       0.040233206 -0.045529235 -0.030017152 -0.0023873863

bias f4 [16]
000000 f7 ed 44 bd 44 46 31 3c e2 a6 9d bc fb 88 2b 3d
       -0.048078503 0.010819975 -0.019244615 0.04187868
000010 47 86 17 3d 21 7d ee 3c 60 2b b6 bc 83 42 40 bd
       0.03699329 0.0291124 -0.02223748 -0.04693843
000020 07 41 1c bd fe b5 4c 3d 80 47 03 3c d4 d2 82 3c
       -0.038147952 0.04997825 0.008012652 0.015969671
000030 21 85 d7 3b a1 9c 92 3c ce b9 6e 3d 80 c7 73 bd
       0.0065771495 0.017896952 0.058282666 -0.05951643

weight f4 [120, 400]
000000 d0 72 ad bc a8 dd 6e bb ab b0 be bc 79 a6 34 3d
       -0.02117291 -0.0036448035 -0.023277601 0.044104073
000010 05 c7 f7 b7 0d 48 49 bb 18 97 d2 bc 25 54 a7 bb
       -2.953737e-05 -0.0030713112 -0.025706813 -0.0051064664
000020 c3 9d c0 3b f1 d7 86 bc 17 33 e4 bc 4b 29 29 3c
       0.0058781817 -0.01646039 -0.027856393 0.010324786
000030 a7 19 f1 3c b3 6b 07 3d 4f 8e a1 3c 83 71 62 3b
       0.029431177 0.033061694 0.019721178 0.0034552522
000040 39 78 65 bd 84 ba b5 bb cf 15 eb 3c 23 12 53 3d
       -0.056022856 -0.005545916 0.028696923 0.05153097
000050 5c eb 0b bd 15 8c d1 bc 30 1d ea 3c c8 ec 74 3c
       -0.034160003 -0.025579492 0.02857837 0.014949031
000060 21 78 b4 3c 8d ac 02 bd 45 70 81 bc e6 59 1d bd
       0.022029938 -0.03190284 -0.015800605 -0.038415812
000070 b0 e4 20 b9 65 29 c4 ba 09 f3 fa 3c 45 23 91 3c
       -0.00015343982 -0.001496595 0.030633466 0.017717013
000080 f6 6a 17 3d 3a d0 43 3d 46 4e fc bb 1a 6f c6 3c
       0.03696724 0.047806002 -0.0076997606 0.0242229
000090 55 3c ac bc 6a 9b dd 3c 68 0e 81 3c ce 74 ee bc
       -0.021024862 0.027051646 0.01575394 -0.029108431
0000a0 1e c3 89 3c 2b f6 b6 bb 8c c7 1f b9 9a 26 d5 3b
       0.016816672 -0.0055835447 -0.00015237759 0.006504846
0000b0 48 fb da bc 2d 93 5a 3b e3 23 d7 bc b9 c1 01 3d
       -0.026731148 0.0033351884 -0.02626223 0.03167889
0000c0 87 6e 44 bb 8e ce 02 3c b8 51 0b bc ac 30 e3 3c
       -0.0029973106 0.007983817 -0.00850337 0.02773317
0000d0 49 e1 d1 3b fb 20 17 bc 48 24 62 3c 70 9f 7b bb
       0.00640503 -0.009224172 0.013802595 -0.0038394593
0000e0 f3 22 c1 bc 8b 04 49 3b 25 11 7b 3c 4d 25 0d 3d
       -0.023576235 0.0030672874 0.015323912 0.0344594
0000f0 6a 7a 44 bc a4 7b df b9 a7 b5 06 3d 0e 51 40 bc
       -0.011992076 -0.00042625994 0.03288808 -0.011738075
000100 d6 3b b2 3a 5e 04 20 bc d8 1b 28 bd 12 d6 03 bb
       0.0013598155 -0.009766666 -0.04104218 -0.002011661
000110 0e 52 56 bb de 4c d9 bc d0 a8 14 bd b4 c4 4e 3b
       -0.0032702717 -0.026525911 -0.036293805 0.003155035
000120 53 38 b9 bc c9 b5 ce 3b f7 a7 69 bc 2e 18 72 3c
       -0.022609865 0.0063082916 -0.014261237 0.014776273
000130 6e 2d 0b bc 96 ad 86 bc 90 c9 ba 3c 53 2c e1 bb
       -0.008494718 -0.016440194 0.02280119 -0.006871739
000140 7c ab 1d bc 3b 86 b6 3c 43 1d cb 3c d4 6f 7d bc
       -0.009623405 0.022280803 0.024794227 -0.015468556
000150 e5 ea 6e 3b 17 9e 20 bc 5d b9 4a 3c 56 25 d4 3a
       0.0036455926 -0.009803317 0.012373296 0.0016185443
000160 f0 9e 7e 3c 17 5e e7 bc 1e 5f 5e bc 29 42 87 bc
       0.015540823 -0.028243108 -0.013572482 -0.01651104
000170 fd 12 78 bc 68 be d4 bc c3 d3 88 bc 84 f3 ad b9
       -0.015141246 -0.025969699 -0.016702538 -0.00033178565
000180 19 18 03 bd 00 9a ea bc 61 49 25 3c 9a 60 9a bb
       -0.032005403 -0.028637886 0.010088296 -0.004711223
000190 fc 96 9c bc 0e 3d c2 bc f1 89 c2 bb 21 7c 1c bd
       -0.019114964 -0.023710754 -0.005936854 -0.038204316
0001a0 68 9d 98 3b ae 8d 86 bc 54 25 5e bb 5d 1d 1f bd
       0.004657436 -0.01642498 -0.003389676 -0.038846362
0001b0 89 2b b8 bc de ae df bc 80 6a 47 bd 10 7d 1a bd
       -0.022481697 -0.027305063 -0.04868555 -0.037716925
0001c0 6c c6 0a bd 4f 4a 41 bd 76 04 3c bd 7f db 05 bd
       -0.033880636 -0.047190007 -0.04590269 -0.03268003
0001d0 f2 37 13 bd 40 54 db bc dd cc 81 bc a0 58 8a bc
       -0.035942025 -0.026773572 -0.015844757 -0.016887963
0001e0 a6 7a b8 bb b4 e0 18 bd 15 96 30 bd fa 98 63 bd
       -0.005629855 -0.03732367 -0.04311188 -0.05556581
0001f0 5b 83 46 bd c5 7b 4c bd 8c db 78 bd 54 30 11 bd
       -0.048465114 -0.049922723 -0.06075625 -0.03544648
000200 5c 9d 07 bd d2 1a 75 bd 90 06 69 bd 5a 2d 65 bd
       -0.033109054 -0.05984003 -0.056891024 -0.055951454
000210 ad 8c 40 bd 65 d2 a3 bc c6 f9 d7 bc 5e 00 38 bd
       -0.04700916 -0.019997785 -0.026364218 -0.044922225
000220 c7 c7 83 bd ea 41 1c bd b2 69 86 bd 75 46 12 bd
       -0.06434589 -0.038148798 -0.065631285 -0.035711724
000230 e9 9e 5d bd 17 02 5c bd 40 06 43 bd 41 73 77 bd
       -0.054106627 -0.05371293 -0.047613382 -0.06041265
000240 0c 73 82 bd 16 be 00 bd b0 61 66 bd 23 fa 38 bd
       -0.063696 -0.03143128 -0.056245506 -0.045160424
000250 48 4f 5b bd 10 ef d2 bc cd e8 50 bc 31 d1 6d bc
       -0.053542405 -0.02574876 -0.0127508165 -0.014515207
000260 17 a3 fe bc d2 cd 1d 3c 4d 70 84 bb 71 fe 9b bb
       -0.031083627 0.009631591 -0.0040417076 -0.0047605564
000270 37 cd 90 3c eb b3 85 bc 44 07 d6 3c 53 17 22 bc
       0.017675979 -0.016321143 0.026126511 -0.009893256
000280 a1 12 86 3c 87 15 27 bc 43 07 aa 3a e9 3b 2f bd
       0.016366305 -0.010198004 0.0012972135 -0.042781744
000290 d5 e4 4d bb e0 93 2e bc ee 7c 09 bc 31 f2 09 bc
       -0.0031416912 -0.010655373 -0.008391602 -0.008419559
0002a0 39 73 9f 3b fe 14 85 bb 3c 3c e8 bc db 2d cc bc
       0.0048660305 -0.0040613404 -0.028349034 -0.02492421
0002b0 ae 82 6d 3c 9c ca 3d bc 69 e2 a2 bc c9 7a 13 bc
       0.0144964885 -0.01158395 -0.019883351 -0.009001442
0002c0 a5 83 9c bc de 42 51 ba 90 3b fd 3c d9 9c 2d 3d
       -0.019105742 -0.0007982681 0.03091219 0.04238591
0002d0 26 df 70 bb 57 37 e0 bb a3 64 71 3c 4a 28 1e 3d
       -0.00367541 -0.0068425345 0.014733466 0.03861264
0002e0 97 7c c4 3c 64 29 99 bc 4d 39 30 bc 62 9b e8 3c
       0.02398519 -0.018696494 -0.010755849 0.028394405
0002f0 81 01 bb 3b 97 5e 8c 3c d9 40 70 3c 43 a1 23 3c
       0.0057069664 0.017134948 0.014663898 0.009987178
000300 ff 28 73 bc c0 16 19 bc 34 ef 27 3c 68 e5 d8 3c
       -0.014841317 -0.009343803 0.010249902 0.026476577
000310 6c fa 0c 3d 68 5c 70 b9 08 09 14 3d 27 9e 85 bb
       0.03441851 -0.00022922608 0.036141425 -0.004077691
000320 c1 cf 00 bd 34 a9 26 bc b0 46 15 bc fb 28 de 3c
       -0.03144813 -0.010172177 -0.0091110915 0.02711915
000330 cb ee 0c 3b f5 93 db bc a7 3f 43 bb 57 80 af 3c
       0.0021504636 -0.02680395 -0.0029792578 0.021423502
000340 07 94 b5 bb 52 f1 93 3c dd 54 e2 bb c3 1e bd 3b
       -0.005541328 0.018059406 -0.006907089 0.0057714893
000350 b3 55 d0 3b b7 02 7c 3c 16 ae 5b bc 53 4b be bc
       0.0063578724 0.015381507 -0.013408205 -0.023229277
000360 ed 5c 5d bc 13 d6 07 bc 8f 2b a3 bb 73 76 85 3c
       -0.013510925 -0.008290785 -0.004979558 0.016291833
000370 3b 72 05 bd 97 c1 4b 3a 54 71 4f 3c ae 0c c6 bc
       -0.03257964 0.00077726826 0.012661297 -0.024175968
000380 96 b5 dd bc 58 9b 74 bc e3 df 5c bb 4c 68 d6 3c
       -0.027064126 -0.014929615 -0.0033702783 0.02617278
000390 d4 ad 0c 3b 64 4f 9d 3a c0 cb a7 b7 c0 58 62 3c
       0.0021465914 0.001200181 -2.000283e-05 0.013815105
0003a0 0c ff 94 ba 24 52 be bc 0b 07 ae bc d1 c7 a7 3b
       -0.0011367514 -0.023232527 -0.021243593 0.0051202555
0003b0 0c 7a f1 3c 8c 23 ae 3c 1b 9d 40 bd 9a d6 00 3c
       0.029477142 0.021257184 -0.047024827 0.007863665
0003c0 b9 fc 5a bc 50 de 1d 3d 40 ab 54 ba 54 53 1c 3c
       -0.013365918 0.03854209 -0.00081126764 0.009541351
0003d0 f0 e5 e6 bc 4c 40 99 bc fc 59 7a 3b 1f 62 31 bb
       -0.028185815 -0.018707417 0.0038200608 -0.0027066541
0003e0 bb 0e 8e 3c 62 3c 12 bc c9 a0 87 3b 1b 0c f4 bc
       0.017341008 -0.008925529 0.00413904 -0.029790929
0003f0 eb 7a a1 3c 2b 15 df bc 1b 07 63 3c 37 79 98 3c
       0.019711932 -0.027231773 0.013856675 0.018612487

bias f4 [120]
000000 e7 49 01 3c 54 c4 01 bd d4 8d 8e bd 12 e1 28 bc
       0.007891155 -0.031681374 -0.06960645 -0.010307567
000010 1a 13 8f ba 6c 3a 14 3b 6c d6 b2 3c 03 05 b8 3c
       -0.0010915727 0.002261783 0.02183076 0.022463327
000020 06 4a 41 bd 6b 6a 2e 3d 38 5d a3 3a d5 bd 9c 3d
       -0.047189735 0.042581957 0.0012463694 0.07653395
000030 71 91 00 bc c9 3d f8 3b 23 75 cc 3c ea 67 87 bc
       -0.007847176 0.0075757247 0.024958199 -0.016529042
000040 eb a9 98 3d 2a f6 cb bc 61 a6 eb ba 7f 63 68 bd
       0.07454284 -0.024897654 -0.0017978662 -0.056735512
000050 00 ae 44 bc 58 34 81 bc 42 50 7a bc c1 d3 b8 bc
       -0.012004375 -0.01577203 -0.015277924 -0.02256191
000060 3e b5 7f 3d 40 38 b3 bc c7 ab 33 bd f7 00 49 bc
       0.062428705 -0.021877408 -0.04386499 -0.012268296
000070 c1 1f 8f bd 52 72 8d 3d bc ed 84 bd 58 87 b5 bc
       -0.069884785 0.069065705 -0.06490657 -0.022159263
000080 40 2a 33 bd 79 85 54 3d 70 a4 94 bc 31 cc dd bc
       -0.043741465 0.051885102 -0.018144816 -0.027074905
000090 4e aa 21 bd 96 07 f3 bc 3e 92 66 bd c9 f0 23 bd
       -0.039469056 -0.029666703 -0.05629181 -0.040024552
0000a0 ca 1f 2a 3d b5 6a 0a bc 34 e5 ef bc fe 38 63 3c
       0.041534223 -0.0084482925 -0.029284097 0.013868568
0000b0 38 b3 ad bc 23 1c f4 3a cf 75 63 3d 97 51 0d bd
       -0.021203622 0.0018624108 0.055532273 -0.03450164
0000c0 8d 6a b0 bc 98 94 4d bc 7c d1 86 bc 01 82 b1 bc
       -0.021535182 -0.012547635 -0.016457312 -0.021668436
0000d0 66 a7 32 bd c7 77 a5 bc cf 5a ec bc c9 cb 69 bd
       -0.043616675 -0.020198716 -0.028851895 -0.05707911
0000e0 67 5c 3e bd f7 13 10 bc fd e1 c6 bb da be c3 3c
       -0.04647484 -0.0087938225 -0.0060694204 0.023894716
0000f0 94 3b 3b bd a2 df c0 bb 7a 8e 92 3d ac 64 97 bc
       -0.045711115 -0.005886034 0.071560815 -0.018480621
000100 4a 9f f2 3c 3a cf 86 bc 6e a1 25 bd c1 76 1c bd
       0.02961697 -0.016456235 -0.040437154 -0.03819919
000110 e3 bf 0b bd 37 45 8e bc 95 be 6c 3d e9 c8 5b bc
       -0.034118544 -0.017366989 0.05779894 -0.0134146
000120 ee 06 5e bc dd cf b0 3a 8f 09 99 bc 59 37 3d bd
       -0.013551457 0.0013489682 -0.018681316 -0.04619536
000130 95 ee 1e bd 1b d5 ff bc e4 de 85 bc 22 3e 6f bc
       -0.03880175 -0.031229546 -0.016341634 -0.014602216
000140 f0 06 8e bc fe b8 47 bc 2b f6 96 bc ec 96 ce bc
       -0.017337292 -0.012190102 -0.018427929 -0.02521845
000150 d8 06 a4 bb 13 28 c9 bc a9 d8 12 3d ec a1 02 bd
       -0.0050056987 -0.024555242 0.035851154 -0.031892702
000160 33 73 8d bc 75 84 6b bc 66 bb cf 3b c8 1f 0b bd
       -0.017266845 -0.014374842 0.0063394783 -0.033965856
000170 e2 56 9a bb 14 6c aa bc dd 3d 32 bd 40 70 a7 bc
       -0.0047100643 -0.020803489 -0.04351603 -0.020439267
000180 dd f1 9d 3b ce 9f 0c bd 45 08 22 3b 82 ba f4 bc
       0.004820092 -0.03433209 0.0024724167 -0.02987409
000190 e0 5d e7 bc 49 7a 6c bd c0 98 de bc 7a fd 38 3b
       -0.028243005 -0.057733808 -0.027172446 0.0028227256
0001a0 5f be fd bb d6 d8 08 bd 11 e2 9c bc d7 93 00 bd
       -0.0077436413 -0.033409916 -0.019150766 -0.03139099
0001b0 9c f8 48 bd c3 6d 0c bd fa b1 e1 bc 62 3e e4 3c
       -0.049065217 -0.034284364 -0.027550686 0.027861778
0001c0 89 3b 88 bd 6b 20 28 bd 0c 74 94 bc 0c 7c 93 bc
       -0.066519804 -0.04104654 -0.018121742 -0.018003486
0001d0 34 18 98 bc bd d0 9d bc 5d 14 2a bc 8b 15 24 bd
       -0.018566228 -0.019264573 -0.010380832 -0.040059607

weight f4 [84, 120]
000000 d6 a8 87 bc 95 d7 84 bd 24 fa a0 3b 6d 9a 54 bd
       -0.01656 -0.064864315 0.0049126316 -0.051905084
000010 d1 75 34 bc 54 64 8e bc e0 35 c9 bc 93 27 17 bd
       -0.011014418 -0.017381825 -0.024561822 -0.036902975
000020 a8 b1 73 bd f6 47 2d bd fa 74 97 3b 98 8a b7 3d
       -0.059495598 -0.042304955 0.004622099 0.089619815
000030 ec 09 b4 bc a2 b3 69 bd 75 bb 13 bd 47 0e 8a 3c
       -0.021977387 -0.057056077 -0.036067445 0.016852511
000040 90 fa 77 3c 36 44 87 3d 6f a0 88 3c 3c 67 ac 3d
       0.015135422 0.06604807 0.016678063 0.08418128
000050 a5 74 88 3c 8f 10 12 3d 39 07 26 3c d8 2c 92 3a
       0.016657183 0.035660323 0.010133558 0.001115228
000060 90 cf 35 3d ab c2 16 bc 24 14 9c b9 a0 ee 1a 3d
       0.0443874 -0.009201686 -0.00029769645 0.037825227
000070 a9 e2 6d 3b 8e df 09 bc 9a 19 8b 3c 62 57 ae bc
       0.003629843 -0.008415116 0.016979981 -0.021281902
000080 eb cb d2 3c 47 33 43 3c ec e9 80 3b 2b ec 1c bd
       0.025732001 0.011914081 0.0039341357 -0.038311165
000090 90 23 4b 3b b6 c8 87 bb 44 5e ef bb 6e 06 3e 3c
       0.0030996539 -0.0041437997 -0.0073049385 0.011598213
0000a0 dc 28 1f 3c e2 a8 05 3d b9 89 a0 bb c3 a3 89 bd
       0.0097143315 0.032631762 -0.0048992303 -0.06720688
0000b0 36 d4 af bc 44 98 1d 3d b4 51 cf 3c 55 5b 47 3d
       -0.021463495 0.03847529 0.025307514 0.048671085
0000c0 30 e3 bb bb 19 d6 8a 3d a9 ab 63 bc 9e 80 18 3a
       -0.00573387 0.06779117 -0.013895907 0.00058175053
0000d0 16 46 61 bd 07 fa 16 3c a1 2a c0 3d a6 ea 35 3d
       -0.05499848 0.009214885 0.09383131 0.04441323
0000e0 6d 42 0c bd c4 b7 aa bc 7d 1a c9 bc 8b 52 09 3c
       -0.034243036 -0.02083958 -0.024548763 0.008381496
0000f0 68 75 89 bb e6 ba ca 3c 29 5c 7c 3d b2 fa c8 bc
       -0.004194904 0.024747323 0.06161133 -0.024533603
000100 51 9c b2 bb bb 01 12 3d 22 af 91 3c 97 9e b3 bc
       -0.0054507633 0.03564618 0.017783705 -0.021926207
000110 b2 0b 72 bc c3 29 03 3d 54 09 8d bc 9d 95 37 3c
       -0.014773296 0.03202225 -0.017216362 0.011205104
000120 b4 ba 82 bb 50 31 69 bd 90 42 9c bc 98 3d 9b 3c
       -0.003989542 -0.056931794 -0.019074708 0.018950269
000130 01 a4 31 3d 90 95 a5 bc dd c7 19 bd 4f ad 19 3d
       0.043369297 -0.020212919 -0.03754412 0.037518796
000140 f4 95 c2 ba 83 0f 7d 3c 2d c5 1b 3d b1 d0 ee bc
       -0.0014845715 0.015445593 0.03802984 -0.029152246
000150 bc 98 82 3a 81 c9 1e bd 60 75 34 bd d9 31 cd bb
       0.0009963731 -0.038766388 -0.04405725 -0.006262046
000160 49 53 c4 3c e1 ff af 3d 10 72 43 3c e4 14 14 3d
       0.023965495 0.08593727 0.01192905 0.036152735
000170 3c b7 0b 3c b7 a9 3c 3d 68 67 90 bc ec 90 2a 3c
       0.008527573 0.04606029 -0.017627433 0.010410529
000180 d1 df 1e 3d dd 39 11 3c 38 eb fb bb 91 dd 15 bd
       0.038787667 0.008863893 -0.0076879524 -0.036588255
000190 c1 06 43 bd 10 21 82 bd ed 36 8b 3b 5a 00 2f bd
       -0.047613863 -0.063539624 0.004248491 -0.042724945
0001a0 80 2f 23 3c 67 c5 c4 bc f4 e8 7c 3d ed a9 7f bd
       0.009960055 -0.02401991 0.0617456 -0.062417913
0001b0 02 0a 1b 3d 45 d6 62 3b cb 9f 1d bd a3 56 f5 3b
       0.03785134 0.0034612578 -0.03848247 0.0074871345
0001c0 2d c0 d2 3c 24 f6 85 3c d7 2b fb bc 90 90 9a 3d
       0.025726402 0.01635272 -0.030660553 0.07547104
0001d0 07 22 9a bb 5f d8 85 3c cf 24 58 3d 03 ff 04 3d
       -0.0047037634 0.016338525 0.05276948 0.03246976
0001e0 03 eb 5e bd ac 46 8e bd 18 c8 62 bb c8 97 ec bc
       -0.054423343 -0.06947073 -0.0034604128 -0.028880969
0001f0 e0 76 73 bc 03 38 2b bd ff 08 57 3c d3 31 77 bd
       -0.014859885 -0.041801464 0.013124703 -0.06035025
000200 7f 83 53 bd 02 20 ad bd a8 72 75 39 99 42 26 bb
       -0.051639076 -0.08453371 0.00023407734 -0.0025369285
000210 23 d9 28 3c e3 0e 1f 3d 76 04 92 bd cd 63 14 3c
       0.010305676 0.038832556 -0.07129757 0.0090569975
000220 37 35 87 bb 27 79 2c bc 5e 65 71 bd 96 cb c2 3c
       -0.0041262168 -0.010526932 -0.058934562 0.023778718
000230 f5 7f 80 ba c0 0c 7c 3b 69 00 0e bc ab f2 0a bd
       -0.0009803759 0.0038459748 -0.00866709 -0.033922832
000240 2b 30 bf bc f0 70 47 3c 54 10 a4 bd e8 c8 4b bd
       -0.023338398 0.0121729225 -0.08010927 -0.049752146
000250 4d b0 43 3b 83 9c 6a 3c 35 aa 49 bc a9 05 89 3a
       0.0029859722 0.014319542 -0.012308647 0.0010453957
000260 5a 2c 1e bd 16 41 c4 bd a3 8d fe bb 6f 21 95 bd
       -0.038616516 -0.09582727 -0.0077683493 -0.072817676
000270 7a b3 94 bc b3 45 4a 3d 49 c4 d5 3c 49 2e 59 3a
       -0.018151987 0.049382877 0.026094573 0.000828479
000280 6a 91 00 3b 99 b0 9b 3c 9f 13 c7 3c a0 29 4a bd
       0.0019617924 0.019005107 0.024301348 -0.049356103
000290 c7 11 07 bd dc 6c 31 bc 60 5e d4 3b 86 78 99 bc
       -0.03297594 -0.010829177 0.006480977 -0.018734228
0002a0 88 2e 08 bb 32 82 b2 3b e0 2d 3c bc 24 b3 48 3c
       -0.0020779688 0.0054476494 -0.011485547 0.012249742
0002b0 9d ce 60 bd 29 df 8f 3b bf a5 21 3d 71 d1 31 bd
       -0.05488454 0.0043906164 0.03946471 -0.04341263
0002c0 13 f3 cd bc f9 e0 24 bd a9 34 95 bc 96 39 02 3d
       -0.02514032 -0.040253613 -0.018213587 0.0317932
0002d0 13 23 ca 3c 63 38 52 bd 75 a3 35 3d 5e 5f 9f 3c
       0.024674928 -0.051323306 0.044345338 0.019454654
0002e0 7a db 0e bd 6d 27 52 3c 33 33 83 bb 6e 24 51 bb
       -0.034877278 0.012826783 -0.004003906 -0.0031912583
0002f0 c0 bf 01 bc 70 df b5 bd 69 26 e1 bc 7f 0c 1a bd
       -0.007919252 -0.08880508 -0.027484136 -0.037609573
000300 b6 cf 05 bd 08 cb 8f 3c f4 5e 1c bd af df 2b bd
       -0.03266879 0.017552868 -0.03817649 -0.04196137
000310 c9 bf 1d bd d3 6f 33 3d dd 53 94 bc 75 c6 c3 3c
       -0.03851298 0.043807816 -0.018106395 0.023898343
000320 e5 56 92 bc a4 f6 49 bd 45 03 54 bc e9 2a 6d bc
       -0.0178637 -0.04930748 -0.012940233 -0.014475563
000330 ec 23 6d b9 4a b2 9d 3c 7b 96 57 3d b2 23 90 bd
       -0.00022615463 0.019250054 0.052633744 -0.07038058
000340 3e 2a 08 3d 2d e1 02 bd 4f b2 71 bc c6 04 25 bd
       0.03324341 -0.031953026 -0.014751985 -0.040287755
000350 88 5a 68 3c fe 3f 69 bd 63 57 3a ba fc 79 13 bd
       0.014181741 -0.056945793 -0.00071083585 -0.036005005
000360 70 00 aa 38 5e e8 aa bd cd e0 1f 3d 7d 47 d1 bc
       8.106313e-05 -0.08345102 0.039032746 -0.025546784
000370 fd 5b af 3c 38 55 8b bc 31 37 e8 3b 4c 58 84 bb
       0.021406168 -0.017008409 0.0070866575 -0.004038846
000380 45 f7 eb 3b de 34 c2 3a f9 54 dd 3b c7 32 b9 3c
       0.0072011077 0.0014816781 0.0067545143 0.02260722
000390 8c 81 52 3d e8 bd 0c bd 3d 86 04 3c 4a c5 73 bc
       0.051393077 -0.034360796 0.0080886455 -0.01487858
0003a0 a8 5a ae 3b 0b f8 a7 bd c9 5b b4 3c 33 42 ab bd
       0.0053208657 -0.08201607 0.022016423 -0.08362236
0003b0 2f a8 9d 3b 67 46 91 3c 65 82 ac ba 18 c1 4d bc
       0.004811309 0.017733766 -0.0013161419 -0.012558244
0003c0 74 58 03 bd 88 0f 0a bc 5b 6c 24 3c 76 4b fd bc
       -0.032066777 -0.0084265545 0.0100356 -0.030919772
0003d0 f7 fb ef 3c d0 37 28 bd 7c 1c 32 3d fb 3b 62 bc
       0.02929495 -0.041068852 0.043484196 -0.013808246
0003e0 c2 18 4a bd 1c 93 68 3d 12 8a c0 b9 e3 5e 4c 3d
       -0.049340017 0.05678092 -0.00036723964 0.04989518
0003f0 bd dd 6b 3c f7 c3 c2 3b 8f 3d 15 bd 5b 24 0a 3c
       0.014396128 0.005943771 -0.03643566 0.008431519

bias f4 [84]
000000 12 14 7f 3d 26 ce a3 bc 1a 2c 3b 3d bb 28 cf 3d
       0.062275 -0.01999576 0.045696355 0.101151906
000010 84 1f 10 bd 2c 29 27 bc 82 28 4c bd 2a 47 7b 3d
       -0.035186306 -0.010202687 -0.04984332 0.061347164
000020 75 a5 b5 3d a4 ff 02 bc 24 bd dd ba 06 e8 ca 3c
       0.08869449 -0.00799552 -0.001691733 0.02476884
000030 31 90 ea bb 60 9a f0 bc 3b 49 58 bc f0 8a cb 3d
       -0.0071583022 -0.029370487 -0.013201053 0.099386096
000040 42 83 8e bd 02 b0 bc 3d 47 c8 b0 3d 59 c5 9e bd
       -0.06958629 0.09213258 0.0863195 -0.07752485
000050 4f 4a c8 3c 08 07 dd bc f5 e2 1b bd 88 b4 41 bd
       0.024449496 -0.026980892 -0.03805824 -0.04729131
000060 0a f5 f0 bc 11 c3 05 bc 23 9f b1 3d 65 57 81 bd
       -0.029413719 -0.008164183 0.08672931 -0.06315497
000070 96 69 17 bd 35 29 4d bc 72 49 78 3d b3 d2 af 3c
       -0.03696593 -0.012522032 0.060616918 0.021462774
000080 b0 e5 88 bc ed 66 b2 bd 06 3e 0e 3d 64 f7 04 bd
       -0.016711086 -0.08711038 0.03472712 -0.032462493
000090 58 07 e6 3b 50 d3 51 3d 6b 9b 20 bd 90 18 ac 3d
       0.0070199184 0.051226914 -0.039210718 0.084031224
0000a0 8a e3 ba bc 58 6e 98 bc f4 ff df 3d 42 8e 35 bc
       -0.022813577 -0.018607304 0.10937491 -0.01108128
0000b0 a1 da 6e 3d 0f 96 d1 bc fb ed e2 bc d5 2e 8a bc
       0.05831397 -0.025584249 -0.027701369 -0.016868034
0000c0 74 63 2e bd 54 99 9a bb 52 b1 01 bb 84 ae 58 bd
       -0.042575315 -0.004717985 -0.001978953 -0.052900806
0000d0 40 78 82 3b 09 2a 81 3d 20 88 ca bc 3d f6 06 bd
       0.00398162 0.06306846 -0.024723113 -0.032949675
0000e0 40 82 3d bc 77 6e 95 3d 52 11 46 bd 55 74 02 bd
       -0.011566699 0.0729646 -0.04835636 -0.031849224
0000f0 da 70 b3 bc 0a 38 57 bd c5 83 0a bd 98 fe f9 3c
       -0.021904398 -0.052543677 -0.03381707 0.030516908
000100 af fc d7 3d 39 46 87 3d 6c c6 9e bb db 73 a4 bc
       0.105462424 0.06605191 -0.004845431 -0.020074775
000110 be 1f 20 bd cf 72 4e bd 43 f0 86 3d 27 c5 b7 3d
       -0.03909277 -0.05040246 0.06588795 0.08973151
000120 bc 7b 75 bd 66 85 ab bd 90 fa 27 bd 04 1c 8b 3d
       -0.059932455 -0.08375053 -0.04101044 0.06792453
000130 38 6b 9c bd d3 2a f2 3d 05 11 36 3d ab 3f 84 3d
       -0.07637638 0.11824574 0.044449825 0.06457456
000140 07 fb 99 3d 94 64 a7 3b 67 7d 98 bd 6f 2f ba bc
       0.07518583 0.0051084254 -0.074457936 -0.022727696

weight f4 [2, 84]
000000 98 f4 18 bd fa 26 87 bc aa 11 80 bd 21 06 02 bd
       -0.037342638 -0.016498078 -0.06253369 -0.031744126
000010 c3 56 51 bc 10 01 b5 3b 14 f0 8a bc 72 91 83 bc
       -0.012777033 0.0055238083 -0.016960181 -0.016060565
000020 a8 e5 fe bc b7 b2 0f bd 98 0c 03 bd ce 22 28 bd
       -0.031115368 -0.035082545 -0.031994432 -0.041048817
000030 d8 ae bd 3a 54 0c ba 3c a1 59 1e 3c 99 d0 ea bd
       0.0014471663 0.022710957 0.009664924 -0.11465568
000040 e3 eb 98 bc 9f 2c 0a bd 58 1b 83 b9 1a f6 81 3c
       -0.018667167 -0.03373396 -0.0002500664 0.01586442
000050 bb 3e 0a bd 50 df 37 bc 6d 02 09 3d ab f2 de bc
       -0.03375123 -0.011222675 0.03344958 -0.027215322
000060 53 db 22 bd ab 98 bf bc 10 ca db bc 78 51 89 bc
       -0.039759945 -0.023388227 -0.02682975 -0.01676248
000070 4a 90 80 3c 03 de 47 3c 16 6f 31 bc 91 f6 e5 bc
       0.015693802 0.012198928 -0.010829708 -0.028071674
000080 47 30 5e bd 91 6e 7c 3c 5e 0a a2 bc db 86 39 bc
       -0.05424526 0.01540722 -0.019780334 -0.011323656
000090 5c 82 2c 3b 7e e9 6a bd c5 9f a7 3d 08 1c 4e bd
       0.0026322817 -0.05735158 0.081847705 -0.0503197
0000a0 f4 0e 24 3d ab 91 36 bc 63 52 a8 bd 6e cb e0 bb
       0.040053323 -0.011143128 -0.08218839 -0.006860188
0000b0 26 5a 3f bd 74 2e 3f bb 0b a6 27 bd d9 cb 17 3d
       -0.04671683 -0.0029171975 -0.040929835 0.03705964
0000c0 03 8a 3c 3d b9 ca 25 bd 18 3b bc ba 3a f1 85 bd
       0.046030056 -0.040476535 -0.0014360873 -0.06540151
0000d0 33 d5 60 3c 2a 83 1f bd 3b 76 5a 3c a5 7b 40 bc
       0.013722706 -0.038943447 0.013333852 -0.011748229
0000e0 28 cd 47 3c 20 06 c1 3b 89 e2 14 bd 6b e1 de 3c
       0.012194909 0.0058906227 -0.036348853 0.027207097
0000f0 88 f1 fa 3b e1 13 32 3c e0 96 85 3c 7a ae ff bc
       0.0076581873 0.010868997 0.016307294 -0.031211127
000100 58 3a d6 bc c2 e5 5a bd 5d fa 39 bc 80 43 ea 3b
       -0.026150867 -0.05344177 -0.011351195 0.00714916
000110 60 13 3d 3c d7 eb 26 bc f2 71 8b 3c 4f 45 b2 bd
       0.011540264 -0.010188065 0.017022107 -0.08704626
000120 b5 08 7e bd f9 ee 41 bd 25 f9 8c bd d5 84 ea bc
       -0.062020022 -0.047347043 -0.06883458 -0.028627792
000130 5a 0a 96 bd 76 19 65 bd 3d b7 4e bd cb 55 38 bd
       -0.07326193 -0.055932485 -0.05046772 -0.045003694
000140 2d 00 7e bd a5 e6 51 bd c9 9d 65 3d 76 77 5f 3c
       -0.062011886 -0.05124535 0.05605868 0.013639322
000150 af cc b7 3a 9b ef b7 3c b1 e3 ea bb 61 f9 cf 3d
       0.0014022792 0.02245312 -0.007168256 0.10154987
000160 bd 18 e7 3c 44 90 c8 bb 2c 62 4a bc 59 7b 8a bc
       0.028210038 -0.0061207134 -0.012352508 -0.01690452
000170 8e 69 04 3d 37 ab 0e bc 30 08 8b 3c 46 d6 b9 bc
       0.032327227 -0.008707813 0.016971678 -0.022685181
000180 5e 9e d2 bc 15 6b 79 3c 18 98 e4 bb 98 d1 c3 3c
       -0.025710281 0.015223284 -0.006976139 0.023903653
000190 40 3d 5d ba b8 ff 6d 3d fc f8 22 3d 8f 0e 69 3c
       -0.0008439608 0.0581052 0.03978823 0.014224662
0001a0 3b 4a 9b bc 63 c8 42 3d 87 50 d0 3c e1 68 04 bd
       -0.018956294 0.047554385 0.025429023 -0.032326583
0001b0 b2 6e 7f bc f2 56 89 bc 2d 0a 98 3d d5 67 2e 3d
       -0.015590357 -0.016765092 0.07423816 0.04257949
0001c0 a5 42 92 bb b5 37 c7 3c 07 7a 1a 3d 2c 0c 3b 3d
       -0.004463511 0.024318555 0.03771403 0.045665905
0001d0 f1 30 82 bd c7 20 95 3c fe 98 e4 3c a5 2a ea 3b
       -0.06356991 0.018204106 0.027904984 0.007146197
0001e0 ca e0 cd 3c ee fc 60 3d 60 19 8f bc d4 a2 e0 3c
       0.025131602 0.054928713 -0.017468154 0.027421393
0001f0 55 4c d3 bc 18 82 95 3c 9c 1a 3a 3d 07 55 23 bd
       -0.025793234 0.01825051 0.045435533 -0.03987601
000200 41 32 05 3d a6 54 d0 bc 76 6e a2 3c 51 6a 0f bd
       0.03251863 -0.025430989 0.019828063 -0.0350135
000210 0e 49 93 bb 44 0b 2a 3d ad 7c a8 bc aa 19 6a 3d
       -0.004494793 0.04151465 -0.020567263 0.05715338
000220 b3 51 2e bc 5b 5f 96 3d ea c2 3f bd ce ed 8a bc
       -0.010639596 0.07342406 -0.046816744 -0.016959097
000230 9f 47 b3 3c e8 9a a1 3d 39 24 22 3c f9 ae 83 3c
       0.021884738 0.07890874 0.0098963315 0.016074644
000240 bb 7a 06 3d 86 8d 9d 3d e7 96 1f bc cc 3c 55 bc
       0.03283189 0.07693009 -0.009740568 -0.013014983
000250 f6 03 b7 3b d1 1d cb bc 96 7a ce 3c 7a a7 8e 3c
       0.005585189 -0.024794491 0.025204938 0.017413843
000260 6c 02 32 3d 8b 2b 19 bd 00 34 8e 3d 6d 99 89 3d
       0.04345934 -0.03739504 0.06943512 0.06718717
000270 91 fd f8 3c 2b 67 13 3d d2 ff f3 bb 35 78 68 3d
       0.030394347 0.03598706 -0.0074462676 0.056755263
000280 e4 9f 45 bc fa ad 6b 3d 4a ec 3b 3b c8 f7 b6 3b
       -0.012062047 0.057538964 0.0028674775 0.005583737
000290 69 2a bf 3d ef cc eb 3c 9f 87 bc 3d 19 24 61 bd
       0.09334261 0.028784243 0.09205555 -0.054966066

bias f4 [2]
000000 5d a1 1a bd 50 e5 b0 3c
       -0.037751544 0.02159372
