model.pth (torch, 250111 bytes, 10 tensors)

weight f4 [6, 3, 5, 5]
00000000: ea20 693c bef9 dabc 6ab0 8abc 4dd9 b6bd
00000010: 8439 5ebc 3e85 693c e2ef 32bd 968f 02bd
00000020: ca18 47bd a52f a9bc fe43 6e3c fc43 eebc
00000030: e18c dabc 1e42 64bd 7ee2 003d e8bf 89bd
00000040: 0779 12bd 4761 13bd 7cf2 2d3c 810a dfbc
00000050: 9039 253d d6cf 1ebd aed7 f33c 9074 d2bd
00000060: 6e65 1cbd 9271 86bd ada6 8abd fff3 37bd
00000070: a8fa 74bc 8ce7 efbc adec 3bbd ba3a a8bd
00000080: ccb6 213d 4a8c dbba 7c60 21ba aebf 29bd
00000090: 168c 9dbd d51b 84bc e3a1 94bd 85f7 b43c
000000a0: 44d5 19bd 3e60 46bd 8053 85bd ff37 57bd
000000b0: cf7f 1ebd b83e d4bc 42ac 7abc 15b9 d3bb
000000c0: 7a73 13bd 9138 6ebd 1a1a a3bc fc29 4fbc
000000d0: 7bdc 47bc 0bb1 cfbb 7f35 febc 3a36 483d
000000e0: bc83 00bd b781 0abd d463 17bd 9e14 903c
000000f0: 9ec7 87bd 7172 adbd 2a9a 813c eda7 a73d
00000100: d7a3 6cbc e036 883c 240b 543b 81b4 13bd
00000110: 4c16 8ebc 523f 83bb 53af 50bd 0f8e 07bc
00000120: 1eb8 2cbc 9433 91bc 47d3 e6ba 1a1e e2bd
00000130: 0c82 a0bc 9262 c3bd 4894 c6bd a0bb d5bc
00000140: 85c2 fabd ab8b b9bd 91a8 fbbd 3aff 10be
00000150: 27e3 4cbd 8145 e03c f888 77ba b9ba c83b
00000160: ec96 a9bd e1ad 94bd ee19 cbbb 2c33 22bd
00000170: d0c9 933c fadf aebc b5a8 083d ca82 4b3d
00000180: 86fc 9d3c 2298 9dbc 3e32 14bd f428 9d3c
00000190: b69d abbc ecb7 8dba 945e a7bd 2929 8f3c
000001a0: 67b1 40bd e32c bdbd 15b6 a2bd 5525 99bd
000001b0: 343d adbd 9891 8bbd f06d adbc cdaa 9ebd
000001c0: 16ea 23bd d7a9 263b ee9e 5bbb 2c1d 903c
000001d0: ad0e 06bd 89cc 97bc 04f5 ff3c 3656 283d
000001e0: 44f6 0dbd a62f 863c c798 253b e4cd 583d
000001f0: a0d7 993c d920 e3bd 9277 06bd 71d0 61bd
00000200: 2722 25bd c134 2abd bb3e 2dbe 42cd 9ebd
00000210: a14e 4bbd 25ae cfbd 413f b5bd 2d60 1d3d
00000220: 238b 0fbb 791b 40bc c952 8dbd f459 0cbd
00000230: 8172 283d bc6f 3cbc ce79 0c3d e591 63bd
00000240: 2c45 14bb 5673 cabc 6e5b a93c ab02 a43c
00000250: 821f 96bd 0704 b73c fdbf abbd 866d b9bc
00000260: 29bb 81bb 0d13 06be acdb 92bb 8fde 41bd
00000270: a5bb 363c e413 6dbd d28a 3bbc c34e 4ebd
00000280: e264 b4bd d6ad 08bd 8d53 66bd d95a 54bd
00000290: 954b ecbc 26ba 0cbd e52d 9dbd bc92 41bd
000002a0: e511 fabd eebd 683d cb78 d1bd 5764 523d
000002b0: aedc 2e3c f6ea bdbc 4e6a 66bd 5c6e 2fbc
000002c0: 75ff a3bd a3de 71bd d1a5 43bd 4cab 8b3c
000002d0: 56c6 dabd 2153 abbd c8c7 a2ba 4b6e a0bd
000002e0: 820f 153c 5fc6 15bd 8675 c2bd 4665 80bd
000002f0: 5606 34bd ab1e c0bd 19d0 10bc cda8 8ebd
00000300: 44a8 80bd 6398 47bd e11d f9bc 5adf 47bc
00000310: b299 f23c 629d 893c ef91 173d 0dc5 aa3c
00000320: 9540 83bc 099f 32bc 74f6 03bd c089 06bc
00000330: b59a 583d b6aa 1f3d 7975 42bd d6da e2bd
00000340: d1ed f3bd 529e 4fbd dc81 34bd 8ff3 96bd
00000350: b164 fdbd 6ce2 30bc af12 cdbc d371 e7bd
00000360: 3617 903d e3e4 ebbd 26f9 99bd 8e0c 90bc
00000370: 1222 823c b379 93bd 9613 76ba 61b4 cabb
00000380: aa71 a5ba 1a05 77bc 6305 c8bc 856b 9c3c
00000390: e875 acb9 ac60 26bd cd7b 80bd d869 55bc
000003a0: 1e6d 1f3b 584c 5fbd 5ad5 383b 6158 aebb
000003b0: f505 84bd 6c21 2bbd 6c87 37bd 5d92 583c
000003c0: 1c5d 4dbd 72c0 66bd 954c 083b ea1f 9fbd
000003d0: 80fa a03b 1bde 9fbd ab54 8cbd c538 663c
000003e0: 5bb9 24bd 8f6a 103d 6dfd 8bbd 0fb0 4dbc
000003f0: 9b4f 49bd 642b fcbd 00ca 56bc f754 86bd
0.014229039 -0.026730414 -0.016929824 -0.089281656 -0.0135635175 0.014252959 -0.0436858 -0.031875215
-0.048607625 -0.020652601 0.014542578 -0.029085152 -0.026678504 -0.055727117 0.031466 -0.06726056
-0.035759952 -0.035981443 0.010616895 -0.027226688 0.0403381 -0.038772427 0.02976593 -0.10276139
-0.03818267 -0.065646306 -0.06770072 -0.044910427 -0.014952339 -0.029285215 -0.04588001 -0.08214326
0.03948097 -0.0016750183 -0.000615604 -0.041442566 -0.07692735 -0.016126553 -0.0725744 0.022090683
-0.0375569 -0.048431627 -0.06510067 -0.052543636 -0.038696107 -0.025908813 -0.0152998585 -0.0064612725
-0.0359988 -0.058159415 -0.019909907 -0.012644287 -0.012198563 -0.006338244 -0.031031368 0.04887984
-0.03137563 -0.033815112 -0.036960438 0.017587956 -0.06629871 -0.084690936 0.015820581 0.08186326
-0.014443359 0.016627729 0.0032355273 -0.036060814 -0.017344616 -0.004005351 -0.050948452 -0.0082736155
-0.010541944 -0.01772479 -0.0017610573 -0.11040898 -0.019593261 -0.09540285 -0.09696251 -0.026090443
-0.12244133 -0.09059843 -0.12288011 -0.14159861 -0.050021317 0.027376892 -0.0009442712 0.0061257747
-0.08280739 -0.07259727 -0.0061981594 -0.039599583 0.018040568 -0.021347035 0.033364017 0.049685277
0.019285452 -0.019237582 -0.036180727 0.019184567 -0.020949226 -0.0010812259 -0.08172336 0.017475681
-0.047044184 -0.09237077 -0.07944886 -0.07477824 -0.08458939 -0.06814879 -0.021170586 -0.077474214
-0.040018164 0.0025430822 -0.0033511478 0.017592035 -0.03272884 -0.018530147 0.031244762 0.041097842
-0.034658685 0.016380142 0.0025268064 0.052930728 0.018779576 -0.110902496 -0.032828875 -0.055130426
-0.040315773 -0.041554216 -0.16918461 -0.077539936 -0.049635533 -0.10140637 -0.08849955 0.0384218
-0.0021903 -0.0117253 -0.06900556 -0.034265473 0.041124824 -0.011501249 0.03429585 -0.055559058
-0.0022624237 -0.0247132 0.02067348 0.020020803 -0.073302284 0.022340788 -0.08386228 -0.022635233
-0.003959079 -0.13093205 -0.0044817533 -0.04733139 0.011153136 -0.057880297 -0.011446672 -0.05036808
-0.08808304 -0.033368908 -0.056232024 -0.05184445 -0.028844634 -0.034357212 -0.07674769 -0.047259077
-0.12210444 0.056821756 -0.102281176 0.051365223 0.010672731 -0.023183327 -0.056253724 -0.010707464
-0.08007709 -0.059050214 -0.047765557 0.017049454 -0.10682361 -0.08365465 -0.0012419159 -0.07833537
0.009097936 -0.036566135 -0.09495072 -0.062693164 -0.043951355 -0.093808495 -0.008838677 -0.0696579
-0.06282094 -0.04872931 -0.030409755 -0.012199247 0.029614303 0.016798679 0.037004407 0.020845914
-0.016022006 -0.010902175 -0.032217458 -0.008211553 0.052881915 0.038981162 -0.047475312 -0.11076896
-0.11910594 -0.050688095 -0.044069156 -0.07370674 -0.12372721 -0.010796171 -0.025033323 -0.11301007
0.07035677 -0.11518266 -0.075182244 -0.017584112 0.015885387 -0.07200947 -0.0009387074 -0.0061860536
-0.0012622376 -0.0150769 -0.024416631 0.019094238 -0.00032894243 -0.040619537 -0.06273613 -0.013025723
0.0024326514 -0.054516166 0.002820334 -0.005320594 -0.06446449 -0.04177992 -0.044806883 0.0132184895
-0.050137624 -0.056335874 0.00207976 -0.07769759 0.0049126744 -0.07806035 -0.06852087 0.014051621
-0.04021583 0.035257872 -0.068354465 -0.012554183 -0.049148183 -0.123129636 -0.013109684 -0.065591745

bias f4 [6]
00000000: 68a6 4dbd 9d4e 163b 1a38 c9bd aedd ab3c
00000010: 7915 7a3d c12b c2bd
-0.050207525 0.002293504 -0.09825154 0.020979729 0.061055634 -0.09481002

weight f4 [16, 6, 5, 5]
00000000: de9a 093d c758 d13d 3db1 ff3c c89e b93c
00000010: b8e0 d53c aa76 093d b74c 4e3d d59e 11bc
00000020: 7568 fd3c 78a1 d43c d7ec 583d 275a 52bc
00000030: b531 a03a 11d0 8abc f19b 4ebd 5847 9e3c
00000040: d398 f0bc 1409 f83c 89cd 543d ddf8 56bc
00000050: 0d3a 993c 010b 793c 55ca ddb7 5b12 2c3d
00000060: 18e1 17bb f35c 5d3c 301f 8b3c 3d78 9cbd
00000070: 6039 c8bc e1b5 c03c afdb 2abd ce8f 6bbc
00000080: 5d37 80bd cb27 5cbc ae06 80bb c596 babc
00000090: e494 5abd 1f0c 94bb 3c4a debb 4e37 103c
000000a0: 835d b73a 2cb2 b4bc e7b8 29bc fab5 20bd
000000b0: 2392 fabc d5a4 68bd a91c f3bc 9b54 0fbd
000000c0: 1d05 02bd df84 8dbd df20 6ebc 6c75 883c
000000d0: e2d8 243b 4ee3 8eba 1350 bbbc 8406 82ba
000000e0: 6b47 5b3d 7c59 8e3b 15da 62bc 1251 b4bb
000000f0: c202 22bd 51dd 393c fe20 bdbc c707 84bd
00000100: fcb5 a9bc 98f7 1ebd 240d 54bc 75fe 023c
00000110: b723 0abd 6687 e3bb fd07 ff3c 15ce d0bc
00000120: 5cc3 22bd 9e17 753c 59a9 a93c eb8b b0bc
00000130: 3a05 f43c 2a5d 493c 79bf c4bc ab61 0bbc
00000140: ca96 adbc d0be b7bb b531 7e3a 35b9 f63c
00000150: 54cd 453c 7fd6 5cbc 2db5 9d3d e240 a9bb
00000160: 3c6a 163c a2d5 7c3d 2ce9 273c 1d70 2ebc
00000170: c8e2 7abc f4ce 82bc 2838 ff3c e33a 6fbd
00000180: 645f a2bc 5d88 6b3c a452 edbc e16d e3bb
00000190: 8beb 71bd e297 003d db36 2dbd 3fa9 0abc
000001a0: 5c78 eb3b 9848 98bc 474e e53a 5789 0e3d
000001b0: 7f65 113c 980b 81bc c571 2bbd 9730 3dbd
000001c0: 887b 2a3c 7cbc 443c 4072 6bbd 2f5b 94bc
000001d0: 1cd5 383c b4cc 3c3c 8525 b039 3df1 c2bb
000001e0: 0f49 f73c f0a1 9e3c 1574 d43c 9192 913d
000001f0: 37a3 393d 17ea 68bc 00db 04bd 5c89 6bbc
00000200: 8979 67bc 2920 27bd 0180 20bd bfdb 05bd
00000210: 090d 4abc a8ce a5bc 511f 8e3b 15cf 45bd
00000220: 5cd1 83bd 2883 2bb9 e062 e6bc 0352 853c
00000230: ade8 04bd 4d58 b13c 2c97 47bc 930a 2ebd
00000240: 7993 d7bc 7841 133a 20dc 86bc b2f6 6e3c
00000250: 8a14 7abd 0118 263d e349 223c 4ccd 043d
00000260: a233 883d 536f 00bd f5df e83c 3f31 16bd
00000270: c480 413d 4ddd 92bc 4848 e9ba bcb4 5c3b
00000280: eccb c63b 94a3 bdbc edad 1ebc 6904 49bd
00000290: 038b 3bbd 09b0 69bd 6b55 073d 5484 293d
000002a0: 70d8 333c cc43 483d fbbf df3c 6bea 8c3c
000002b0: f04f c83c b3e1 81bc 08a4 153b d4f8 913d
000002c0: 6f79 2a3d 71ae 22bd b847 e3ba 084f 643d
000002d0: b1cd 59bd 9926 333d 4216 543d 14cf 173b
000002e0: d5af 68bc 72db 053c 554e 403c 64b2 01bb
000002f0: ff27 54bd 355c f8bc 3a8a 88bd 1472 043d
00000300: 3923 2bbc 47f6 5dbd a4af 25bd 0e85 c0bc
00000310: 2af9 61bb 34f6 66bc 6a87 83bc 028c f43c
00000320: 57ee 803d e3fa 623d 1e18 803c 372d 3b3d
00000330: 3ce1 153c 5e4f c2bb 6c36 653b dcfa 2c3c
00000340: 1887 953d 4590 9abc 5e1e f63c b321 bb3c
00000350: aead 7b3d 087f 713d 00f2 233d d1db 2d3c
00000360: da6c 8f3d 603e eaba 796e b4bc 647b 2c3d
00000370: a7b2 933d d154 e5bc ed3f f83c b9f3 423c
00000380: e348 9b3b 3155 843c 303a ebbb 8f4d 933d
00000390: f99c 2a3b 3012 2e3d 3ee3 2b3d a8c5 a2bb
000003a0: 7319 133d f5e2 e8bc 1e5e 053d cae8 b73d
000003b0: 352f b13c d84e c73c bae4 c7bb 179d 193d
000003c0: 94f6 9a3c 6f9b 3e3d a2ea b63b 9f87 a93c
000003d0: 63e4 75bb 58a2 1a3d 876e f5bc 11bf 7e3d
000003e0: 1e36 8d3c e5eb 5a3b 9b4c cc3d 7ad4 e53c
000003f0: 82d9 603d c305 053e 9e9f 4e3d e78d 22bd
0.03359496 0.10222011 0.031212443 0.02265872 0.02610813 0.033560432 0.05036613 -0.008887966
0.030933598 0.0259559 0.052960243 -0.012838877 0.0012221845 -0.016944917 -0.050441686 0.019321129
-0.029369747 0.030277766 0.051953826 -0.013120857 0.018704439 0.015200377 -2.6439471e-05 0.042009693
-0.0023174938 0.01351093 0.016982645 -0.07640121 -0.024441421 0.023524227 -0.041713413 -0.014377547
-0.0626056 -0.013437222 -0.0039070463 -0.02277697 -0.05336465 -0.0045180465 -0.006783752 0.008802248
0.0013989661 -0.022057615 -0.010359026 -0.039236046 -0.030587262 -0.05679782 -0.029676752 -0.034992795
-0.031743158 -0.06910109 -0.014534204 0.016657554 0.0025153686 -0.0010901482 -0.02286533 -0.0009920155
0.053534906 0.0043441635 -0.01384594 -0.0055028284 -0.03955341 0.01134427 -0.023087021 -0.06446796
-0.02071666 -0.038810343 -0.012942586 0.007995238 -0.033725467 -0.006943631 0.031131739 -0.025488893
-0.03973709 0.014959244 0.020710634 -0.021551093 0.029787648 0.012290278 -0.024017083 -0.008507173
-0.021190066 -0.0056074634 0.0009696738 0.03011761 0.01207288 -0.013478874 0.07700572 -0.0051652053
0.009180602 0.061727174 0.010248464 -0.010646847 -0.015312858 -0.015967824 0.031154707 -0.058405768
-0.019820876 0.014375773 -0.02897007 -0.006940589 -0.059062522 0.031394847 -0.042288642 -0.008463203
0.007185979 -0.018589303 0.0017494642 0.034798946 0.008874296 -0.015752599 -0.041856546 -0.046188917
0.010405429 0.012007829 -0.057482004 -0.018109886 0.011281278 0.011523414 0.0003359729 -0.005949168
0.030186204 0.019364327 0.025934258 0.071080334 0.04532167 -0.014215968 -0.032435417 -0.014376011
-0.014128097 -0.040802155 -0.039184574 -0.03268027 -0.012332209 -0.020240143 0.0043372293 -0.048293192
-0.064364165 -0.0001635669 -0.02812332 0.016274458 -0.03244846 0.02164855 -0.012182038 -0.042490553
-0.026315438 0.00056173606 -0.016462386 0.014585184 -0.061054744 0.040550236 0.009905311 0.03242235
0.06650473 -0.031356167 0.028427104 -0.03666806 0.04724194 -0.01792779 -0.0017798031 0.0033677062
0.00606679 -0.02314929 -0.009685022 -0.04907647 -0.04578687 -0.057052646 0.033040445 0.041385964
0.010976896 0.04889278 0.027313223 0.017201623 0.02445218 -0.015854692 0.0022833366 0.07127538
0.041619714 -0.03971714 -0.00173401 0.055739433 -0.05317468 0.04373798 0.05177904 0.00231642
-0.014202078 0.008169996 0.011737426 -0.0019790167 -0.051795956 -0.030317405 -0.066669896 0.032335356
-0.010445409 -0.054189947 -0.040450707 -0.023500945 -0.0034480789 -0.014096785 -0.016055781 0.029851917
0.0629546 0.055415045 0.0156365 0.045697417 0.009147938 -0.0059298715 0.0034975065 0.010557856
0.07301158 -0.018867621 0.030043777 0.022843217 0.06144493 0.058959037 0.04002571 0.01061149
0.07003184 -0.0017871372 -0.022025334 0.042109862 0.072118096 -0.027994545 0.03030392 0.011898928
0.0047389134 0.016153904 -0.0071785673 0.071925275 0.0026033504 0.042497814 0.041964762 -0.00496741
0.035912942 -0.028428534 0.03256046 0.08979948 0.021628955 0.024329588 -0.0061002644 0.03750333
0.018916406 0.04653495 0.0055821696 0.020694552 -0.0037520162 0.03775248 -0.02995993 0.062193934
0.01723772 0.0033404764 0.09975549 0.028055418 0.05489493 0.12990479 0.05044519 -0.03968611

bias f4 [16]
00000000: ead5 84bc 9bb3 bdbc 8251 0d3d 15be 4cbc
00000010: dd80 8f3c 1358 7bbc dada 5dbd c59e ee3c
00000020: e1ec fbbc f482 2fbd 2e10 ffba 33b2 07bd
00000030: e92a 1ebd 64a7 eebb 55d2 0dbd e9f2 973c
-0.016215283 -0.023156932 0.03450156 -0.012496491 0.017517501 -0.015340823 -0.05416379 0.029128442
-0.030752601 -0.042849496 -0.0019459778 -0.03312893 -0.03861514 -0.007283138 -0.034624416 0.018548446

weight f4 [120, 400]
00000000: fa7e 34bd 90c7 9f3c f860 0c3c e1f7 723c
00000010: 3940 f33c 8440 973a 1507 6d3c 2fd4 2c3d
00000020: 9c98 e93b 4f0c 11bc 53fe 453c fe88 c53c
00000030: 476e c73c 25b6 d3bc ee57 ccbc 7e91 cf3c
00000040: 8dee 843c a68d 133d 0e0f a03c 3193 dfbc
00000050: 514f 01bd 9501 83bc d6b3 bb3c 529c 853b
00000060: 9bb3 863c d653 ff3b 6224 f93c 543b 703c
00000070: d16f a33c ca94 f73b 7168 7c3d b8f7 063b
00000080: 9ca9 273c 4483 483c a8fd b63c 79d5 3a3d
00000090: a83d e73a 389e acbc e250 f33c fd95 52ba
000000a0: cb8f 403c 152e 4ebc 715c df3c 2058 f83b
000000b0: f626 a83c 30fc c43b 6972 d3bc 1f4a d9bb
000000c0: 1f89 023d 4b6f 99bc a108 d0bc 3ac7 953c
000000d0: c853 f2bc ca2b 1ebb cdb8 a93c 48f3 2a3c
000000e0: 3771 96bc 9c98 3bbc 5d9b 07bc c4de 603c
000000f0: 50b1 14bb a030 9738 005e ffbc 1bac 9bbc
00000100: 1c63 52bc 6167 09bc 6d46 f7bc 07fe 433c
00000110: 7060 04bd 6a65 2bbb f811 993a e8d7 d6b9
00000120: 2432 b33a 97b8 1fbd 4042 80bb 6a7c 7cbb
00000130: 176e 283c 41b6 193d a2ff a53c 7d47 d33c
00000140: a7b5 dd3b 6685 89ba 230c 7bbc 6676 0e3b
00000150: f53f 4bbc 326c 6d3c 55fb b6bb d709 cebc
00000160: 8662 c03c 0536 efbc 488c e8ba e00f cbba
00000170: db7a 053c 8fe9 ad3c 114a b3bc 7a8c 05bd
00000180: 0d44 bdbb d4c4 833c 5bd9 0b3c 00fc 35bc
00000190: f030 183c 0c0f 32bd 0afd 96bc 2a4d 72bc
000001a0: 00ac 2b37 314e 1cbc e22e 0dbd 51e6 c8bc
000001b0: d271 523c c41f 26ba 5695 953b 7cde e43b
000001c0: 7be6 16bc 225c e43c 93cf 02bd e16f ccbc
000001d0: dbb1 94bc ef31 60bd 9eef 69bc 61b9 38bd
000001e0: b9f8 6ebc 6885 8a39 8e52 6cbc a718 8abc
000001f0: a7f0 febc 79e8 8b3c f9db 65ba 5543 093d
00000200: 0661 713b 2a35 11bb 45be a23c 2ef0 a13b
00000210: 36a8 843a 742b 36bd 99e3 3d3c 97bc 5cbc
00000220: 42dd dd3c ea50 c9bb 2e41 783d e31a cfbc
00000230: c098 efbc cb65 133d abdf 3bba 4b06 7a3c
00000240: db6b 0b3d 2612 823b 0f1d b1bb 6b7e 45bc
00000250: 064d 1d3d 17ff db3b 1065 673c 9db4 053d
00000260: 218e 093d 9bf2 6d3b bbc3 0e3d 95bd c43c
00000270: a07d 593c 8f56 ae3c b530 5a3c 7cf8 4d3c
00000280: bf10 8c38 2c60 843c de40 863c eac2 0dba
00000290: 5503 8e3c 5caf 35bb 9be9 e2bc 438e bdbc
000002a0: 2ac7 223d 45fd 263c 9bdd 9d3b 6b17 56bb
000002b0: 7c18 bebc 773b f23c 0386 823b c9dc 0cbd
000002c0: e7d5 89bc 66f2 ecbb 7007 0fbc 935c 5a3c
000002d0: f4bf e1bb 2937 0dbb ea36 ab3a e825 2ebc
000002e0: 1635 8dbb c7a4 94bc d9a8 d63b 5763 d6bc
000002f0: 1a0b afbb 109e 9dbc fa0e 1dbc d2ee cc3c
00000300: 76e3 c7bc 589f aa3c 3f6f 34bd 7499 9eba
00000310: 2057 13bc 0e0a 8abb 5ddd f7bc 35e2 00bd
00000320: 8de7 6bbc 7b0e b1bc acef b33b 10a4 3d3a
00000330: 0526 d93b 808b c93c d605 d2bb ff00 a03c
00000340: fdcb 0b3d c78b 573b 98ae 2b39 4be8 3abc
00000350: ab09 123d 4be2 f13c cd47 1abc 9ab1 693c
00000360: 1c5c 89bc 2947 033d f674 8f3c 919d 18bb
00000370: a281 89bc 5748 913c 4b28 ee3c 5e8d 973b
00000380: 6ae5 853c e077 7a38 8992 85bc c3a0 f73b
00000390: 7bb6 9c3c 4709 153c 58d3 2fbd eecb fdbb
000003a0: 08a9 833c c23a f23b 00c1 9f3c c1d8 ca3c
000003b0: d64a 38bd 1631 1b3c 3be1 053d 7d94 353d
000003c0: 2774 9c3c 65e8 b4bb e090 05bc 7be9 043d
000003d0: 399c 703a 680b 6bbb a7e7 ec3a 73b7 93bc
000003e0: 0e1a 3b3c 0b01 5fbc 2848 56bc 0449 00bc
000003f0: 360d 843c 1c87 dabc c90f 04bd fd70 c5bc
-0.044066407 0.019504339 0.008568041 0.014829607 0.02969371 0.0011539613 0.0144670205 0.04219454
0.007128788 -0.008853032 0.012084561 0.024113175 0.024344577 -0.02584369 -0.024944272 0.02533793
0.016227031 0.03602376 0.019538429 -0.027291866 -0.031569783 -0.015991965 0.0229129 0.0040774727
0.016443064 0.0077919764 0.030412856 0.014662582 0.01995078 0.007555579 0.06162304 0.002059443
0.010233309 0.012238327 0.02233775 0.04561374 0.0017642276 -0.021071538 0.029701654 -0.0008033214
0.011753033 -0.012584229 0.02726576 0.0075788647 0.02052639 0.0060115084 -0.025811391 -0.0066311504
0.03186905 -0.018729826 -0.02539474 0.018283475 -0.029580966 -0.0024134987 0.020718003 0.010433979
-0.018364532 -0.011449959 -0.008276788 0.013724986 -0.0022688694 7.209298e-05 -0.031172752 -0.019002965
-0.012841012 -0.008386464 -0.030184949 0.01196242 -0.032318532 -0.0026152977 0.0011678329 -0.00040978123
0.0013671559 -0.038994398 -0.0039141476 -0.0038526305 0.010280154 0.037527326 0.020263497 0.025790924
0.0067660394 -0.0010492026 -0.015322718 0.0021738051 -0.012405385 0.014491128 -0.0055841603 -0.025151176
0.02348448 -0.029200563 -0.0017742002 -0.0015492402 0.008146967 0.021229533 -0.021885904 -0.032604672
-0.0057759346 0.016085066 0.008535708 -0.011107445 0.009289011 -0.04347138 -0.018431205 -0.014788905
1.0232441e-05 -0.009540127 -0.03446854 -0.024523886 0.01284452 -0.0006337131 0.0045649214 0.00698453
-0.009210224 0.027875964 -0.03193624 -0.024955692 -0.018151214 -0.05473512 -0.014278321 -0.045098666
-0.014585667 0.00026420807 -0.014423979 -0.016857458 -0.031120611 0.017078625 -0.0008768435 0.03351148
0.0036831512 -0.0022156932 0.019866118 0.0049419617 0.0010120932 -0.044475034 0.011589908 -0.013472698
0.027083043 -0.006143679 0.060609035 -0.025281375 -0.029247642 0.03598575 -0.0007166813 0.015260289
0.034038406 0.0039694486 -0.0054050754 -0.012054066 0.038403533 0.0067137587 0.014123216 0.03264295
0.03358281 0.0036307934 0.034854632 0.024016181 0.01327458 0.021281509 0.013317277 0.01257145
6.6788394e-05 0.01615914 0.016388353 -0.00054077676 0.017335573 -0.002772293 -0.027699282 -0.023139125
0.03974072 0.01019222 0.004817677 -0.0032667767 -0.023205034 0.02956937 0.0039832606 -0.034390245
-0.01682563 -0.0072310446 -0.008729801 0.0133277355 -0.0068893377 -0.002154777 0.001306263 -0.010629155
-0.004309307 -0.018144978 0.00655089 -0.026170416 -0.0053418996 -0.01924041 -0.00958609 0.025016222
-0.024400454 0.020827934 -0.044051405 -0.0012100176 -0.00899294 -0.0042126244 -0.030256921 -0.031465728
-0.014398468 -0.02161335 0.0054912176 0.0007234225 0.0066268467 0.024602652 -0.006409387 0.019531725
0.034130085 0.003288971 0.00016372872 -0.011407922 0.03565375 0.02952685 -0.009416533 0.014263535
-0.016767554 0.032050285 0.017511826 -0.0023287276 -0.016785447 0.01773469 0.029071948 0.0046250066
0.016344745 5.9716287e-05 -0.016305225 0.007557006 0.019129982 0.00909645 -0.042926162 -0.0077452576
0.016071811 0.0073922584 0.01950121 0.02476156 -0.044993244 0.009472152 0.0326855 0.044331063
0.019098355 -0.0055208676 -0.008152217 0.032449227 0.00091785524 -0.0035864953 0.0018074409 -0.018031811
0.011419786 -0.0136110885 -0.013078727 -0.007829908 0.01611958 -0.026675753 -0.032241616 -0.024101729

bias f4 [120]
00000000: 5fe5 89bc c43d 2bbd 2610 07bc 8fbb b33c
00000010: 85d1 ffbc 8196 87bd d37d 66bc 4933 62bc
00000020: 70e8 ff3c af4e 31bc 9623 09bb 9c9a c83b
00000030: 062b f03b 7aab 163c 6f0a 7b3c 4a9e 65bc
00000040: 4ac8 593c 760c d5bc e547 2abd 5ef8 1e3b
00000050: 2e9a 903a ba6c 19bc dd22 903c 088a 9bbc
00000060: f31e febc b289 7abc 35c3 43bd 1737 ccbc
00000070: cd84 63bd d437 963b c922 24bd 3568 7bbc
00000080: a55c 4abc ec0e 54bc 4826 8cbc b6fc c7bc
00000090: 84b7 cdbc 07b1 1dbc b64d 15bd d218 0dbc
000000a0: da3b 66bc 13f4 2bbd ae02 8ebc 2ea0 d6ba
000000b0: 5b59 28bd 2376 d5bc ba3c 03bd 4b75 1fbc
000000c0: 39b2 ea3b 0ebe 503d 827b 3a3d cb82 dfbc
000000d0: aa74 cfbc b5ec 69bc 2538 1fbd 8c20 20bc
000000e0: 5524 8abc 0e6e 3bbd d121 153b 373a f0bc
000000f0: 22c9 8bbc 5a09 633c 3f16 ecbc ae76 a7bb
00000100: 0159 973c 5f9f 97bc 30cd 56bb 5ce2 0fbd
00000110: baab ef3c adba 83bc 9691 6bbc 4263 d0bc
00000120: 9c3a c6bc c466 d5bc e279 4ebd 484c bb3b
00000130: f37b 63bc ff05 2d3d bec4 60bc 976c f8bc
00000140: 6cf5 26bd 364c b6bc e969 8f3c 1e24 60bc
00000150: cc77 aabc fd03 32bd 104a 57bc 09d5 b43c
00000160: 0b56 85bc 6391 dabc 7b10 e83c 9806 8abc
00000170: c705 09bd 5f39 9ebc 6de4 8bbc 9384 2ebd
00000180: 575d dabb d9e9 b9bc c3a7 71bc 6132 ebbb
00000190: d007 bdbc fb0f 5bbd 0aa0 c7bc 94c7 82bc
000001a0: b1aa d8bc ccc8 ffbc 2ce3 33bd 86aa e43b
000001b0: e84b d63b 883b 173c 3ddf 32bd 1f42 f4bc
000001c0: a440 14bc 20ad 4fbc a79f 06bd 95f6 a8bc
000001d0: 583a bf3b 3705 4fbc 43f6 cfbc 5fe4 a1bc
-0.016833005 -0.04180695 -0.008243596 0.02194002 -0.031227836 -0.06620503 -0.014068085 -0.013806173
0.031238765 -0.010821982 -0.0020925752 0.0061219465 0.0073293475 0.009196157 0.015322312 -0.01401479
0.013292382 -0.026006918 -0.04157247 0.0024256925 0.0011032277 -0.009364301 0.01759475 -0.018986717
-0.031020617 -0.015291618 -0.047793586 -0.024928613 -0.05554657 0.004584292 -0.040072236 -0.015344669
-0.01235119 -0.012943011 -0.017108098 -0.024412494 -0.025111921 -0.009624726 -0.036451064 -0.008611875
-0.014052356 -0.041980814 -0.017335262 -0.0016374642 -0.04110084 -0.026057309 -0.032040335 -0.009732555
0.007162359 0.0509625 0.045527942 -0.027284047 -0.025324184 -0.014277627 -0.038871903 -0.009773385
-0.016863028 -0.045759253 0.0022755752 -0.029324634 -0.017063681 0.01385721 -0.028819202 -0.0051105833
0.018475058 -0.018508611 -0.003277611 -0.035127982 0.02925669 -0.016080225 -0.014377972 -0.025437955
-0.024197869 -0.026049979 -0.050409205 0.0057158805 -0.013884532 0.042242046 -0.013718782 -0.030325217
-0.040761396 -0.022253137 0.017506557 -0.013680486 -0.020809077 -0.043460835 -0.0131402165 0.02207424
-0.01627638 -0.026680654 0.028328171 -0.016848847 -0.033452775 -0.019314466 -0.017076695 -0.0426069
-0.006663959 -0.022694515 -0.01474947 -0.0071776365 -0.023075014 -0.053482037 -0.024368305 -0.015964307
-0.02644858 -0.031223677 -0.04391782 0.006978336 0.0065398104 0.009230502 -0.043669928 -0.029816685
-0.009048615 -0.012675554 -0.0328671 -0.020625392 0.0058358125 -0.012635521 -0.025385981 -0.019762216

weight f4 [84, 120]
00000000: 61e0 c3bc d706 a53c b329 f3bc 7df6 e43c
00000010: a81c 803d a01d 02bc e8b6 c23c b7e2 a63c
00000020: 4f81 b63c c099 18bd 0c2b d7bc 490e 59bd
00000030: fdf4 a83c 609a 23ba 1099 65bd 47fa 883a
00000040: 5fdd 17bd 3938 553d 9325 8bbc bdd4 f83c
00000050: d44b 34bc f1c1 023d eb99 bdbc 802f 15bc
00000060: 9382 213d a08c a3ba c3ac 9bbc e47c bb3c
00000070: c992 c43c 3d12 a2bc 9b41 1bbd b987 80bc
00000080: e56b 473c 3316 7dbb 432f 7e3c c5d2 e0bb
00000090: 55b6 f2bb 148b 15bd 553b 15bd cf8b 6a3d
000000a0: 13db 02bd 9ba1 09bd ffa4 693c 32dc 8f3c
000000b0: 858d 4d3b a056 fc3b 53fa 6e3c 151f 2dbc
000000c0: a85f 713d 5383 dfbc e393 1bbd c033 cabc
000000d0: e038 bcbd 0bb2 493c 5947 863c a55d db3b
000000e0: 7395 393d cbd9 abbb 882f beba c5e8 2abc
000000f0: 5bdd 0ebd 19bd 85bc 4b1a 0c3c b597 0c3b
00000100: a760 a43c 7932 d43c c062 fcba d505 0fbc
00000110: bd92 d1bc 1706 c2bc 8463 293d 357b 4dbd
00000120: b3d1 6bbc 70a5 d9bc 2153 813b ab16 f1bc
00000130: c76d 1a3d 1f50 f7bc ee44 8d3c b328 0e3d
00000140: 7b56 453c bfd9 25bd 0843 f6bc 3070 51b9
00000150: 9514 5ebb f91f 8fbb 4010 e5bc b61e 9a3a
00000160: 73f5 0dbd 9ba2 ccbb ccf9 28bd cdfd 003c
00000170: a91a 253d 9f05 29bd 2be0 993c e5fa b8bb
00000180: 0bef c63b 25f2 3abd 9507 3ebd 3b4f 9f39
00000190: 1b05 703c b560 09bc 58b0 07bc 352a bd3c
000001a0: eb3d e6bc 6345 19bd a4f0 80bd b349 fc3c
000001b0: 4be9 7dbd 7887 2bbd 2d0e 18bd d23a 0cbd
000001c0: 4b1a f1bb f420 84bc 71fe 27bc 305c dbbb
000001d0: eb8c 92bd 2c40 033c df2c a53c 9f72 5e3d
000001e0: 7361 02bd 15af 80bb 5abf 0e3d d385 1abc
000001f0: b371 6bbd 006b 313b 0b0f 093d 60bd 3c3d
00000200: 1d0a c93c f874 0fbd 113e c23d 0a62 3c3c
00000210: 82ab 6ebc fd1f 95bb 1087 04bd 2ffc 18bd
00000220: 6c4d cbbc 11bc e03c b6f1 483b 8268 033d
00000230: 9ac1 3d3d 3385 70bd 2475 20bd 894e b8bc
00000240: 60dd 5e3b d7f3 373d 7de5 0abd e84c 913d
00000250: a810 41bd 266c ce3c dc0b 86bd 0298 e93c
00000260: 57d4 2ebd c289 4cbd 761f e53c 4326 27bd
00000270: 3813 a73d 1e9a a63c eb06 a2bc 5e30 8fbc
00000280: 7c4c a63c c7ae 16bc 60f0 1d3b 74dc 713d
00000290: 83f7 033d 8b2d 2f3c ef82 053d 4b08 1d3c
000002a0: e4b0 1f3b 6ea1 feba 619a 80bc 4493 a4bc
000002b0: fb6b e93b 9a35 e3bc cbc4 a2bd 6290 bd3c
000002c0: 7656 9e3d 8c32 c3bb 99d8 3cbd 6f19 c93c
000002d0: e3a6 82bd 6893 223c 70ce 783c b616 043d
000002e0: 3104 1abd 52b5 8a3c 0d95 983c 2929 283c
000002f0: 57f2 a43c 2f3d bebc 188f 37bb f174 f73c
00000300: c018 a7bc 38fe d1bc 8833 62bc 0fad 063c
00000310: f976 b33d 5255 813c d11e c7bc 4e89 8a3c
00000320: 6540 1b3d 53a7 24bd 61aa 06bb e98f 4bbc
00000330: 6b00 acbc 7022 18bc 325f 9abc bea1 4e3b
00000340: 2f16 f7bc 0b7e 8e3a bcbf 8f3c a9f3 673d
00000350: a8ca a93d b646 953d bb7e e33b 4094 123c
00000360: ab90 6db9 e739 32bd 7383 1d3c af9a 9d3c
00000370: abfd cabc 7c7b 9a3c e08b 68bc 8af4 f33c
00000380: c9cc 8dbd 077b 50bc 2adb c13c 345b a9bc
00000390: e1ce eebc 417a 84bd 7bf2 abbc fab4 b7bc
000003a0: 8dac eabb 742d 993c 0559 6fbd 50c7 c5bc
000003b0: e926 003d e3a0 1c3c 8f6e 373d 0bf1 2b3d
000003c0: 949a 83bc 17df 6cbd 5c47 623c 47ec f03c
000003d0: 573e a3bb 5566 043d d906 863c b3f0 903d
000003e0: cb55 813d f502 20bc 0e06 5d3b 9120 313d
000003f0: d3d0 9dbb 92cf 773d 494c 3f3d b45c 9d3c
-0.023910703 0.020144863 -0.02968297 0.027949566 0.06255466 -0.007941633 0.023768857 0.020371778
0.022278456 -0.037256002 -0.026265644 -0.05299214 0.020624632 -0.000624096 -0.056054175 0.0010450565
-0.03707635 0.05205557 -0.01698569 0.030374879 -0.011004407 0.03192324 -0.023144683 -0.009105563
0.039431166 -0.0012477823 -0.019003278 0.0228867 0.023995774 -0.019784087 -0.037904363 -0.015689718
0.01217172 -0.0038617968 0.015514198 -0.006861063 -0.0074069896 -0.03650959 -0.036433537 0.057262238
-0.031947207 -0.033601385 0.01426053 0.017561052 0.003136487 0.007700756 0.014586049 -0.010566493
0.058929116 -0.0272843 -0.037982833 -0.02468288 -0.091905355 0.012310515 0.016391443 0.006694513
0.04530854 -0.005244469 -0.0014510015 -0.010431473 -0.03487907 -0.01632552 0.008551191 0.002145273
0.020065619 0.025902973 -0.0019255504 -0.008729418 -0.025582666 -0.023684544 0.04135467 -0.050166328
-0.014393258 -0.026568145 0.0039466773 -0.029429754 0.037702348 -0.030189572 0.017244782 0.034706783
0.012044544 -0.040490862 -0.03006126 -0.00019973586 -0.003388678 -0.004367825 -0.02796185 0.001175842
-0.034657907 -0.00624497 -0.04125385 0.007873011 0.04030863 -0.041265126 0.01878365 -0.0056451433
0.0060709766 -0.045641083 -0.04639395 0.00030385875 0.014649655 -0.008384873 -0.00828179 0.023091415
-0.028105697 -0.037419688 -0.062958986 0.030796861 -0.061990064 -0.04187724 -0.037122894 -0.034235783
-0.0073578707 -0.016128995 -0.010253535 -0.006694339 -0.07155784 0.008010905 0.020162998 0.05430853
-0.031831216 -0.0039271214 0.034850456 -0.00943132 -0.05748148 0.0027071834 0.03346161 0.04607904
0.024540955 -0.03502366 0.094844945 0.011497984 -0.014567258 -0.0045509324 -0.03235537 -0.037349876
-0.024817191 0.027433427 0.003066165 0.03208209 0.04632721 -0.05872078 -0.039174214 -0.022498386
0.0034006462 0.04491028 -0.033910263 0.07094747 -0.047135025 0.025198054 -0.06545231 0.028514866
-0.04268297 -0.049936064 0.027969103 -0.040807974 0.081579626 0.02033716 -0.01977869 -0.017479118
0.020300142 -0.009196944 0.0024099573 0.05904813 0.032218467 0.010692011 0.03259557 0.009584497
0.002436691 -0.0019426772 -0.015698614 -0.020089753 0.007123468 -0.02773552 -0.079476915 0.023140136
0.07731335 -0.0059569534 -0.046105 0.02454826 -0.06379487 0.00992284 0.015185937 0.03224822
-0.037601653 0.016932163 0.01862576 0.01026372 0.020135088 -0.023222534 -0.0028008875 0.03020713
-0.020397544 -0.025633916 -0.013806231 0.008219971 0.087629266 0.015787754 -0.024306687 0.016911175
0.03790321 -0.040198635 -0.002054833 -0.012424448 -0.020996293 -0.009285554 -0.01884422 0.0031529511
-0.030161945 0.0010871304 0.01754748 0.056628857 0.08290607 0.07288878 0.0069425977 0.008946478
-0.00022655974 -0.04351225 0.0096138595 0.019238798 -0.024779161 0.01885771 -0.014193505 0.029779691
-0.06923825 -0.0127246445 0.023664076 -0.020673372 -0.029151382 -0.064686306 -0.020989647 -0.022425164
-0.007161683 0.018698432 -0.058434505 -0.024142891 0.031287108 0.009559843 0.04478317 0.041977923
-0.01606492 -0.057829943 0.013810959 0.02940954 -0.0049817967 0.032324154 0.016360687 0.0707716
0.06315192 -0.00976633 0.0033725533 0.04324395 -0.0048161536 0.06050069 0.04670361 0.019209243

bias f4 [84]
00000000: 2709 3cbd dba8 a63b 5a95 193d f8ff 873d
00000010: 133c 1cbc 52ea 7b3c 79ad 7a3d 7841 d2bc
00000020: 1634 0b3d 55f8 11bd 77c4 d33c 01c7 4b3c
00000030: 9371 80bd a4f9 aabd 1c5a 833c f7f5 55bc
00000040: 8d78 063c 65ee ca3c 066a 37bb 0f70 c33c
00000050: 658a e5bc 8c69 ebbc 935c 4dbd 3f8c 28bd
00000060: 77c7 99bd fc76 8aba e619 cc3b 19d5 02bc
00000070: 03d3 21bd 3021 9a3c 88f5 ffbc 6b1c 25bd
00000080: cc2e 47bd 9b28 4cbd 005b 0f3d 17b1 6c3c
00000090: 902c 02bd 31ee 783b a0be 1b3d 0f62 bdbb
000000a0: bfd8 a7bd a3c7 1fbd 1b3c 89bd 41ce 9e3c
000000b0: a126 1ebd 22fc 3abd f6f9 96bc 8ed0 4dbc
000000c0: 65da e9bc 614d 7e3d 48c4 d5bc 61a2 273c
000000d0: fc3b 223d 8926 0c3d b605 1b3a 53cf 82bc
000000e0: 3320 08bd 79ab 10bc 03c4 ca3b 7bf7 193d
000000f0: b4dd 37bd 0080 40bd d0e3 d3bc 082e 823c
00000100: 3866 a8bc 767f 1fbd 41ff 173d 562f 52bc
00000110: 6d1a 14bd 12dd 7ebd 84d2 d43c 181e 46bd
00000120: 3513 d93a 2356 05bd d461 83bc 7411 113d
00000130: 9d9a aebc 27ee babd 15a7 1b3d 2ba0 8c3d
00000140: fc41 59ba 4db9 12bc a43d 99bd 732b c23d
-0.045907166 0.005086047 0.03749595 0.06640619 -0.009535807 0.015375691 0.061200593 -0.025665984
0.03398522 -0.03563722 0.025850518 0.012437583 -0.062716626 -0.083483964 0.016034178 -0.013059131
0.0082074525 0.024771878 -0.002798678 0.023857145 -0.028020093 -0.028736852 -0.050137114 -0.041149374
-0.07508748 -0.0010564025 0.0062286733 -0.007985377 -0.039507877 0.018814653 -0.031245008 -0.040310305
-0.048628613 -0.049843412 0.034998894 0.014446518 -0.03178078 0.003798377 0.03802359 -0.0057795118
-0.08195638 -0.039008748 -0.06700917 0.019385459 -0.03861106 -0.04565061 -0.018429738 -0.01256193
-0.028546521 0.062085513 -0.02609457 0.010231585 0.039607987 0.034216437 0.0005913632 -0.015968
-0.033233833 -0.008829945 0.006187917 0.03758953 -0.044889167 -0.04699707 -0.025865465 0.01589109
-0.020556554 -0.038939916 0.037108663 -0.012828669 -0.036158014 -0.062222548 0.025979288 -0.048368543
0.001656151 -0.03255285 -0.016037859 0.035417035 -0.02131396 -0.09127455 0.03800114 0.06866487
-0.00082877255 -0.008955312 -0.0748246 0.094809435

weight f4 [2, 84]
00000000: b048 54bd 9213 963a 046c dcbb 8dcd c9bd
00000010: f761 47bd b699 72bc ff72 05bc cb56 24bc
00000020: ca75 523a 2d65 cdbb 6b32 47bd ecfe 903d
00000030: e8f6 1c3c 9141 583c b9d3 503d b61b f73c
00000040: 9b5c f9bc 2f9f c63c 3346 b9bb 23dd 39bd
00000050: fc71 88bc e471 f43a 7add ebbc ca93 113d
00000060: 7048 55bd ecf6 97bc ea34 f93b f8f2 05bc
00000070: 4044 fdbc d6de 72bd 5e26 f63b d079 ce3c
00000080: a8fc 8e3a 6919 20bd 5fef a8bc 159b 7cbd
00000090: 1b23 19bd 92fd 78bb 8983 81bd a72a 23bd
000000a0: 9f2b 673c dc0f 6d3d 8e30 42bd 7971 243b
000000b0: 220d 8d3d c505 6c3d fd36 1cba 5f9d 74bd
000000c0: 57b3 abbc 9abe b1bd 32e7 023c b117 2d3c
000000d0: 7590 2ebd dbba 5cbc 10c8 03bd bb8a 30bc
000000e0: 400c 5a3d 50c6 febc a699 aeba 9c79 823c
000000f0: 4978 623d a0d4 c03c 2833 9d3c 98c3 763c
00000100: ffa5 b8bd 8475 04bc 32a2 b2bc 55eb 29bd
00000110: 3546 0f3d b1c2 1abd 5e24 09bd 3364 d9bc
00000120: f363 d4bc d130 1c3d eed8 d23c 6767 f6bb
00000130: bd82 8abd 6709 0fbd 434b 7dbd 15fd 7fbd
00000140: c842 16bd acda 9b3c 3542 f7b9 97ec 04bd
00000150: a398 823d 9750 5d3d 3601 673d 9ccf 9f3c
00000160: ccd2 a73d 538c 5cbc 1eb6 423d 8b1a 443c
00000170: 923f 7b3d 7091 fe3c db76 bd3c f10f 9ebc
00000180: a085 8cbc 3dcf 543d 69c6 483c 99ff 7d3d
00000190: bd3b 993b b3c4 523d 8cab d2ba e56b ec3c
000001a0: 3213 963d f125 dc3c aa83 11bc 4a1e 933c
000001b0: c0f3 c63c 764f 81ba 9c24 52bb 0b60 863c
000001c0: 253c 973d c3fc 3d3c d02a 363d df15 2f3c
000001d0: 2f8d d63b 4493 233d 51c0 f03c 7df4 813d
000001e0: fc7a a63c 529a 613b 259e bf3c 03b3 893b
000001f0: c85d dabb 34b6 f03c 2eed 313c e9f7 653d
00000200: 8e94 a6bc 4702 603d 9971 153d b91e 2d3d
00000210: a315 963c 8e0f a63c 8cd1 e23d ce65 d73c
00000220: 20dc a13d d914 6e3d 0cbd 993a 18e3 7c3c
00000230: e8a3 e43c 8d48 153d f036 5b3d 7d55 1e3d
00000240: 6ce7 473d 5103 53bc 6f92 663d 84fd 9e3d
00000250: d976 ca3c 4927 c5bb 18d9 08bd 0a8f 2abd
00000260: 6b87 963d 8091 f539 861d 653d 7ba3 a73c
00000270: 0639 9d3c 1b30 3e3d b62a 1b3d a0d1 19bd
00000280: 03bb 883d fe65 81bd 735f abbc 62b8 283d
00000290: 71a7 b6bc ab4b 2abd ae0b 0b3d 8304 4a3d
-0.051827133 0.0011449924 -0.0067267437 -0.09853659 -0.04867741 -0.014807155 -0.008145093 -0.010030459
0.0008028416 -0.0062681646 -0.048632067 0.070798725 0.009580351 0.013199226 0.050983164 0.03016458
-0.030439666 0.024245827 -0.0056541204 -0.045376908 -0.016655914 0.0018649665 -0.028792132 0.035541333
-0.052071035 -0.018550359 0.007605185 -0.008175604 -0.030916333 -0.059294544 0.007511898 0.02520457
0.0010909038 -0.039086733 -0.020621954 -0.061671335 -0.037386995 -0.0037992937 -0.063239165 -0.0398356
0.014109521 0.057876453 -0.047409587 0.002509205 0.068872705 0.05762269 -0.00059591216 -0.059720393
-0.02095954 -0.086789325 0.007989692 0.0105647305 -0.042618234 -0.013472284 -0.032173216 -0.010775263
0.05323434 -0.031100422 -0.0013320937 0.015927128 0.055290494 0.023538888 0.019189432 0.015061282
-0.09016036 -0.0080846585 -0.021805856 -0.041484196 0.034979064 -0.03778333 -0.033481948 -0.026537037
-0.025926566 0.038132492 0.025738206 -0.0075196507 -0.067632176 -0.034921076 -0.061839353 -0.062497217
-0.03668478 0.01902517 -0.0004716084 -0.032452192 0.063767694 0.054031935 0.05639764 0.019508176
0.08194503 -0.01346119 0.04753696 0.011969219 0.061339922 0.03107521 0.023127964 -0.01929471
-0.017153561 0.05195545 0.012254336 0.062011335 0.004676311 0.05145712 -0.0016072853 0.028860042
0.0732788 0.02687356 -0.008881489 0.017958779 0.024286151 -0.00098656 -0.0032065278 0.016403219
0.073845185 0.011595908 0.044474423 0.010686367 0.006547592 0.039935365 0.029388579 0.063454606
0.020322315 0.0034424257 0.023390839 0.004202248 -0.0066640116 0.029383756 0.010859771 0.05614463
-0.020334508 0.05468967 0.03648529 0.042265628 0.018320864 0.020271089 0.11075124 0.026293661
0.07903314 0.05812535 0.0011729314 0.015435003 0.027910188 0.036446143 0.05351919 0.038655747
0.048804685 -0.012879209 0.056291994 0.07763198 0.024714874 -0.006016646 -0.03341016 -0.04164032
0.07350048 0.00046838447 0.05593636 0.020463696 0.01919223 0.046432596 0.03788253 -0.03755343
0.06676295 -0.063182816 -0.020919537 0.041191466 -0.02229664 -0.04157607 0.033946685 0.04932071

bias f4 [2]
00000000: 2461 91bd 3871 803d
-0.07098606 0.06271595
