model.pth (torch, 250111 bytes, 10 tensors)

weight f4 [6, 3, 5, 5]
-0.021237995 -0.031991046 -0.048853137 0.02282302 -0.032699786 0.05492132 -0.026889386 -0.005156139
0.023476675 0.003581499 -0.05645574 -0.07710568 -0.088091716 -0.048710212 -0.05323311 -0.0152441645
-0.062403813 -0.012955897 -0.00021614187 -0.018425805 -0.00451701 -0.016135251 -0.015310333 -0.03495176
-0.07600725 -0.065446064 -0.0026496279 -0.03204168 0.02433714 -0.08930219 -0.05335358 -0.041487437
0.001056737 -0.027514052 -0.025236804 -0.13424799 -0.04227278 0.016576307 -0.0858402 0.0004060823
-0.061641842 -0.02109788 -0.02447661 -0.032043703 -0.020773381 -0.00025108707 -0.02938284 -0.078470536
-0.06528679 0.04485685 -0.032257944 -0.045495853 -0.10616157 -0.054976217 -0.05822692 -0.037398394
-0.027120417 0.010162259 -0.07925752 -0.020762427 0.019522313 -0.031915314 -0.04280429 -0.05941724
-0.07356763 -0.038974427 -0.07474397 -0.06643101 0.0026966545 -0.023704406 -0.05298731 -0.08164844
-0.0028530767 -0.009932296 -0.026501345 -0.06573387 -0.074818864 -0.028651003 -0.062176988 -0.063116916
-0.038481984 -0.05406083 -0.035129745 -0.025522683 0.024042504 -0.035841268 -0.02462409 -0.03987497
0.0008880525 -0.072906606 -0.04005293 0.03434965 -0.03550474 -0.03642976 -0.04636758 -0.06890391
-0.06407077 -0.06258892 -0.012849311 -0.06985787 -0.045424286 -0.030606287 -0.026825491 -0.07330764
-0.07607107 -0.06827405 -0.07231097 -0.06350471 -0.0038010036 -0.0690748 0.04820667 -0.01729883
-0.06627185 -0.020361379 -0.034397736 -0.050124213 -0.05200125 -0.06028345 -0.026811121 -0.09643044
0.008907968 -0.060498193 -0.023033176 0.034598067 -0.02143112 -0.0274602 -0.12149975 -0.027249996
-0.040317867 0.021387614 0.03683044 -0.11249863 -0.12414759 -0.04053295 -0.038552 0.004234723
-0.00057364284 0.016894856 -0.027640056 -0.068983346 -0.112692505 -0.040492166 -0.073870696 0.020945054
-0.028381746 0.027763324 -0.090711616 0.006508838 -0.009166917 0.01628149 0.0020241402 -0.034811936
-0.079797745 -0.008405612 -0.051246934 -0.097843446 -0.086290345 -0.050866112 -0.07419878 -0.021989144
0.031493057 -0.016903134 -0.07406641 -0.018783396 -0.0051221205 0.009419611 -0.095717855 -0.096789375
0.012453331 -0.0851008 -0.09729316 0.03320881 -0.064764075 -0.0082459515 -0.05436158 -0.066012695
0.0035961766 -0.038346764 -0.11566875 -0.09469713 -0.030270686 -0.057469808 -0.11135213 -0.04167558
-0.025939632 0.020662287 -0.0627431 -0.07606034 -0.08191739 -0.036414374 -0.04870169 -0.041469757
0.02034496 -0.07145466 -0.09369953 -0.046159137 -0.08552421 -0.07228196 -0.07414393 -0.022155777
-0.04145832 -0.0049260724 -0.015583949 0.034421053 0.025152294 0.011787408 -0.015781943 -0.11379781
-0.074360214 0.010798951 -0.0148139 -0.0851826 -0.06658395 -0.060529757 -0.006145168 -0.034433234
0.01927383 -0.053846672 -0.047509134 -0.083978906 -0.08121861 -0.052826017 -0.044094667 -0.073136516
-0.00700408 0.019149791 0.032689426 -0.03697033 -0.02106705 -0.033439185 -0.012748085 -0.013695911
-0.035816286 -0.03399623 -0.075497225 0.031466834 0.036369525 -0.023518424 -0.08023 -0.004233975
-0.05736426 -0.07604567 -0.02018167 -0.12650494 -0.033420052 -0.061898064 0.0018246355 0.005310431
-0.11138338 -0.06251953 0.073113136 -0.031651355 -0.015209353 -0.027984506 -0.1274966 -0.0010605936
00000000: 4efb adbc 0b09 03bd 3a1a 48bd 58f7 ba3c
00000010: 36f0 05bd 2ef5 603d 2147 dcbc d4f4 a8bb
00000020: 2852 c03c 95b7 6a3b 223e 67bd 95e9 9dbd
00000030: 6e69 b4bd 5c84 47bd f60a 5abd a9c2 79bc
00000040: 249b 7fbd f844 54bc 24a4 62b9 b7f1 96bc
00000050: 6d03 94bb 132e 84bc 31d8 7abc 9429 0fbd
00000060: b0a9 9bbd 9608 86bd 61a5 2dbb 233e 03bd
00000070: af5e c73c 11e4 b6bd 4989 5abd bbee 29bd
00000080: 3682 8a3a 2665 e1bc 6abd cebc 4e78 09be
00000090: 3926 2dbd 09cb 873c fdcc afbd 72e7 d439
000000a0: 287c 7cbd 76d5 acbc 2c83 c8bc 4240 03bd
000000b0: f02c aabc 56a4 83b9 48b4 f0bc 29b5 a0bd
000000c0: 15b5 85bd d1bb 373d e820 04bd dc59 3abd
000000d0: 3d6b d9bd be2e 61bd 5a7f 6ebd 0f2f 19bd
000000e0: a32b debc 9b7f 263c c451 a2bd f715 aabc
000000f0: 42ed 9f3c a2b9 02bd 8d53 2fbd 7e5f 73bd
00000100: a0aa 96bd a6a3 1fbd 5e13 99bd fb0c 88bd
00000110: 5bba 303b be2f c2bc 3909 59bd 4c37 a7bd
00000120: affa 3abb 12bb 22bc 5919 d9bc 7b9f 86bd
00000130: a23a 99bd 82b5 eabc 4cad 7ebd 7143 81bd
00000140: 499f 1dbd e46e 5dbd 35e4 0fbd f214 d1bc
00000150: c9f4 c43c 4bce 12bd 76b8 c9bc f053 23bd
00000160: 32cc 683a 0f50 95bd 8b0e 24bd 38b2 0c3d
00000170: 6b6d 11bd 5f37 15bd eeeb 3dbd 7e1d 8dbd
00000180: 8937 83bd 9f2e 80bd eb85 52bc a511 8fbd
00000190: d10e 3abd 09ba fabc 22c1 dbbc 5122 96bd
000001a0: 26cb 9bbd 44d3 8bbd c617 94bd c20e 82bd
000001b0: 421a 79bb 1777 8dbd 5b74 453d 47b6 8dbc
000001c0: 89b9 87bd e8cc a6bc a4e4 0cbd 0c4f 4dbd
000001d0: 43ff 54bd c7eb 76bd ffa2 dbbc 537d c5bd
000001e0: baf2 113c f4cc 77bd 12b0 bcbc b4b6 0d3d
000001f0: 5190 afbc 37f4 e0bc dcd4 f8bd 623b dfbc
00000200: 5924 25bd 1435 af3c 84db 163d af65 e6bd
00000210: 1741 febd e105 26bd b4e8 1dbd 6ec3 8a3b
00000220: 8560 16ba 1567 8a3c 666d e2bc 2447 8dbd
00000230: 54cb e6bd 1ddb 25bd 8549 97bd f694 ab3c
00000240: d680 e8bc e96f e33c 03c7 b9bd 1748 d53b
00000250: d630 16bc c260 853c 70a7 043b f696 0ebd
00000260: 006d a3bd b1b7 09bc 4ee8 51bd 2562 c8bd
00000270: feb8 b0bd fc58 50bd 88f5 97bd 9422 b4bc
00000280: ddfe 003d 7178 8abc 21b0 97bd a3df 99bc
00000290: 76d7 a7bb b654 1a3c b907 c4bd 8239 c6bd
000002a0: 0e09 4c3c 5449 aebd a341 c7bd f605 083d
000002b0: 07a3 84bd 071a 07bc 40aa 5ebd aa31 87bd
000002c0: d5ad 6b3b 7f11 1dbd bde3 ecbd 92f0 c1bd
000002d0: 3bfa f7bc 7665 6bbd 960c e4bd 03b4 2abd
000002e0: 5a7f d4bc f543 a93c 747f 80bd 86c5 9bbd
000002f0: 4ec4 a7bd 3d27 15bd 6c7b 47bd 31dc 29bd
00000300: 79aa a63c d256 92bd 8ae5 bfbd 5d11 3dbd
00000310: 5127 afbd 9008 94bd c6d8 97bd 0880 b5bc
00000320: 33d0 29bd e46a a1bb d253 7fbc 17fd 0c3d
00000330: 2f0c ce3c f91f 413c 2249 81bc d40e e9bd
00000340: 2b4a 98bd 15ee 303c 00b6 72bc 3774 aebd
00000350: 2a5d 88bd 0dee 77bd 685d c9bb dd09 0dbd
00000360: 27e4 9d3c 548e 5cbd f098 42bd 22fd abbd
00000370: f155 a6bd 1860 58bd 9c9c 34bd 99c8 95bd
00000380: 7b82 e5bb 06e0 9c3c 59e5 053d 336e 17bd
00000390: ce94 acbc 87f7 08bd 58dd 50bc d064 60bc
000003a0: 19b4 12bd a23f 0bbd 4a9e 9abd 5ee3 003d
000003b0: 36f8 143d b6a9 c0bc a04f a4bd 28bd 8abb
000003c0: c9f6 6abd d5bd 9bbd 0854 a5bc 838a 01be
000003d0: 77e3 08bd d388 7dbd 9c28 ef3a 2003 ae3b
000003e0: f81c e4bd 3d0a 80bd 57bc 953d daa4 01bd
000003f0: a630 79bc c33f e5bc 788e 02be 9e03 8bba

bias f4 [6]
0.01854549 -0.045078807 -0.054015066 -0.0874266 0.012118183 -0.0067214877
00000000: b6ec 973c 8ea4 38bd e73e 5dbd b80c b3bd
00000010: 588b 463c ed3f dcbb

weight f4 [16, 6, 5, 5]
0.059995357 -0.049922295 -0.055686288 0.011787295 -0.077794775 -0.0651095 -0.034353524 0.010468967
-0.04499168 -0.051957883 -0.03949138 -0.039475337 -0.018654598 -0.025296712 -0.017904073 0.0066095954
0.021805078 -0.034340914 -0.015983002 -0.020945262 -0.027104773 -0.059728038 -0.032449067 -0.0138058625
0.016952967 -0.045148183 -0.05923191 0.0009663858 0.0041953037 -0.025155336 0.054212987 0.013882425
-0.027728904 0.03799163 -0.037959028 0.008359328 0.05419067 -0.020319 -0.009577921 -0.0097765075
0.09215792 -0.022764504 -0.0059003113 0.01759469 -0.024031417 0.032427035 -0.0024239896 0.002445433
-0.01807642 -0.0072629945 0.007616304 0.0104835825 0.05800639 -0.012666311 0.021156892 -0.0014416507
0.015300698 0.025785401 -0.029133245 0.018129574 0.058491345 0.06802382 0.024559362 0.047442716
0.0018599152 0.0031708495 0.015485171 0.04818408 0.01396289 -0.01164415 -0.036469165 -0.08902063
0.014898725 -0.01605322 0.031910937 0.035530053 0.058585126 0.03618153 -0.032356355 0.0035314292
-0.037028734 -0.012752281 0.027865678 -0.037489485 0.01180055 0.0051124785 0.024179058 0.021399507
-0.026466534 0.029606149 -0.01496485 0.09118727 -0.03794476 -0.0460322 -0.017546097 0.012320844
-0.019652838 0.07102789 -0.08352537 5.5936223e-05 -0.025618149 -0.014732133 -0.016095368 -0.030292412
-0.07804413 -0.06741688 0.019659989 -0.04646618 -0.038282935 -0.018393692 -0.012889771 0.0100440895
-0.008540062 -0.07317777 -0.035810094 0.058271784 -0.009232871 0.03071789 -0.06161145 -0.032164145
-0.016782701 -0.005426245 -0.03606218 -0.0010491523 -0.09785494 -0.038567808 -0.07260768 -0.06243526
-0.039703887 -0.0026638417 -0.004944848 -0.02234139 -0.00919176 0.0038569309 -0.009123458 -0.051763527
0.03842455 -0.050680853 -0.0033765319 -0.057900496 -0.017325412 0.008556531 0.032872457 -0.0059858686
-0.00525183 -0.029267482 -0.0069648176 -0.0124714505 -0.015611944 -0.10180314 -0.050213836 0.0034319968
-0.026394634 -0.08237956 -0.062917896 0.03161018 -0.04083232 -0.014416818 -0.044114098 -0.010049419
0.0062808376 0.0031001018 -0.030830868 -0.050014284 -0.012920644 -0.024917895 0.00620787 0.010876894
-0.058322616 -0.009580046 0.0054383078 -0.025245003 0.0341417 0.015435555 -0.0116830515 -0.0017415218
-0.00900563 -0.060297485 -0.010191364 -0.046327822 0.032981362 -0.022298308 -0.021067059 0.015170825
-0.084047124 0.027261943 -0.051057834 -0.028817847 -0.055865288 -0.013873018 0.056512363 0.03241011
-0.04296846 -0.003740476 -0.016712418 -0.019499185 -0.06854014 -0.042916715 -0.063121565 -0.0714649
-0.053312164 0.007188374 0.022104021 0.05401879 0.033508196 0.02182311 0.068760134 0.03697175
-0.0104808435 -0.0076066777 0.002634146 0.0431951 -0.0317467 0.012361084 0.010392535 -0.016967537
-0.007922923 0.03052481 -0.022439698 -0.0074471333 -0.023027 -0.009586378 -0.016326347 -0.04490867
-0.0070253704 -0.007109722 -0.07076727 -0.04563634 -0.02192446 -0.059634063 -0.0051814513 0.00043406108
-0.0035239377 0.033046197 -0.024025453 -0.00037342714 0.013175163 0.01078099 -0.012170999 -0.011279623
0.016013136 0.01261828 0.032930344 -0.05229487 -0.019238792 -0.00808661 -0.03765121 -0.012033059
-0.057723045 0.004904243 -0.0034471964 -0.033593196 -0.011276118 0.08004558 0.0003361113 0.032557767
00000000: b1bd 753d 527b 4cbd 4e17 64bd 801f 413c
00000010: de52 9fbd 2158 85bd 48b6 0cbd 0886 2b3c
00000020: 3249 38bd cad1 54bd b7c1 21bd e4b0 21bd
00000030: 87d1 98bc 0d3b cfbc 90ab 92bc 4e95 d83b
00000040: 90a0 b23c 0fa9 0cbd c9ee 82bc 6695 abbc
00000050: d40a debc 63a5 74bd 50e9 04bd fc31 62bc
00000060: f3e0 8a3c 4ded 38bd 299d 72bd 0e55 7d3a
00000070: c278 893b 9012 cebc 700e 5e3d 1c73 633c
00000080: ba27 e3bc 1d9d 1b3d ed7a 1bbd 90f5 083c
00000090: 09f7 5d3d 0874 a6bc b6ec 1cbc a52d 20bc
000000a0: 4bbd bc3d a07c babc 6657 c1bb bd22 903c
000000b0: 89dd c4bc 36d2 043d ccdb 1ebb 8f43 203b
000000c0: 0015 94bc 6afe edbb 3092 f93b 55c3 2b3c
000000d0: 1c98 6d3d 5c86 4fbc 3851 ad3c c5f5 bcba
000000e0: c7af 7a3c e83b d33c d8a8 eebc 7984 943c
000000f0: 9f94 6f3d 1350 8b3d b730 c93c 4b53 423d
00000100: 66c8 f33a 07ce 4f3b 84b5 7d3c ab5c 453d
00000110: 9bc4 643c 1bc7 3ebc b160 15bd 7350 b6bd
00000120: c819 743c 0b82 83bc 0bb5 023d f687 113d
00000130: f5f6 6f3d 1633 143d 1988 04bd 8d6f 673b
00000140: 71ab 17bd f1ee 50bc 9046 e43c 938e 19bd
00000150: 1857 413c 9486 a73b 2913 c63c 054e af3c
00000160: 58d0 d8bc 9888 f23c 212f 75bc 64c0 ba3d
00000170: f76b 1bbd 438c 3cbd d5bc 8fbc 5edd 493c
00000180: fdfe a0bc 1277 913d 590f abbd 109d 6a38
00000190: 27dd d1bc 0b5f 71bc 6fda 83bc cb27 f8bc
000001a0: 9ad5 9fbd dc11 8abd fc0d a13c 5253 3ebd
000001b0: 91ce 1cbd 5eae 96bc 9e2f 53bc f78f 243c
000001c0: 9eeb 0bbc 3ade 95bd 9bad 12bd 65ae 6e3d
000001d0: 7845 17bc 16a4 fb3c 4a5c 7cbd 8dbe 03bd
000001e0: e07b 89bc a4ce b1bb f0b5 13bd b683 89ba
000001f0: 2c68 c8bd 47f9 1dbd 56b3 94bd 1dbc 7fbd
00000200: 8ba0 22bd d993 2ebb 6408 a2bb 4a05 b7bc
00000210: 0999 16bc 90c4 7c3b 8e7a 15bc fe05 54bd
00000220: 1063 1d3d ba96 4fbd ce48 5dbb 1229 6dbd
00000230: 06ee 8dbc b130 0c3c 45a5 063d 1b25 c4bb
00000240: 8b17 acbb 5cc2 efbc 2039 e4bb 0e55 4cbc
00000250: 3dc9 7fbc 2a7e d0bd 06ad 4dbd 5aeb 603b
00000260: 8f39 d8bc 9db6 a8bd 19db 80bd ad79 013d
00000270: ca3f 27bd 8434 6cbc fcb0 34bd 51a6 24bc
00000280: 7ccf cd3b 142b 4b3b 0491 fcbc c7db 4cbd
00000290: 1cb1 53bc 9d20 ccbc 636b cb3b 0035 323c
000002a0: b2e3 6ebd a0f5 1cbc d533 b23b 9cce cebc
000002b0: 2bd8 0b3d 69e5 7c3c 456a 3fbc c643 e4ba
000002c0: 5a8c 13bc 7ffa 76bd aef9 26bc 3ec2 3dbd
000002d0: 7717 073d f1aa b6bc d394 acbc 0d8f 783c
000002e0: e620 acbd 7054 df3c 0522 51bd 6813 ecbc
000002f0: 00d3 64bd a84b 63bc 8279 673d 77c0 043d
00000300: b2ff 2fbd c622 75bb 7be8 88bc c1bc 9fbc
00000310: c65e 8cbd 70c9 2fbd e145 81bd 315c 92bd
00000320: db5d 5abd 748c eb3b 7e13 b53c cf42 5d3d
00000330: e43f 093d 61c6 b23c 1dd2 8c3d b16f 173d
00000340: d8b7 2bbc 7041 f9bb a3a1 2c3b 58ed 303d
00000350: d408 02bd 2586 4a3c 7345 2a3c 81ff 8abc
00000360: 26cf 01bc 2b0f fa3c 75d3 b7bc 1507 f4bb
00000370: 1ea3 bcbc 2f10 1dbc d5be 85bc 27f2 37bd
00000380: 1435 e6bb acf8 e8bb 6eee 90bd 2ced 3abd
00000390: ed9a b3bc d942 74bd 2ac9 a9bb b192 e339
000003a0: ddf1 66bb 735b 073d 07d1 c4bc 8bc8 c3b9
000003b0: a4dc 573c c0a2 303c df68 47bc 2bce 38bc
000003c0: fb2d 833c e7bc 4e3c f8e1 063d 2533 56bd
000003d0: ac9a 9dbc b37d 04bc 2838 1abd 4f26 45bc
000003e0: 006f 6cbd c6b3 a03b 5cea 61bb 0599 09bd
000003f0: 78bf 38bc f0ee a33d 1838 b039 4b5b 053d

bias f4 [16]
-0.017600087 -0.050553873 -0.014614025 0.00055839977 -0.024802485 -0.02315563 -0.061920144 -0.011231158
-0.05801175 0.018201275 -0.0214113 -0.048649985 0.0074637197 -0.015092142 -0.06678563 -0.023375971
00000000: 0f2e 90bc 9411 4fbd aa6f 6fbc 9361 123a
00000010: 952e cbbc e0b0 bdbc fa9f 7dbd e402 38bc
00000020: bb9d 6dbd d71a 953c c066 afbc 3545 47bd
00000030: 3892 f43b 0845 77bc e8c6 88bd f77e bfbc

weight f4 [120, 400]
-0.018741937 0.014093254 -0.006495901 0.0062711467 -0.023615545 -0.016994227 -0.020632148 0.011964428
-0.010924038 -0.007699004 -0.014860636 -0.030611807 0.001049412 -0.008598795 0.0005872401 0.008164528
-0.03754854 0.00042714213 -0.015391642 0.01801323 -0.022987353 0.018165298 -0.023177283 0.01187183
0.008315613 -0.022752933 0.003626515 0.0037449803 -0.00036554987 -0.011229833 -0.0007624588 0.019337082
0.0054548793 -0.019120205 -0.0097338315 -0.0035493944 0.015449238 0.0026982287 -0.02213059 0.012389185
-0.0316111 0.01195695 -0.00044787594 -0.013434739 0.0244506 0.032921795 -0.011645476 -0.024740506
0.018756658 0.026447369 0.009685036 0.013758932 0.016785653 -0.008519718 0.024667861 0.01770542
0.012924005 -0.002027456 0.013437164 0.026201665 0.012480004 0.015218101 0.018886447 0.012830424
-0.019203313 -0.019713338 -0.028100176 -0.0008933149 0.019500943 0.026104592 0.03631635 0.053201772
-0.00761024 -0.0009197449 0.04201224 0.013207218 0.00998884 0.00272859 -0.00890599 -0.02804968
0.00804236 0.00758407 0.012613197 -0.021750601 0.0033661246 -0.0069062416 0.02963879 0.009076237
-0.012559433 -0.00039370428 -0.02192749 -0.015012524 -0.0014433223 0.004976309 0.009455327 -0.022374174
0.0015476362 0.012896479 -0.023589265 0.027626418 0.0058083856 -0.01585913 -0.014340675 -0.0044010985
0.010915816 -0.01639004 0.007823554 0.022079876 -0.034072723 -0.0039795693 -0.012259539 0.0062937085
-0.0029874954 0.02795063 0.019417537 -0.025727658 0.009202958 0.016371505 -0.034007188 0.0017523107
0.014870758 0.00283469 0.013866966 -0.014018266 0.0037330138 -0.0050467146 0.012504099 0.022414358
-0.024762467 -0.034018174 -0.03002773 -0.013017894 -0.023936434 -0.009673406 -0.022418704 -0.0073765162
0.023093302 -0.00059496006 -0.0337064 0.011165425 -0.026873717 -0.019849114 0.01213683 -0.019019227
-0.013790567 0.0362437 -0.0016669274 0.0042948457 -0.022709534 -0.029192103 0.017043432 0.0145475
0.010453302 -0.01841068 0.030587591 0.010189069 0.0033892747 -0.009073471 -0.007208776 0.0031359647
0.026265547 0.014108006 0.0057696174 0.022254422 -0.0027378118 0.013825266 0.019346325 -0.019702367
0.015158325 0.008696491 -0.014966091 0.01887682 -0.005529186 -0.0056378865 0.0067590084 0.010593166
0.0149009945 0.02820126 0.032632675 0.015638035 -0.02594915 -0.006263204 0.01857589 -0.012046414
-0.007380736 -0.005910458 -0.032839563 -0.0093046 0.0063091414 0.007034269 -0.0027245877 -0.012632344
0.009832627 -0.00175748 -0.0039505633 -0.00018149498 0.0017974114 -0.022796826 -0.0046066865 0.00858304
0.015047647 0.0031021384 0.015825395 0.029459033 0.027917 0.013806672 -0.0052700257 0.007216329
-0.004666732 -0.004960403 0.018165147 0.03536331 0.028291374 0.02714337 -0.014881847 0.00556763
-0.004825802 0.025794331 0.021902878 -0.018376673 0.042434935 0.009625649 0.022392605 -0.0058427826
0.005139807 -0.00851919 -0.006870135 0.012258946 0.012204727 -0.004107038 0.014885361 -0.01705951
0.0066572665 -0.006154305 0.007464965 -0.01519309 -0.0256527 0.014991937 0.0014590438 0.01376876
-0.0064084628 0.0075467373 0.0126974275 -0.00211019 0.0050729783 0.033416167 -0.014977698 0.0072688884
0.0053316397 0.02037664 0.024817094 0.024107784 0.019697737 0.0062841894 0.0164771 0.019061018
00000000: b188 99bc 64e7 663c 91db d4bb 317e cd3b
00000010: 6375 c1bc 7a37 8bbc c004 a9bc 7306 443c
00000020: bcfa 32bc ed47 fcbb 067a 73bc 9dc5 fabc
00000030: 6c8c 893a f6e1 0cbc 04f1 193a 83c4 053c
00000040: 7fcc 19bd 0cf2 df39 3a2d 7cbc 7b90 933c
00000050: f94f bcbc 64cf 943c 49de bdbc 1082 423c
00000060: 353e 083c 5c64 babc d3aa 6d3b 586e 753b
00000070: 46a7 bfb9 55fd 37bc bedf 47ba cd68 9e3c
00000080: d8be b23b faa1 9cbc a67a 1fbc f59c 68bb
00000090: cd1e 7d3c c4d4 303b 364b b5bc 02fc 4a3c
000000a0: a47a 01bd 15e7 433c e4d0 eab9 611d 5cbc
000000b0: a04c c83c 01d9 063d abcc 3ebc 9aac cabc
000000c0: 90a7 993c 27a8 d83c fcad 1e3c 256d 613c
000000d0: 1182 893c 4a96 0bbc 4114 ca3c f50a 913c
000000e0: 35bf 533c 11df 04bb 8d27 5c3c e0a4 d63c
000000f0: ee78 4c3c 5855 793c c0b7 9a3c b336 523c
00000100: 4450 9dbc de7d a1bc 5732 e6bc 592d 6aba
00000110: 71c0 9f3c 4cd9 d53c 74c0 143d 1aea 593d
00000120: 525f f9bb 091b 71ba 0715 2c3d 1663 583c
00000130: 3ba8 233c 25d2 323b 6eea 11bc 71c8 e5bc
00000140: 1ac4 033c ca83 f83b 95a7 4e3c 512e b2bc
00000150: 339a 5c3b c14d e2bb 0ccd f23c 7fb4 143c
00000160: 14c6 4dbc 186a ceb9 48a1 b3bc 17f7 75bc
00000170: dc2d bdba 4e10 a33b 84ea 1a3c 0b4a b7bc
00000180: 0eda ca3a c14b 533c 463e c1bc cc50 e23c
00000190: 4554 be3b 02eb 81bc 27f5 6abc 1737 90bb
000001a0: 40d8 323c 6844 86bc 5d2e 003c dbe0 b43c
000001b0: d78f 0bbd 0c67 82bb 3cdc 48bc 743b ce3b
000001c0: dbc9 43bb b8f8 e43c 8711 9f3c cfc2 d2bc
000001d0: 01c8 163c 891d 863c 1f4b 0bbd caad e53a
000001e0: 7ba4 733c 35c6 393b 4532 633c dfac 65bc
000001f0: 94a5 743b e95e a5bb fedd 4c3c 519e b73c
00000200: a8da cabc a456 0bbd b7fc f5bc 0149 55bc
00000210: 5716 c4bc 357d 1ebc 6ea7 b7bc b4b6 f1bb
00000220: 2a2e bd3c 18f7 1bba b90f 0abd 30ef 363c
00000230: 4526 dcbc 9c9a a2bc 8ed9 463c 36ce 9bbc
00000240: d5f1 61bc 4674 143d cd7c daba c7bb 8c3b
00000250: 5809 babc 4724 efbc ab9e 8b3c a358 6e3c
00000260: 5444 2b3c ffd1 96bc d492 fa3c 0ef0 263c
00000270: 981e 5e3b e5a8 14bc 9937 ecbb c284 4d3b
00000280: d82a d73c 4425 673c 0f0f bd3b e84e b63c
00000290: dc6c 33bb 5e83 623c 2f7c 9e3c dc66 a1bc
000002a0: a05a 783c ba7b 0e3c 5634 75bc 90a3 9a3c
000002b0: 2d2e b5bb 05be b8bb ac7a dd3b f58e 2d3c
000002c0: 4d23 743c 5406 e73c d7a9 053d 561b 803c
000002d0: 5093 d4bc 903b cdbb 772c 983c 535e 45bc
000002e0: 1ada f1bb 84ac c1bb c782 06bd 5272 18bc
000002f0: eabc ce3b ba7f e63b ff8e 32bb e4f7 4ebc
00000300: 0719 213c 3e5b e6ba ba73 81bb b04f 3eb9
00000310: 1e97 eb3a 69c0 babc b0f3 96bb e19f 0c3c
00000320: 688a 763c 3f4d 4b3b 42a4 813c 1254 f13c
00000330: 31b2 e43c 6135 623c 2eb0 acbb f576 ec3b
00000340: 63eb 98bb e08a a2bb 13cf 943c 1ed9 103d
00000350: 50c3 e73c c65b de3c fed2 73bc aa70 b63b
00000360: c321 9ebb a24e d33c aa6d b33c ad8a 96bc
00000370: 41d0 2d3d e6b4 1d3c b270 b73c d074 bfbb
00000380: d36b a83b 1394 0bbc df1e e1bb bfd9 483c
00000390: 56f6 473c 5594 86bb bbe1 733c 63c0 8bbc
000003a0: 3325 da3b 0daa c9bb aa9c f43b 70ec 78bc
000003b0: 9c25 d2bc bea0 753c 633d bf3a 5d96 613c
000003c0: 15fe d1bb 9f4a f73b df08 503c 1d4b 0abb
000003d0: 3a3b a63b 64df 083d 0565 75bc db2f ee3b
000003e0: 09b5 ae3b e9ec a63c 384d cb3c b07d c53c
000003f0: 265d a13c 9aeb cd3b fcfa 863c da25 9c3c

bias f4 [120]
0.0072066984 -0.021744035 -0.04709106 -0.0063999407 -0.036233474 0.011647402 0.0076433746 -0.03045067
0.014576072 -0.034832392 -0.00783939 -0.01769009 -0.0044908 -0.015529971 -0.0016463451 -0.029518494
-0.004267727 0.03559774 -0.031532817 -0.013134516 -0.014590047 -0.016852938 0.0054686507 0.00018105388
0.0033633295 -0.032051105 -0.022518234 -0.0048702154 -0.025256159 -0.042191684 -0.015362337 0.016356476
-0.0040212604 -0.013878126 -0.068570875 -0.0148760425 -0.008970992 -0.03133786 -0.009586899 0.0014722096
-0.05149152 -0.05134225 -0.017681178 0.01150514 -0.011573663 -0.015104215 -0.023621878 -0.047627483
0.0037544891 -0.009987624 0.036895122 -0.017603086 -0.024100898 -0.02923781 -0.022480683 -0.019469332
-0.0072679194 -0.01679701 0.022253813 -0.011063933 -0.013672878 -0.021478465 -0.017919613 -0.022400493
-0.03962295 -0.044959307 -0.0047078934 -0.027714863 -0.018265579 -0.019709999 -0.010756701 0.018144546
-0.019605277 -0.025153441 -0.020706609 0.021163475 -0.005346093 0.02972589 0.0041464195 -0.027086748
-0.022413908 -0.04747862 0.012569495 0.024633422 -0.070037656 -0.019397939 0.011429306 -0.03575094
-0.05365243 -0.0024985159 -0.029090354 -0.035046063 -0.021464935 -0.017784012 -0.0116178235 -0.024976755
-0.018385695 0.00027588595 -0.024129318 -0.00024135521 -0.01100742 -0.024867995 0.037156083 -0.025627943
0.008452233 -0.031614184 -0.03352436 -0.014226966 -0.012042519 0.0010654057 -0.062409632 -0.039612226
-0.042185318 0.015345649 0.0016362029 -0.045623086 0.007773851 -0.006202525 0.012995861 -0.017306289
00000000: 2b26 ec3b 8c20 b2bc 8ee2 40bd 98b6 d1bb
00000010: 8d69 14bd bfd4 3e3c 4675 fa3b af73 f9bc
00000020: 7ad0 6e3c 69ac 0ebd c970 00bc cfea 90bc
00000030: 9027 93bb 6b71 7ebc 2dca d7ba c5d0 f1bc
00000040: 4ad8 8bbb f0ce 113d 8e28 01bd 2732 57bc
00000050: 180b 6fbc 2c0f 8abc 5e32 b33b 48d9 3d39
00000060: 4e6b 5c3b 0548 03bd 2978 b8bc 5496 9fbb
00000070: 01e6 cebc 30d1 2cbd 50b2 7bbc 04fe 853c
00000080: c7c4 83bb 1461 63bc e36e 8cbd a5ba 73bc
00000090: 11fb 12bc 215c 00bd 5e12 1dbc 28f7 c03a
000000a0: c6e8 52bd 404c 52bd 1ed8 90bc 0e80 3c3c
000000b0: 769f 3dbc ab77 77bc ab82 c1bc 0915 43bd
000000c0: e00d 763b 22a3 23bc 571f 173d 5934 90bc
000000d0: 3f6f c5bc 2284 efbc 6929 b8bc 267e 9fbc
000000e0: ba27 eebb e299 89bc a14d b63c 8045 35bc
000000f0: 3504 60bc 9bf3 afbc 27cc 92bc 3d81 b7bc
00000100: ad4b 22bd 4027 38bd ac44 9abb 480a e3bc
00000110: b2a1 95bc dd76 a1bc e03c 30bc dfa3 943c
00000120: 3f9b a0bc 970e cebc e8a0 a9bc 065f ad3c
00000130: 472e afbb b683 f33c b0de 873b 07e5 ddbc
00000140: 5f9d b7bc f178 42bd 48f0 4d3c 08cc c93c
00000150: e76f 8fbd 6de8 9ebc fc41 3b3c 946f 12bd
00000160: a7c2 5bbd 24be 23bb e54e eebc 768c 0fbd
00000170: 3bd7 afbc c7af 91bc af58 3ebc 0d9c ccbc
00000180: 999d 96bc c9a4 9039 d9aa c5bc 4c14 7db9
00000190: 7758 34bc f7b7 cbbc fa30 183d b1f1 d1bc
000001a0: 3c7b 0a3c e07d 01bd d750 09bd 3818 69bc
000001b0: fc4d 45bc 15a5 8b3a 3ea1 7fbd 6e40 22bd
000001c0: 83ca 2cbd 516c 7b3c dc75 d63a 46df 3abd
000001d0: cabb fe3b 8d3e cbbb 97ec 543c ebc5 8dbc

weight f4 [84, 120]
0.045029026 -0.017135264 0.04776518 0.018725483 -0.027211491 0.008544546 0.03501743 0.006836316
0.089653164 -0.05835034 -0.015972769 -0.01391335 0.049425583 -0.016384678 -0.016786104 -0.026335472
-0.07791978 -0.0258848 -0.029119454 -0.061738107 -0.012282635 0.08795309 -0.020926699 0.09894154
0.04998822 0.054253105 0.021387026 0.010563224 0.053139504 0.038377788 0.031320844 0.009419334
0.022887385 0.031426955 -0.002627498 -0.014851532 -0.03810485 0.0561296 0.04942376 -0.018851997
0.04011873 -0.0407993 -0.012392261 -0.01180452 0.031102357 -0.009361201 0.015225335 0.014490229
-0.004988379 -0.028259864 -0.044326443 0.07433599 -0.024777181 0.03778497 -0.0051510152 -0.009381712
0.014894452 0.04185558 0.01954241 0.013741593 -0.04456933 -0.025222616 -0.02844102 0.00059103855
0.037770867 0.034612976 0.016452096 0.029451482 0.03821004 -0.012536627 -0.03506869 -0.003793903
0.006986708 0.07558063 0.015453528 0.038540658 0.01708562 0.040490586 0.017365962 0.03571356
0.00033784285 0.0047256122 -0.01548447 -0.04658583 0.03275078 -0.011569854 0.0032703516 0.0112882005
-0.028863972 0.034994755 -0.070423864 0.03980283 -0.020771807 0.015770422 -0.018654611 -0.03820399
-0.01770842 0.020595506 0.0109779965 -0.01757591 -0.027410785 -0.0040246258 0.037949625 -0.030828442
0.031377807 -0.033995572 -0.019720051 0.08233269 -0.0041841553 -0.00195048 0.025328634 0.03111992
-0.04415391 0.0027876967 0.0016014179 0.021128112 0.032634646 -0.046128124 -0.022231638 0.009652516
0.06208969 -0.00064169936 -0.008761531 -0.036308568 0.0037079023 0.00064538186 -0.043441057 0.004942425
-0.043516226 -0.03621373 -0.0033765312 -0.056039248 -0.025410201 0.048161287 0.0048988815 -0.009658366
-0.025863359 -0.0024339021 0.06894149 -0.06077786 -0.0049564578 -0.045110483 0.0071634846 -0.0146964155
0.011513071 -0.03666156 -0.019490836 -0.025846517 0.019468855 -0.014623598 0.07393564 0.014117053
-0.014722839 0.013746154 0.02966477 0.004181886 -0.025410613 0.0011457896 -0.009316657 0.009934617
-0.021939049 0.035231154 -0.05985398 0.025502566 -0.012066328 -0.028420417 0.023446174 0.03447067
-0.045922495 0.037641365 -0.034167103 -0.021143382 -0.019988446 -0.023572365 -0.03824787 -0.06721836
0.023107462 -0.033129472 0.041392915 -0.01630952 -0.031045204 0.028220296 0.025043001 0.01246181
0.04130435 -0.07382405 -0.00077761424 0.07371131 0.052086934 -0.04335648 -0.041316196 0.027171073
0.06246361 0.045362405 0.007150297 0.027561925 -0.05861861 -0.0037412036 0.01911955 -0.038252845
-0.0576375 0.024819843 -0.038976617 -0.06294694 -0.011865214 -0.023493612 -0.008100796 -0.0003085974
0.026926115 -0.022275368 0.0014411258 -0.018206468 -0.019581297 0.01372959 0.050402485 -0.016482236
-0.014257987 -0.024593059 -0.010516086 0.028452326 -0.02045901 -0.07568724 -0.015054433 -0.0023077899
0.00717529 0.05207089 0.040925812 -0.014186995 0.00020120638 0.018027142 0.030500619 0.032126155
0.017055962 0.048158966 -0.05164453 0.0061768168 0.07464459 0.055538557 -0.031879295 -0.021148736
0.03532927 0.012964975 -0.025523858 -0.017611908 -0.033432856 -0.015902273 0.014548202 0.007664937
0.008161831 0.0163598 0.063779235 -0.0015595471 -0.035941515 0.038497254 -0.018366553 0.008506977
00000000: 5b70 383d 415f 8cbc 6ca5 433d 2f66 993c
00000010: a2ea debc 6cfe 0b3c 706e 0f3d 2d03 e03b
00000020: 149c b73d c400 6fbd 53d9 82bc d2f4 63bc
00000030: 7b72 4a3d 2939 86bc 0383 89bc 7dbd d7bc
00000040: 6894 9fbd 5c0c d4bc ec8b eebc 19e1 7cbd
00000050: 1b3d 49bc c020 b43d 786e abbc dda1 ca3d
00000060: 73c0 4c3d 8138 5e3d d833 af3c 5f11 2d3c
00000070: cfa8 593d 0732 1d3d 494a 003d 8d53 1a3c
00000080: 537e bb3c 8db9 003d 1a32 2cbb d753 73bc
00000090: d513 1cbd 27e8 653d 9270 4a3d 816f 9abc
000000a0: 8a53 243d 2b1d 27bd e908 4bbc bf67 41bc
000000b0: 5fca fe3c b95f 19bc af73 793c 6d68 6d3c
000000c0: 8e75 a3bb 3b81 e7bc a58f 35bd 783d 983d
000000d0: 84f9 cabc 6ac4 1a3d d9c9 a8bb c1b5 19bc
000000e0: dc07 743c c270 2b3d 6717 a03c 6b24 613c
000000f0: 548e 36bd a99f cebc 24fd e8bc edef 1a3a
00000100: a0b5 1a3d 56c6 0d3d 8cc6 863c 3c44 f13c
00000110: 2282 1c3d 6d66 4dbc 30a4 0fbd 21a3 78bb
00000120: c1f0 e43b 04ca 9a3d cb30 7d3c cfdc 1d3d
00000130: 24f7 8b3c 75d9 253d 1043 8e3c 6248 123d
00000140: 8020 b139 4fd9 9a3b 93b2 7dbc c9d0 3ebd
00000150: af25 063d 7c8f 3dbc 6553 563b 25f2 383c
00000160: 2374 ecbc a956 0f3d 633a 90bd 4b08 233d
00000170: a329 aabc f930 813c 8ed1 98bc c97b 1cbd
00000180: 4011 91bc e8b7 a83c 0edd 333c 5bfb 8fbc
00000190: 958c e0bc 02e1 83bb 1171 1b3d ee8b fcbc
000001a0: 0486 003d f13e 0bbd f28b a1bc 0b9e a83d
000001b0: 3d1b 89bb 40a7 ffba ff7d cf3c 34ef fe3c
000001c0: bbda 34bd cab1 363b abe6 d13a dd14 ad3c
000001d0: e8ab 053d d8f0 3cbd 201f b6bc 9625 1e3c
000001e0: c251 7e3d b737 28ba 868c 0fbc 4bb8 14bd
000001f0: 4700 733b d82e 293a 40ef 31bd 11f4 a13b
00000200: 123e 32bd d954 14bd cb48 5dbb 6989 65bd
00000210: 0e29 d0bc c544 453d cc86 a03b 203e 1ebc
00000220: 65df d3bc 1a82 1fbb 3231 8d3d 35f2 78bd
00000230: c869 a2bb c5c5 38bd aabb ea3b 3cc9 70bc
00000240: 52a1 3c3c 6f2a 16bd 3fab 9fbc 13bc d3bc
00000250: 267d 9f3c d197 6fbc 926b 973d 364b 673c
00000260: 1038 71bc 8c37 613c 8803 f33c 3408 893b
00000270: eb29 d0bc 522e 963a e4a4 18bc cec4 223c
00000280: 85b9 b3bc 8b4e 103d 7229 75bd c2ea d03c
00000290: d9b1 45bc efd1 e8bc 3112 c03c 1e31 0d3d
000002a0: 3a19 3cbd d52d 1a3d cef2 0bbd e334 adbc
000002b0: cfbe a3bc d51a c1bc cca9 1cbd c8a9 89bd
000002c0: dc4b bd3c c5b2 07bd 9e8b 293d 8b9b 85bc
000002d0: 8352 febc 402e e73c fb26 cd3c 9f2c 4c3c
000002e0: c02e 293d 1031 97bd cfd8 4bba f5f5 963d
000002f0: 1c59 553d 9096 31bd 2c3b 29bd df95 de3c
00000300: d8d9 7f3d eecd 393d 0a4d ea3b 8cc9 e13c
00000310: 111a 70bd fb2e 75bb 9aa0 9c3c 04af 1cbd
00000320: 4d15 6cbd fc52 cb3c f2a5 1fbd 53ea 80bd
00000330: 5166 42bc ad75 c0bc 33b9 04bc 3ecb a1b9
00000340: 2894 dc3c d57a b6bc 28e4 bc3a bb25 95bc
00000350: f568 a0bc 13f2 603c d672 4e3d c105 87bc
00000360: 559a 69bc 6277 c9bc a94b 2cbc da14 e93c
00000370: a799 a7bc e901 9bbd dea6 76bc 4a3e 17bb
00000380: b21e eb3b 4948 553d d3a1 273d 9270 68bc
00000390: edfa 5239 a8ad 933c 6fdc f93c b796 033d
000003a0: f2b8 8b3c 5642 453d 3789 53bd e566 ca3b
000003b0: 43df 983d 667c 633d dd93 02bd 1d40 adbc
000003c0: 6db5 103d 0c6b 543c 6917 d1bc d946 90bc
000003d0: e4f0 08bd 7c45 82bc 955b 6e3c 272a fb3b
000003e0: 33b9 053c fd04 863c b09e 823d b869 ccba
000003f0: 6937 13bd 4caf 1d3d 7475 96bc d960 0b3c

bias f4 [84]
-0.006146692 0.02903927 -0.006216395 -0.04220762 -0.02248487 -0.00032533007 0.048793603 -0.0037768185
-0.042424396 -0.04921088 -0.05718411 1.2914126e-05 -0.017733617 -0.027139818 0.012852415 -0.017453307
-0.07601342 0.055247974 -0.027979808 -0.065329805 0.025300235 -0.014556621 -0.045541182 0.014269163
-0.00746224 -0.021672655 -0.045148928 -0.012845074 0.048501354 0.020524422 -0.05600665 -0.028365875
-0.03874409 -0.0060587525 -0.0020150521 0.02844571 0.037027225 0.031055117 -0.014923965 -0.027050963
-0.03559266 0.0016785418 -0.033906437 0.01077181 -0.020681813 -0.010417364 -0.029479275 0.07568809
-0.06382416 -0.043582957 0.009179298 -0.035666537 -0.0432877 0.007367052 -0.0041024913 -0.013452593
-0.025221247 0.045014262 -0.042520348 0.021364214 0.009580963 -0.03334549 -0.012723044 0.009391307
0.023488825 -0.026398031 0.014203699 -0.008157694 -0.050148338 -0.006330512 -0.0229117 -0.063371
0.025868826 -0.061460335 0.019691715 -0.003096657 0.03736877 -0.023917792 -0.019128468 -0.03430003
-0.013559258 -0.04873257 -0.04453395 -0.030218069
00000000: 316a c9bb c3e3 ed3c e7b2 cbbb e6e1 2cbd
00000010: 3132 b8bc 1091 aab9 cddb 473d 8084 77bb
00000020: 34c5 2dbd 5991 49bd e339 6abd c0a9 5837
00000030: 1746 91bc 5354 debc f092 523c 3dfa 8ebc
00000040: edac 9bbd b34b 623d e935 e5bc a2cb 85bd
00000050: 7042 cf3c e57e 6ebc 6489 3abd 35c9 693c
00000060: ce85 f4bb da8a b1bc 15ee 38bd 2574 52bc
00000070: 5ba9 463d d522 a83c 3b67 65bd 8d5f e8bc
00000080: 1fb2 1ebd 8088 c6bb f70e 04bb fa06 e93c
00000090: dca9 173d 4d67 fe3c a583 74bc fb99 ddbc
000000a0: 9cc9 11bd 8402 dc3a 7ae1 0abd 3f7c 303c
000000b0: e86c a9bc 97ad 2abc 857e f1bc 5b02 9b3d
000000c0: 3eb6 82bd 0b84 32bd c464 163c 1317 12bd
000000d0: 714e 31bd 5067 f13b 316e 86bb 4468 5cbc
000000e0: ca9c cebc e060 383d d129 2ebd 0104 af3c
000000f0: 79f9 1c3c 4895 08bd 5074 50bc ffdd 193c
00000100: a36b c03c af40 d8bc a2b6 683c d9a7 05bc
00000110: 5868 4dbd 2f70 cfbb 51b1 bbbc a8c8 81bd
00000120: dcea d33c d5bd 7bbd 8550 a13c 49f1 4abb
00000130: ff0f 193d 3fef c3bc 4eb3 9cbc 307e 0cbd
00000140: a627 5ebc ce9b 47bd 3b69 36bd e28b f7bc

weight f4 [2, 84]
-0.012733633 -0.06904638 -0.039981686 0.024426254 -0.03588038 0.015439844 0.055662025 -0.05877515
-0.061205372 -0.025222033 0.009732232 0.04361561 0.019134209 -0.000891774 0.011152593 0.012567287
-0.07588678 0.031784315 0.009177761 -0.08391958 0.013928328 0.030404558 0.024885057 -0.0027760773
-0.041366648 -0.043160833 0.015275117 0.013255213 -0.052688587 0.036967643 0.08835399 -0.048006177
-0.005113689 -0.017942622 0.0019705128 0.005770668 -0.020313984 -0.04527646 0.030279167 -0.03267182
0.0035900145 0.007431784 -0.021589397 0.01297612 -0.07105951 -0.0130845485 0.043932203 0.005749507
0.07874281 -0.011008504 0.0013872822 -0.053204123 -0.016968988 -0.0012105547 0.02932654 0.009478603
0.0031328727 0.001739938 0.008151728 -0.019822408 -0.031733956 0.03303109 0.029725553 -0.013818038
0.0071713636 0.046222072 0.056325022 0.020424588 -0.015959887 -0.05906854 -0.010727412 0.03015175
0.004529303 -0.0026675127 0.003245516 0.020474982 -0.028269015 -0.046959423 -0.009060958 0.00954692
0.03549474 -7.7470206e-05 -0.023379581 0.029053148 0.042019952 0.05822362 0.044419944 0.028979663
-0.011364579 0.027116474 0.053724725 -0.06178706 -0.04453078 -0.02927196 0.03589412 -0.021592632
-0.0022810134 0.066567026 0.01674812 -0.02127476 -0.023462493 0.030073367 0.017010512 -0.023162505
-0.06598555 -0.018500999 0.018761128 -0.023359187 0.02352407 0.024953933 0.055389207 0.0043952237
0.023796327 0.062451072 -0.005041837 -0.03294679 0.07569554 -0.0140649 -0.041763823 0.027746895
-0.03596344 -0.016911585 0.0030977305 -0.053750288 -0.020091983 0.021918096 -0.010224104 -0.005221253
0.07122983 -0.020118928 0.04162475 0.0072281854 0.033763807 -0.03710495 0.07968791 0.020348167
0.04621185 -0.013510653 0.040524766 0.019061027 -0.0029876814 0.0018577457 -0.038034525 -0.02552633
-0.0025565892 0.020148667 0.060238563 0.0031153741 0.008834862 -0.004703725 -0.041254975 0.015446078
-0.037611514 -0.010489975 0.0141396085 0.04606513 -0.01685782 0.018365365 -0.007863837 0.012082807
-0.03397634 0.002987571 -0.013706183 0.006089611 -0.0016114532 -0.00077593414 0.026095876 0.06170357
00000000: baa0 50bc 3068 8dbd d6c3 23bd 9119 c83c
00000010: 4ef7 12bd 66f7 7c3c ddfd 633d 36be 70bd
00000020: 7cb2 7abd 709e cebc f173 1f3c 48a6 323d
00000030: 58bf 9c3c f1c5 69ba 5eb9 363c 06e7 4d3c
00000040: 876a 9bbd 4530 023d 525e 163c 07de abbd
00000050: a433 643c fb12 f93c bfdb cb3c d9ee 35bb
00000060: 1370 29bd 6ac9 30bd 7c44 7a3c 652c 593c
00000070: fdcf 57bd 626b 173d f0f2 b43d 20a2 44bd
00000080: bc90 a7bb 68fc 92bc b823 013b df17 bd3b
00000090: 8369 a6bc cf73 39bd 040c f83c e3d2 05bd
000000a0: 7346 6b3b 5386 f33b 3fdc b0bc cb99 543c
000000b0: a687 91bd 9360 56bc 41f2 333d 5c66 bc3b
000000c0: e943 a13d 035d 34bc 77d5 b53a 91ec 59bd
000000d0: 8c02 8bbc 7aab 9eba 363e f03c 244c 1b3c
000000e0: e250 4d3b a20e e43a d38e 053c 9a62 a2bc
000000f0: 77fb 01bd 9c4b 073d 0183 f33c 0d65 62bc
00000100: c2fd ea3b 5b53 3d3d 11b5 663d 7751 a73c
00000110: 4fbe 82bc daf1 71bd 07c2 2fbc ce00 f73c
00000120: 8c6a 943b 70d1 2ebb b9b2 543b 26bb a73c
00000130: 6c94 e7bc 8658 40bd 6a74 14bc af6a 1c3c
00000140: ef62 113d 8077 a2b8 8986 bfbc de00 ee3c
00000150: 1d1d 2c3d e47b 6e3d b0f1 353d c266 ed3c
00000160: 8032 3abc 5e23 de3c 750e 5c3d 6e14 7dbd
00000170: e865 36bd c0cb efbc b605 133d 08e3 b0bc
00000180: 0e7d 15bb 4b54 883d 5a33 893c 6848 aebc
00000190: 6a34 c0bc 6c5c f63c a159 8b3c 4bbf bdbc
000001a0: 6f23 87bd 688f 97bc f0b0 993c c45b bfbc
000001b0: 8db5 c03c 316c cc3c cbdf 623d cf05 903b
000001c0: 84f0 c23c b2cc 7f3d ff35 a5bb 37f3 06bd
000001d0: 4306 9b3d 7770 66bc 8b10 2bbd 754d e33c
000001e0: 664e 13bd 2a8a 8abc 4b03 4b3b 4329 5cbd
000001f0: f197 a4bc 948d b33c 0083 27bc 0b17 abbb
00000200: f2e0 913d 73d0 a4bc b77e 2a3d 6ada ec3b
00000210: eb4b 0a3d 5cfb 17bd 6a33 a33d 33b1 a63c
00000220: a348 3d3d c95b 5dbc 4cfd 253d df25 9c3c
00000230: facc 43bb 9a7f f33a 17ca 1bbd 981c d1bc
00000240: 738c 27bb d10e a53c b6bc 763d 4e2b 4c3b
00000250: 19c0 103c b521 9abb fafa 28bd 8c11 7d3c
00000260: 880e 1abd 25de 2bbc d1a9 673c caae 3c3d
00000270: 6919 8abc f672 963c 53d7 00bc f7f6 453c
00000280: c62a 0bbd 20cb 433b e68f 60bc 5c8b c73b
00000290: 6637 d3ba 0f68 4bba 05c7 d53c e2bc 7c3d

bias f4 [2]
-0.045728 0.009653514
00000000: 494d 3bbd c629 1e3c
