model.pth (torch, 250111 bytes, 10 tensors)

weight f4 [6, 3, 5, 5]
0	0x3c333423	0.010937723
1	0xbdd75329	-0.105139084
2	0xbc8782a6	-0.01654179
3	0xbd4a6dc9	-0.049421106
4	0xbd8cee41	-0.06881381
5	0xbd9fb65b	-0.077984534
6	0xbd2f653a	-0.042821147
7	0xbd780cdf	-0.06055915
8	0xbb1ed76b	-0.0024237286
9	0xbdde021a	-0.108402446
10	0xbb7c1818	-0.003846651
11	0xbd8a0de9	-0.067409344
12	0x3caf826e	0.021424498
13	0x3bceb77d	0.0063084946
14	0xbb548442	-0.0032427465
15	0xbcab16e8	-0.020884946
16	0xbd93082a	-0.071792915
17	0xbd2c6c24	-0.04209532
18	0xbd6635e0	-0.056203723
19	0xbd00bbea	-0.03142921
20	0xbd61c4f6	-0.055119477
21	0xbd1bd53a	-0.038045146
22	0x3c78578b	0.015157591
23	0xbd8a98af	-0.06767403
24	0xbd464827	-0.048408654
25	0xbccadd52	-0.024763737
26	0xbd90b593	-0.070658825
27	0xbbce2628	-0.0062911697
28	0xbd659687	-0.056051757
29	0x3d9fe7e7	0.07807904
30	0xbca7b4c9	-0.020471947
31	0x3bf9ed64	0.007627176
32	0xbd721e8a	-0.059111156
33	0xbc2942f1	-0.0103309015
34	0xbbca4dbd	-0.006173818
35	0x3d4d7fc9	0.050170694
36	0xbcada30d	-0.021195913
37	0x3d249b2f	0.040187057
38	0xbda813b4	-0.08206883
39	0xbdc7d6dc	-0.09757778
40	0xbd27af57	-0.0409387
41	0x3bc5c16d	0.006035021
42	0xbd967b8c	-0.073477834
43	0x3b17df05	0.0023173701
44	0xbc2d6268	-0.010582544
45	0xbd109bdd	-0.035304893
46	0xbc9e8727	-0.019351555
47	0xbdfdfe04	-0.12401965
48	0x3bc77019	0.006086361
49	0xbd76e885	-0.06028034
50	0xbd953f20	-0.07287431
51	0xbaef603d	-0.0018262934
52	0x3cf87938	0.03033124
53	0xba904785	-0.0011007643
54	0xbd2a8c42	-0.041637667
55	0xbc801840	-0.015636563
56	0x3c920ccd	0.01782837
57	0xbcddd2f9	-0.027078139
58	0xbcb7bc85	-0.02242876
59	0xbd1f8dfb	-0.038953763
60	0x3c68e99d	0.014215854
61	0xbdccb467	-0.099953465
62	0xbd93a0d9	-0.07208414
63	0xbc137d4a	-0.009002039
64	0x3aba6864	0.0014221785
65	0x3c6d8b1b	0.014498497
66	0xbd60476f	-0.054755624
67	0xbcb82e27	-0.022482945
68	0xbc5a7b43	-0.013335052
69	0xbd2998ac	-0.041405365
70	0xba55bf19	-0.0008153781
71	0xb945c3f8	-0.00018860388
72	0xbc8aa18e	-0.016922738
73	0xbcf05db7	-0.029341562
74	0xbcd5a08d	-0.026077533
75	0xbdec6559	-0.11542768
76	0xbd9f5184	-0.0777922
77	0xbdd3fd44	-0.10351041
78	0xbba7a52c	-0.0051161256
79	0x3c9546d0	0.018222243
80	0xbdc80fbe	-0.097686276
81	0xbd22d1cd	-0.039750863
82	0xbe1bae14	-0.15203124
83	0xbddb0b72	-0.106955424
84	0xbe0884c7	-0.133319
85	0xbd4395a1	-0.04775012
86	0x3c0627d4	0.008188207
87	0x3cee73fd	0.029108042
88	0x3cfba5c6	0.030718695
89	0xbbf6ee19	-0.0075357077
90	0xbcb3ce10	-0.021948844
91	0xbd1587ee	-0.036506586
92	0x38898580	6.5575354e-05
93	0x3bde7a27	0.006789464
94	0x3cbd99ce	0.023144629
95	0x3d1e04d2	0.038578816
96	0xbdbda781	-0.092604645
97	0xbc8ad8a1	-0.016949
98	0xbca973be	-0.020685073
99	0xbcbacc36	-0.022802453
100	0xbd84c998	-0.064837635
101	0xbcbe2703	-0.023211962
102	0xbc168da2	-0.009189041
103	0xbc05fa64	-0.008177374
104	0xbd478db8	-0.048719138
105	0xbd042e9f	-0.032271024
106	0xbdddb795	-0.10826031
107	0xbdcbeb54	-0.09956995
108	0xbcf5f7b3	-0.030025339
109	0xbdc17438	-0.09445995
110	0xbcd851fa	-0.026406277
111	0x3d13919c	0.036027536
112	0x3da7d4dc	0.081948966
113	0xbb437944	-0.0029826919
114	0x3c913733	0.017726516
115	0x3d70cd03	0.058789264
116	0x3caa6cb9	0.020803796
117	0xbcb3f7b0	-0.021968693
118	0x3cf0ad02	0.029379372
119	0xbd2b77b6	-0.041862212
120	0xbcdab783	-0.026698833
121	0xbce4b7e2	-0.027919713
122	0xbc0f2b2f	-0.008738323
123	0x3cb61d9e	0.02223092
124	0x3d667bd3	0.05627043
125	0xbc9ba559	-0.018999742
126	0xbda6eaf9	-0.08150286
127	0xbd831e30	-0.06402242
128	0xbca5daff	-0.020246027
129	0xbc3094a0	-0.010777622
130	0xbd71d330	-0.059039295
131	0xbd3822ed	-0.044955183
132	0xbd6f8268	-0.058473974
133	0xbe072ce0	-0.13200712
134	0xbe0ea25f	-0.13929127
135	0x3d313808	0.043266326
136	0x3dc52e14	0.09627929
137	0xbcdec916	-0.027195495
138	0x3c62d562	0.01384482
139	0x3d05cc86	0.032665752
140	0xbcc3e53e	-0.023913022
141	0x3c2f9e95	0.010718961
142	0xbd1b7a93	-0.037958693
143	0xbc0ee640	-0.008721888
144	0xbc47ed42	-0.012202563
145	0x3cc74770	0.024326056
146	0x3d9f7b8e	0.07787238
147	0x3dab52d9	0.08365411
148	0xbc95fdb9	-0.018309461
149	0xbd052f76	-0.032515965
150	0xbb091611	-0.0020917694
151	0xbdbb7311	-0.091528066
152	0xbd05e572	-0.03268952
153	0xbd5aff59	-0.053466175
154	0xbcf69391	-0.030099662
155	0xbcdbfef9	-0.026854979
156	0x3c9bfe02	0.019042019
157	0x3cdaae2a	0.026694376
158	0xbcf047d4	-0.029331125
159	0xbd106308	-0.035250694
160	0x3d3ac178	0.045594662
161	0x3cfff795	0.031245986
162	0xbba89c62	-0.0051455954
163	0xbd5bb783	-0.053641807
164	0xbd9ba87d	-0.07600496
165	0x3d7b4f25	0.061354775
166	0xbdeb1e34	-0.1148037
167	0xbba7720f	-0.0051100324
168	0xbd062477	-0.03274962
169	0xbd46f472	-0.048572965
170	0x3be9991d	0.007128848
171	0xbcf5c03a	-0.029998887
172	0x3bf0016b	0.007324388
173	0xbd8fdc59	-0.0702445
174	0xbd40fce0	-0.04711616
175	0xbdbd63fe	-0.092475876
176	0x3d8aed60	0.06783557
177	0xbcbfbbc4	-0.023404963
178	0xbca03a9b	-0.019559195
179	0xbd480dd8	-0.048841327
180	0x3cc933f0	0.024560899
181	0x3cfb941b	0.03071027
182	0xbc9ab50a	-0.018885154
183	0x3b3c5e00	0.0028742552
184	0xbd40f0a7	-0.047104504
185	0xbb304200	-0.0026894808
186	0xbd7882a3	-0.06067146
187	0xbd5af49e	-0.05345594
188	0xbdcefc3e	-0.10106705
189	0xbdd67c97	-0.104729824
190	0xbc65db85	-0.014029388
191	0xbd43a7a2	-0.04776729
192	0xbd9e103f	-0.077179424
193	0xbd3e967f	-0.046530243
194	0xbd587bde	-0.052852504
195	0xbc34f963	-0.011045787
196	0xbbfa9ff1	-0.007648461
197	0x3be7743e	0.0070634177
198	0xbc96fceb	-0.018431148
199	0x3c64fb85	0.013975983
200	0xbcd39802	-0.025829319
201	0xbcad5a3d	-0.021161193
202	0xbc7223bd	-0.0147790285
203	0xba4e3b06	-0.00078670715
204	0xbd3ce940	-0.046120882
205	0xbc6f3ca1	-0.014601857
206	0xbbd2ffca	-0.006439184
207	0xbd46ad4d	-0.048505116
208	0x3cd55347	0.026040686
209	0xbde2ca5e	-0.11073755
210	0x3d3ecf3f	0.046584364
211	0xbd5dad3a	-0.05412028
212	0x3ceaf2ee	0.028680291
213	0xbbb07b16	-0.0053857667
214	0xbc8af248	-0.016961232
215	0x3c156212	0.00911762
216	0xbca56290	-0.0201886
217	0x3c2f556e	0.01070152
218	0xbda448f1	-0.08021725
219	0xbd6e425c	-0.058168754
220	0xbd123c36	-0.035701953
221	0xbd471a75	-0.048609216
222	0xbd0bd4c8	-0.03413847
223	0xbd30393f	-0.043023344
224	0xbd70b4ba	-0.058766104
225	0xbd235698	-0.039877504
226	0xbcc6dac7	-0.024274243
227	0xbcd24070	-0.025665492
228	0x3c6b666c	0.014367681
229	0x3c56e9be	0.013117252
230	0xbbd12ff1	-0.006383889
231	0xbd50e7a2	-0.051002152
232	0xbd097c0a	-0.03356556
233	0xbcf3ad1c	-0.02974563
234	0x3d0b3207	0.033983257
235	0xbd660078	-0.05615279
236	0xbce68906	-0.02814151
237	0xbd0acf14	-0.03388889
238	0xbda1e73a	-0.07905431
239	0x3bd373ed	0.0064530284
240	0xbd8b2c25	-0.06795529
241	0xbd49afd2	-0.04923994
242	0xbd78658e	-0.060643725
243	0x3c35ddad	0.011100215
244	0xbc107a78	-0.008818261
245	0xbd752df2	-0.05985827
246	0xbd34dfc4	-0.044158712
247	0xbd594903	-0.053048145
248	0xbc942e24	-0.018088408
249	0xbc51c753	-0.01280387
250	0xbd445951	-0.04793674
251	0xbca32007	-0.019912733
252	0x3c8a1817	0.01685719
253	0xbd986da9	-0.07442791
254	0xbd45cf5a	-0.04829345
255	0xbc838aba	-0.01605736

bias f4 [6]
0	0xbd6d3e77	-0.0579209
1	0x3d0504cd	0.03247528
2	0xbbf00762	-0.007325099
3	0xbd98064d	-0.07423077
4	0x3d715f4f	0.058928784
5	0xbca9761b	-0.0206862

weight f4 [16, 6, 5, 5]
0	0xbd1a216d	-0.037629534
1	0x3c71a0c1	0.014747799
2	0xbc86b91f	-0.016445694
3	0x3cdd65b7	0.02702604
4	0xbcf65705	-0.030070791
5	0xbcea0ac3	-0.028569585
6	0xbb916f9d	-0.004438354
7	0xbd37fa48	-0.04491642
8	0xbd8b726e	-0.06808935
9	0xbceb44dd	-0.02871936
10	0xbd298373	-0.041385125
11	0xbad40373	-0.0016175344
12	0xbd76a9df	-0.060220595
13	0x3c8e4ceb	0.017370662
14	0xbb66acb0	-0.0035198145
15	0xbcb4f824	-0.022090979
16	0xbd026968	-0.031838804
17	0xbc116851	-0.008874969
18	0x3bc8c57b	0.006127057
19	0x3ca363df	0.019945083
20	0x3ca5f730	0.02025947
21	0x3d062e9c	0.032759294
22	0x3cc2b48d	0.023767734
23	0xbcc88ef8	-0.024482235
24	0xbbe673eb	-0.0070328615
25	0xbd3596fd	-0.044333447
26	0xbd238934	-0.03992577
27	0x3b4ad857	0.0030951703
28	0xbd73aee5	-0.059492964
29	0xbcbe6697	-0.023242278
30	0xbd1b2252	-0.037874527
31	0x3ba77872	0.0051107937
32	0xbd16e294	-0.036837175
33	0xbcddac68	-0.027059749
34	0xbd3c5fb5	-0.04598971
35	0xbcf970b3	-0.030449247
36	0xbd05b74b	-0.032645505
37	0xba372315	-0.00069861236
38	0x3c4f6468	0.012658216
39	0x3c5427bf	0.012948929
40	0xbcf6cb8b	-0.030126354
41	0xbda05045	-0.0782781
42	0xbc3935d0	-0.011304334
43	0x3ca7c5b4	0.020480014
44	0xbc52ab3c	-0.012858208
45	0xbca81a76	-0.02052043
46	0xbcb7bf71	-0.022430154
47	0x3c366c30	0.011134192
48	0xbcc80abf	-0.024419187
49	0xbca00721	-0.01953465
50	0xbd7326e8	-0.059363276
51	0xbb4420c1	-0.002992675
52	0x3c1e3f58	0.009658657
53	0xbd26e4b8	-0.040745467
54	0xb92eb537	-0.00016661441
55	0xbc301e2f	-0.010749384
56	0xbd39f84d	-0.045402814
57	0xbd415d05	-0.04720785
58	0xbd85eff3	-0.06539907
59	0xbcb3a1b8	-0.0219277
60	0xbbff9327	-0.0077995243
61	0xbd13fb43	-0.036128294
62	0x3d25d1a5	0.040483136
63	0xbce2f1c9	-0.027703183
64	0xbd007386	-0.03136017
65	0xbc6f9381	-0.01462257
66	0xbc807096	-0.015678685
67	0xbcbb3413	-0.02285198
68	0x3b7c9ac9	0.0038544408
69	0xbcfdd8ad	-0.030987108
70	0xbd9fd492	-0.078042164
71	0xbd11a727	-0.0355598
72	0xbda22087	-0.0791636
73	0xbb89ac9b	-0.0042014844
74	0x3c05c319	0.008164191
75	0xbd54eddc	-0.051984653
76	0x3d0f7647	0.035024907
77	0x3c8107e4	0.015750833
78	0x3a9fd4d2	0.0012194163
79	0xbbb2e1b7	-0.005459036
80	0x3c6e059c	0.014527705
81	0xbcdccabd	-0.026952142
82	0xbd601e17	-0.054716196
83	0xba3ec083	-0.0007276611
84	0xbc98ac7c	-0.018636934
85	0xbc6cc80f	-0.014451995
86	0xbc55955c	-0.013036098
87	0xbd16cc7d	-0.03681611
88	0xbd111404	-0.03541948
89	0xbd78a0f7	-0.060700383
90	0xbd2b0b98	-0.041759104
91	0xbcf6b859	-0.0301172
92	0xbd66eb84	-0.05637695
93	0x3ad254b4	0.0016046972
94	0xbbc5e745	-0.0060395324
95	0x3c57b321	0.013165266
96	0x3b406f80	0.0029363334
97	0xbcea6a83	-0.028615242
98	0xbb368925	-0.002785274
99	0xbadb8814	-0.0016748928
100	0xbc25c2c9	-0.010117241
101	0xbc2d3c2c	-0.010573428
102	0xbc8229c7	-0.015889062
103	0xbd4c1ae4	-0.049830332
104	0x3c2af701	0.010434867
105	0x3c172c3a	0.009226853
106	0xbc10a479	-0.008828276
107	0x3bf52e70	0.0074823424
108	0xbce095d0	-0.027415186
109	0x3d548a43	0.05188967
110	0x3c51c621	0.012803585
111	0xbccb844d	-0.02484336
112	0xbcb8845c	-0.022524051
113	0xbd1da96b	-0.038491648
114	0xbbf3720f	-0.0074293683
115	0xbd03fc3e	-0.03222298
116	0x3d04a8b1	0.03238744
117	0x3ce9092d	0.028446758
118	0x3c196958	0.009363495
119	0xbc4ae3df	-0.01238343
120	0xb9b64f80	-0.00034772977
121	0xbd4c5df8	-0.049894303
122	0xbc250c1d	-0.010073689
123	0x3babde7d	0.0052450285
124	0x3d2d22e0	0.042269588
125	0xbc05c8cd	-0.00816555
126	0x3ce58dbc	0.028021686
127	0xbd3faa17	-0.04679307
128	0xbcb457d8	-0.022014543
129	0xbdade9a3	-0.08491828
130	0xbb0d5898	-0.0021567699
131	0xbd34171b	-0.043967348
132	0xbd15d1d3	-0.036577057
133	0xbd6ad2bf	-0.05732989
134	0xbd1986cb	-0.037482064
135	0xbd121fbb	-0.03567479
136	0xbc48487b	-0.012224312
137	0xbd5522cb	-0.052035134
138	0xbd2c5934	-0.04207726
139	0xbd95e87d	-0.07319734
140	0xbd19b908	-0.037529975
141	0xbcd9cfac	-0.026588283
142	0xbb7b5e48	-0.0038355757
143	0xbc9adb85	-0.018903503
144	0x3d1a9123	0.03773607
145	0x3c1df7c4	0.009641591
146	0xbd8bdcf5	-0.068292536
147	0xbcfda051	-0.030960234
148	0xbbbc68af	-0.005749784
149	0xbd953bf1	-0.072868235
150	0xbcd3aeee	-0.025840249
151	0xbd215f41	-0.03939748
152	0xbd72879b	-0.059211355
153	0x3c5523df	0.013009041
154	0xbcbd5e2f	-0.0231162
155	0xbb986f36	-0.0046519293
156	0x3b494ccc	0.003071594
157	0xbc8f484f	-0.017490534
158	0x3c81d066	0.015846442
159	0x3ccdeee7	0.025138332
160	0xbcd56255	-0.026047865
161	0xbdb580b3	-0.08862438
162	0x3d016c97	0.0315977
163	0xbc82f972	-0.015988085
164	0xbd203085	-0.03910877
165	0x3d11a97b	0.03556202
166	0x3ca44d26	0.020056318
167	0x3a9ccc1a	0.0011962682
168	0xbc87c36f	-0.016572682
169	0xbb9b2011	-0.004734047
170	0xbcc8f740	-0.02453196
171	0xbd24478e	-0.040107302
172	0xbcd13042	-0.025535706
173	0xbc4c3e10	-0.012465969
174	0xbbfe185a	-0.007754368
175	0xbd20e256	-0.03927835
176	0xbd629677	-0.055319276
177	0x3c9ee3e5	0.019395778
178	0xbd2ca1a4	-0.04214634
179	0x3ca478c7	0.020077122
180	0xbd6dab35	-0.058024604
181	0xbcbe2faf	-0.023216097
182	0xbcba7b48	-0.022763863
183	0xbd7e0931	-0.062020484
184	0xbb9a490a	-0.004708414
185	0xbd1110cc	-0.03541641
186	0xbc9cdf9a	-0.01914959
187	0xbda30bf2	-0.07961263
188	0xbd6e47a6	-0.058173798
189	0xbda8f2a4	-0.08249405
190	0xbbfc7f45	-0.0077056014
191	0xbcf34a6a	-0.02969857
192	0x3c41d18e	0.011829747
193	0x3b951ff4	0.0045509282
194	0xbd9878db	-0.07444926
195	0xbc8e47a9	-0.017368155
196	0xbd2438c1	-0.040093187
197	0xbdd280a8	-0.102784455
198	0xbdb6dad2	-0.089284554
199	0xbd7c0ea0	-0.061537385
200	0x3bed8715	0.007248769
201	0xbbc3435e	-0.0059589585
202	0xbcf04c9d	-0.029333407
203	0x3c900697	0.017581267
204	0xbcac6a9c	-0.021046929
205	0xbd1bff42	-0.03808523
206	0x3c9afc85	0.018919239
207	0xbcf542a7	-0.029939009
208	0x3d17ed57	0.03709158
209	0xbd1c1457	-0.038105335
210	0xbc9fc26b	-0.019501885
211	0xbd706ad1	-0.058695618
212	0xbc37fcd1	-0.01122971
213	0xbd4ec1cc	-0.050477788
214	0xbd029769	-0.031882677
215	0xbd0dc84e	-0.034614854
216	0xbbd3658f	-0.0064513157
217	0x3d2e246c	0.042515203
218	0xbc41128a	-0.011784205
219	0x3bbd1512	0.005770334
220	0xbd9e5e01	-0.077327736
221	0xbd1a733a	-0.037707545
222	0x3afaaff1	0.0019125921
223	0x3d3a3504	0.045460716
224	0xbca98e14	-0.020697631
225	0x3c6231b2	0.013805794
226	0xbd4ba24f	-0.049715336
227	0x3cf487d4	0.029849924
228	0xbc94e02a	-0.018173296
229	0xbccfb39b	-0.025354197
230	0xbc14773b	-0.00906163
231	0xbd8d2d8d	-0.06893454
232	0x3b720cd9	0.0036933927
233	0xbd23fb4b	-0.040034574
234	0xbc8e1d8d	-0.017348075
235	0xbca091cc	-0.019600771
236	0xbc093472	-0.00837432
237	0xbd0cfe12	-0.034421988
238	0xbd0a129e	-0.03370916
239	0xbcc7c310	-0.024385005
240	0xbcc9f40d	-0.024652505
241	0xbc4ac2d9	-0.012375557
242	0xbb52d664	-0.0032171244
243	0xbccc6a6d	-0.024953092
244	0xbd4eb30b	-0.050463717
245	0xbce565e7	-0.028002692
246	0xbc3527d0	-0.011056855
247	0x3cf317f7	0.029674513
248	0x3d079758	0.033103317
249	0xbc50873c	-0.012727555
250	0x3bde4ee1	0.0067843054
251	0x3d00cbd9	0.031444404
252	0x3c8c2bc5	0.017110715
253	0x3c94ec65	0.018179128
254	0x3ba61b51	0.0050691743
255	0xbd1be37f	-0.038058754

bias f4 [16]
0	0xbd6adf38	-0.057341784
1	0xbb8852b9	-0.004160252
2	0xbc860707	-0.016360773
3	0xbca99217	-0.020699544
4	0x3abb7950	0.0014303122
5	0xbd0a7800	-0.033805847
6	0xbcd17719	-0.025569486
7	0xbcc2ff3c	-0.023803346
8	0xbdc74bef	-0.0973128
9	0xbcabff25	-0.020995686
10	0xbc6a6804	-0.014307026
11	0xbca8545a	-0.020548034
12	0x3ce6591d	0.028118664
13	0xbce1d684	-0.02756811
14	0xbd159d07	-0.036526706
15	0xbd44158d	-0.047872115

weight f4 [120, 400]
0	0xbc9957db	-0.01871865
1	0x3abb864b	0.001430699
2	0x3c1c90e3	0.009556028
3	0xbc913c3f	-0.017728923
4	0xbc2d8a83	-0.010592106
5	0xbc43b5bd	-0.011945185
6	0x3c03f3a3	0.008053693
7	0x3cdf5ad5	0.027264992
8	0xbc83b731	-0.016078563
9	0x3b9cab23	0.0047811433
10	0x391265ab	0.0001396152
11	0x3c4dbb18	0.012556814
12	0x3cd30730	0.025760263
13	0xbc5dab43	-0.0135296015
14	0xbc4f0393	-0.0126351295
15	0x3b0d0f93	0.0021524176
16	0x3c21dbd1	0.0098790685
17	0xbb9bd059	-0.0047550616
18	0xbce25adb	-0.027631214
19	0xbbf6280d	-0.0075120986
20	0xbceca0c0	-0.028885245
21	0x3c946ae1	0.01811737
22	0xb9d6a555	-0.00040940443
23	0x3cac8fc7	0.021064652
24	0xbc6b1189	-0.014347442
25	0xbd71f810	-0.05907446
26	0xbd0def74	-0.03465219
27	0xbce80e55	-0.028327147
28	0xbd6223da	-0.055209972
29	0xbd979b18	-0.07402629
30	0xbd39f26e	-0.045397215
31	0xbcb1972e	-0.021678533
32	0xbc91c53f	-0.01779425
33	0xbcbdd89b	-0.023174575
34	0xbd720e07	-0.05909541
35	0xbc5b0662	-0.013368221
36	0xbd41069d	-0.047125448
37	0xbcd98b0f	-0.026555566
38	0xbc87dc30	-0.016584486
39	0xbd6614d5	-0.05617221
40	0xbd39b17f	-0.04533529
41	0xbc0d957b	-0.008641596
42	0xbd13aa78	-0.036051244
43	0xbd4822dd	-0.048861373
44	0xbcfc4702	-0.030795578
45	0xbd18bfdc	-0.037292346
46	0xbc6179f2	-0.013761984
47	0xbcc03b3b	-0.023465743
48	0xbce97b8f	-0.0285013
49	0xbd0a5a86	-0.033777736
50	0xbc1acae2	-0.009447785
51	0xb92d1d8b	-0.00016509571
52	0xbca1002a	-0.019653399
53	0xbc1c4ee4	-0.009540293
54	0xbc2fc9c4	-0.010729257
55	0xbcb1f1b4	-0.021721698
56	0xbbff8ae8	-0.0077985413
57	0x3c960899	0.018314647
58	0x3c276bf7	0.010218612
59	0xbb8cb5bb	-0.004294125
60	0x3bfa06b1	0.007630192
61	0xbd33f75b	-0.04393707
62	0xbcd03945	-0.025417933
63	0x3ca7f761	0.020503702
64	0x3c14ca01	0.009081365
65	0xbb4ea208	-0.0031529684
66	0xbd0eb040	-0.034836054
67	0xbbde2300	-0.0067790747
68	0x3b278880	0.0025563538
69	0xbc5fb2cb	-0.013653467
70	0xbb216a69	-0.0024630076
71	0xbcfc8043	-0.030822879
72	0x3ce7b9f0	0.028286904
73	0xbb45e430	-0.0030195825
74	0xbc862c65	-0.01637859
75	0xbd15fbcb	-0.03661708
76	0xbc9af30d	-0.018914724
77	0xbc809f16	-0.015700858
78	0xbcf09919	-0.029369878
79	0xbca61314	-0.020272769
80	0xbcc34ba7	-0.023839785
81	0xbd1902cb	-0.03735618
82	0xbcc12c1d	-0.023580605
83	0xbbefd5dc	-0.007319195
84	0xbd2268d7	-0.039650764
85	0xbc54ea09	-0.012995251
86	0xbcdd37fd	-0.027004236
87	0xbd07a902	-0.033120163
88	0xbc77eeee	-0.015132649
89	0xbcc5b698	-0.024134919
90	0xbc6b75f9	-0.014371389
91	0xbcf84972	-0.030308459
92	0xbba75de2	-0.0051076273
93	0xbd0a30a7	-0.033737805
94	0xbc3f84ea	-0.011689404
95	0xbc90e41a	-0.017686892
96	0xbbb0fbf7	-0.0054011303
97	0xbd5246f6	-0.051337205
98	0xbd641cc7	-0.055691507
99	0xbc963138	-0.018334016
100	0xbced4184	-0.028961904
101	0xbc5d6cb9	-0.013514691
102	0x3c139773	0.009008276
103	0xbc73d97d	-0.014883396
104	0xbc946095	-0.01811246
105	0xbd0e66b0	-0.0347659
106	0xbb4a05d7	-0.0030826235
107	0xbd0936b0	-0.03349942
108	0x3af8c55b	0.0018979715
109	0x3af2e023	0.0018529933
110	0xbbf52b0a	-0.0074819373
111	0xba8358e0	-0.0010020994
112	0xbc8b5aaa	-0.017011005
113	0xbce6d2de	-0.028176721
114	0xbc26415a	-0.010147417
115	0xbd24574d	-0.04012232
116	0x3c99d153	0.018776571
117	0x3c28a50d	0.010293257
118	0xbcd34be3	-0.025793022
119	0xbd082324	-0.033236638
120	0x3ba0a18b	0.00490207
121	0xbd2a1eb5	-0.04153319
122	0xbaf9967e	-0.0019042043
123	0xbce9ed5b	-0.028555563
124	0xbc1e5864	-0.009664629
125	0xbd470937	-0.048592772
126	0xbd5e56ed	-0.054282118
127	0xbc563026	-0.013073003
128	0xbd20abdb	-0.039226394
129	0xbd19644c	-0.037449166
130	0xbd766836	-0.060157977
131	0xbc7367ed	-0.014856321
132	0xbd3fbd6a	-0.0468115
133	0xbd12009c	-0.035645112
134	0xbd1368fd	-0.035988797
135	0xbd9d8720	-0.07691789
136	0xbd3bd337	-0.045855727
137	0xbd635dc7	-0.055509355
138	0xbd1ef87b	-0.03881119
139	0xbd2aaef2	-0.041670747
140	0xbd23ba04	-0.03997232
141	0xbc926c2d	-0.017873848
142	0xbd2b27bb	-0.041785937
143	0xbd0aded4	-0.03390391
144	0xbd4a6ec7	-0.04942205
145	0xbd10e036	-0.035370074
146	0xbd4eb8ea	-0.050469317
147	0xbd44dfb3	-0.0480649
148	0x3b0d0776	0.002151934
149	0xbc6a3f06	-0.0142972525
150	0xbd736198	-0.059419245
151	0xbd5591b8	-0.05214092
152	0xbcbab945	-0.022793422
153	0xbd1dba34	-0.038507655
154	0xbd208374	-0.039187863
155	0xbb9a3859	-0.004706424
156	0xbd005310	-0.031329215
157	0xbc3fc607	-0.011704928
158	0xbcb1752b	-0.021662315
159	0xbca5d505	-0.020243177
160	0xbbb87221	-0.0056288396
161	0xbd3bf2f3	-0.04588599
162	0xbcdc99d8	-0.026928827
163	0xbd257f62	-0.040404685
164	0xbcf6220b	-0.03004553
165	0xbcb0ce5d	-0.021582777
166	0xbd196399	-0.0374485
167	0xbd1a771c	-0.037711248
168	0xbc4696d1	-0.012120918
169	0x3bc63b90	0.006049581
170	0xbd0ad1d9	-0.033891533
171	0xbc72914d	-0.01480515
172	0xbd822429	-0.06354553
173	0xbd23beb2	-0.039976783
174	0xbcf2fa41	-0.029660346
175	0xbd1b2e69	-0.037886057
176	0xbd3083a8	-0.043094307
177	0xbc4a4a49	-0.0123468125
178	0xbd62b78c	-0.055350825
179	0xbc31cbef	-0.010851844
180	0xbc173c4a	-0.009230683
181	0x3bf6c14f	0.0075303684
182	0x3ab255ad	0.0013605856
183	0xbc99bba3	-0.01876623
184	0xbc722c35	-0.014781048
185	0xbd48a191	-0.048982207
186	0xbbd34460	-0.00644736
187	0xbbf49ed3	-0.0074652224
188	0xbd27bc29	-0.040950928
189	0xbd6207c9	-0.055183206
190	0xbc8626d5	-0.016375938
191	0xbcb05b6d	-0.02152797
192	0x3c09402f	0.008377119
193	0xbb57e9af	-0.0032945683
194	0xbce4b84f	-0.027919916
195	0x3c462cd8	0.0120956525
196	0xbc543904	-0.012953047
197	0x3c677b51	0.014128522
198	0x3c0dcf29	0.008655348
199	0xbcfc5a69	-0.03080483
200	0xbcb49937	-0.022045715
201	0xbd003713	-0.031302523
202	0xbcdd64fa	-0.027025688
203	0xbb9c259f	-0.004765227
204	0xbcf5076c	-0.029910766
205	0xbd1cad76	-0.038251363
206	0xbccc6117	-0.02494864
207	0xbd10be53	-0.035337757
208	0xbd0590e2	-0.032608874
209	0xbd4a0cf3	-0.049328756
210	0xbbd4fb42	-0.006499679
211	0xbd583a40	-0.052789927
212	0xbd1cfc50	-0.03832656
213	0xbd921c59	-0.07134313
214	0xbd3ff5f7	-0.04686543
215	0xbd26805b	-0.040649753
216	0xbd15415a	-0.036439277
217	0xbd15550e	-0.036458068
218	0xbcd51060	-0.026008785
219	0xbcadcea3	-0.021216696
220	0xbc9cacc6	-0.019125354
221	0xbd28cd1a	-0.041211225
222	0xbc97975a	-0.018504787
223	0x3cb8108d	0.02246883
224	0xbd79635f	-0.060885783
225	0x3c67c5ed	0.01414631
226	0x3c28101c	0.010257747
227	0xba726440	-0.0009246506
228	0xbb8d673b	-0.0043152845
229	0x3c85a5cd	0.016314412
230	0xbbab4d58	-0.005227726
231	0xbc91e63b	-0.017809978
232	0x3b00d890	0.0019660331
233	0xbca76171	-0.020432206
234	0x3ca101f3	0.01965425
235	0xbce8911b	-0.028389504
236	0x3c707df8	0.014678471
237	0x3bf6ca1f	0.007531419
238	0xbc09bb83	-0.008406523
239	0xbad8ff00	-0.0016555488
240	0xbc8a742f	-0.016901104
241	0xbca3251d	-0.019915158
242	0x3d138305	0.03601362
243	0xbcbb44b5	-0.02285991
244	0xbcb7f415	-0.022455255
245	0x3ccad188	0.024758115
246	0x3aa42500	0.0012523234
247	0x3abb8bab	0.0014308592
248	0xbc6cec7b	-0.014460678
249	0x3c8eb311	0.01741937
250	0xbd7849bc	-0.060617194
251	0xbd781f7d	-0.060576905
252	0xbd058902	-0.032601364
253	0xbd4dfb63	-0.05028857
254	0xbd7a5c95	-0.06112345
255	0xbd2da586	-0.042394184

bias f4 [120]
0	0xbc9e9d2e	-0.019362058
1	0xbce1a241	-0.027543189
2	0xbce3a1d2	-0.027787123
3	0xbc402590	-0.011727706
4	0x3c24e440	0.010064185
5	0xba748c4e	-0.00093287684
6	0xbcbbb3c6	-0.022912871
7	0xbcde6315	-0.027146855
8	0xbd29f30c	-0.041491553
9	0xbd6f3c04	-0.058406845
10	0xbd38a228	-0.04507652
11	0xbc164bd1	-0.0091733495
12	0xbcc62dc2	-0.02419174
13	0xbd5a787d	-0.053337563
14	0xbd25c450	-0.04047042
15	0xbc0382f5	-0.008026828
16	0xbbb97c9b	-0.005660606
17	0xbcef4aa4	-0.029210396
18	0x3c155d62	0.0091165025
19	0x3d6359f3	0.055505704
20	0xbc9adca3	-0.018904036
21	0x3bc38ccb	0.0059677116
22	0xbd178ba2	-0.0369984
23	0xbcca0bf1	-0.024663897
24	0x3ba448e3	0.0050135716
25	0xbc091bb2	-0.0083684195
26	0xbcbd03d2	-0.02307311
27	0xbd024cfb	-0.031811696
28	0xbba7ae2e	-0.0051171994
29	0xbc7e8d3d	-0.0155366035
30	0xbc9d3a63	-0.01919288
31	0xbccd4501	-0.025057318
32	0xbc15b926	-0.009138381
33	0xbc7242f6	-0.014786473
34	0xbbdb2dce	-0.00668881
35	0xbc8d7a02	-0.017270092
36	0xbd209159	-0.039201114
37	0x3cb43075	0.021995762
38	0xbc3a4e51	-0.011371211
39	0xbc2d2494	-0.010567803
40	0xbd481eef	-0.048857626
41	0xbd153d7c	-0.03643559
42	0x3c52802c	0.012847941
43	0xbc1adec0	-0.009452522
44	0xbcf15fda	-0.02946465
45	0x3cfdcbc6	0.030980956
46	0xbd2704b4	-0.04077597
47	0xbb9cbd5b	-0.004783315
48	0xbb8835c8	-0.004156802
49	0xbb24d021	-0.0025148469
50	0xbd44776e	-0.04796546
51	0xbcaaabf1	-0.020833941
52	0xbced54e4	-0.028971143
53	0xbcfeac28	-0.03108795
54	0xbc69584e	-0.014242245
55	0xbd3dc14a	-0.046326913
56	0xbbbb82f1	-0.0057223965
57	0xbd3c89fa	-0.046030022
58	0xbc590b54	-0.01324733
59	0xbd64c63a	-0.055853106
60	0x3b351344	0.0027629891
61	0xbd0388c1	-0.03211284
62	0x3c2f8014	0.010711689
63	0xbd464f5f	-0.048415538
64	0xbc8e735b	-0.01738899
65	0xbbfdaf4e	-0.007741845
66	0xbbb2f403	-0.0054612174
67	0xbd2ed1f7	-0.042680707
68	0xbc792505	-0.01520658
69	0xb940f7a0	-0.00018402794
70	0xbd26cb05	-0.04072096
71	0xbc9b8437	-0.018983943
72	0xbc701910	-0.014654413
73	0xbca2fc77	-0.019895775
74	0xbd17a34c	-0.037020966
75	0xbc40127b	-0.011723156
76	0xbd4c814a	-0.049927987
77	0x3cd8c0eb	0.026459178
78	0xbd544874	-0.05182691
79	0xbd303cc6	-0.043026708
80	0xbd5ec6c2	-0.05438877
81	0xbcc8e68b	-0.024523994
82	0x3bd9d956	0.006648223
83	0xbbeda1b9	-0.007251945
84	0xbbd9b19f	-0.0066434885
85	0xbbba4880	-0.005684912
86	0x3919c938	0.00014666177
87	0xbd01548d	-0.031574775
88	0xbbcf3d70	-0.0063244626
89	0xbb708fce	-0.0036706808
90	0xbcbe7b24	-0.023252077
91	0xbc7044d0	-0.014664844
92	0xbcad9e10	-0.021193534
93	0xbc26287c	-0.010141488
94	0xbd1e3ed4	-0.038634136
95	0x3c8405fc	0.016116135
96	0xbc55da8c	-0.013052594
97	0x3b299794	0.00258777
98	0xbc7dff94	-0.015502829
99	0xbcafb038	-0.021446332
100	0x3bb4ce3a	0.005517748
101	0xbcf8071f	-0.030276833
102	0xbc87ef58	-0.01659362
103	0xbccd817e	-0.02508616
104	0xbc5f8692	-0.013642924
105	0xbccc1f31	-0.024917217
106	0xbc09c38e	-0.00840844
107	0xbc753df0	-0.01496838
108	0x3c71e000	0.014762878
109	0xbd04724b	-0.03233556
110	0xbd2f617c	-0.042817578
111	0x3a863429	0.0010238934
112	0xbc9f05d0	-0.019411951
113	0xbca99b04	-0.0207038
114	0x3a85c434	0.0010205568
115	0xbafc8352	-0.0019265211
116	0xbbff9327	-0.0077995243
117	0x3d3b9004	0.04579164
118	0xbc5fecac	-0.013667267
119	0x3d071a7c	0.03298424

weight f4 [84, 120]
0	0x3c1f15e9	0.009709814
1	0x3d874e42	0.06606723
2	0x3d88f865	0.066880025
3	0x3d8698db	0.065721236
4	0x3cb0f5d8	0.021601602
5	0x3d94ea18	0.07271212
6	0x3c8ddeb9	0.017318117
7	0xbc0a64d3	-0.00844689
8	0x3d11c363	0.035586726
9	0x3cb27323	0.021783417
10	0x3d3c0d0a	0.045910873
11	0xbcba36e1	-0.022731246
12	0x3c900b64	0.017583556
13	0x3cb9a211	0.022660287
14	0x3b926b0c	0.0044683274
15	0x3a8f094c	0.0010912805
16	0xbca7a997	-0.020466609
17	0x3cb261f0	0.021775216
18	0x3beb2bc1	0.0071768467
19	0x3bd64b66	0.00653975
20	0x3cac4d6b	0.02103301
21	0xbb3aee2e	-0.0028523314
22	0x3d213e13	0.03936584
23	0x3b85190d	0.004061824
24	0xbc5378ee	-0.01290725
25	0x3bf78f48	0.0075549223
26	0x3d08076e	0.03321021
27	0x3ce4370d	0.027858282
28	0x3d23898a	0.03992609
29	0x3d1a929d	0.037737478
30	0xbadd2c6b	-0.00168742
31	0x3c55b9ac	0.013044756
32	0x3cb8d951	0.022564562
33	0x3d94782a	0.07249482
34	0x3d11f266	0.03563156
35	0x3c09f8d8	0.008421145
36	0x3d98e807	0.07466131
37	0x3d9c21e2	0.0762365
38	0x3cbfed6c	0.023428641
39	0x3cb351e2	0.02188963
40	0x3ce42979	0.027851807
41	0xbac3d9c8	-0.0014942223
42	0xbc5d3b30	-0.013502881
43	0x3ba4bd42	0.005027444
44	0xbc6411c4	-0.013920251
45	0x3b866526	0.0041014133
46	0x3d1e0f0c	0.03858857
47	0x3c07364c	0.0082526915
48	0xbcc9895e	-0.024601635
49	0x3ce456eb	0.027873477
50	0xbd4ee26b	-0.050508898
51	0xbc961e7e	-0.018325087
52	0x3d6f9468	0.05849114
53	0x3d9760ee	0.07391535
54	0x3d489726	0.04897227
55	0x3d803a02	0.06261064
56	0x3cf573c0	0.02996242
57	0xbc061d46	-0.00818569
58	0x3d240f72	0.040053792
59	0xbc1c14b4	-0.00952642
60	0x3c702f42	0.014659705
61	0xbd261478	-0.040546864
62	0x3cb05bfb	0.021528235
63	0xbbadbf47	-0.005302343
64	0x3bd57dcf	0.0065152417
65	0x3bf5a2dc	0.007496221
66	0xbbbf82a8	-0.005844433
67	0x3cb0550e	0.021524932
68	0x3cce8646	0.025210511
69	0x3c835530	0.016031832
70	0x3bb39bf1	0.005481236
71	0x3c914d7b	0.01773714
72	0x3d0a5b89	0.0337787
73	0x3d9a6bd9	0.075401016
74	0x3dc7fe39	0.09765286
75	0x3ce70eb2	0.02820525
76	0x3d1d735f	0.038440105
77	0x3d778b09	0.06043533
78	0x3d1e70eb	0.038681906
79	0xbd249d01	-0.040188793
80	0xbc962e8a	-0.018332738
81	0x3b4e2c50	0.0031459518
82	0x3cff8fae	0.031196442
83	0x3d58ec83	0.05295993
84	0x3d22f77e	0.03978681
85	0x3cc86f26	0.024467062
86	0x3d72454c	0.059148118
87	0x3d20a2eb	0.03921787
88	0x3dad2d14	0.084558636
89	0xbcc05cbe	-0.023481723
90	0x3c2e71d4	0.010647256
91	0x3ce59323	0.028024262
92	0x3cf8be38	0.03036414
93	0x3d340703	0.043952
94	0xbc45c245	-0.012070243
95	0xbd85b191	-0.06528009
96	0x3d074a8d	0.03303008
97	0x3cdb6adc	0.026784353
98	0x3db4db1e	0.08830856
99	0x3bf1bd58	0.007377308
100	0x3db1eddf	0.086879484
101	0xbc4b9773	-0.012426245
102	0xbc3b88cb	-0.011446188
103	0x3cd8e017	0.026474042
104	0x3d12dd06	0.035855316
105	0x3c8bbfa1	0.01705915
106	0x3d23ef51	0.04002315
107	0x3d657d4e	0.056027703
108	0xbc0cb074	-0.008586992
109	0x3cf75dee	0.030196156
110	0x3d03e459	0.03220019
111	0xbc9ddb2a	-0.019269545
112	0xbc29edc7	-0.010371632
113	0xbc656db1	-0.014003203
114	0x3d24b9ac	0.040216133
115	0x3d227004	0.039657608
116	0xbbdcd4c6	-0.0067392318
117	0x3d25b18e	0.040452532
118	0x3d1595a7	0.036519673
119	0x3bbd948a	0.0057855295
120	0xbc8b5e13	-0.017012632
121	0xbc88ffa1	-0.016723456
122	0xbc8569ac	-0.01628574
123	0xbcd89b52	-0.02644125
124	0xbd441917	-0.04787549
125	0x3cf01085	0.029304752
126	0xbc79e810	-0.015253082
127	0x3cb90a37	0.022587879
128	0x3c9d205b	0.019180467
129	0xbc96f24b	-0.018426081
130	0xbd9a1689	-0.075238295
131	0x3c55da05	0.013052468
132	0x3d5f7cc0	0.05456233
133	0x3d1f302a	0.038864292
134	0xbce4cb83	-0.027929073
135	0x3b8ce95e	0.0043002805
136	0x3d13f795	0.036124784
137	0xbc2424ca	-0.010018537
138	0xbd8b257b	-0.06794258
139	0x3c025283	0.007954243
140	0x3d2ea0c3	0.042633783
141	0x3b4ab99d	0.0030933388
142	0xbbc30085	-0.0059509897
143	0x3c4570ce	0.0120508205
144	0xbb713e7c	-0.0036810925
145	0x3c7f59b6	0.015585354
146	0xbd4a245a	-0.049351074
147	0x3d572155	0.052522022
148	0xbd050e4f	-0.03248435
149	0x3ca948b9	0.02066456
150	0xbd858c8f	-0.0652095
151	0xbd17b06f	-0.037033495
152	0xbcc468b9	-0.023975717
153	0xbcf2c801	-0.029636385
154	0x3cb2dbc7	0.021833314
155	0x3cc19e30	0.023635
156	0xbc7e0ca0	-0.01550594
157	0xbd37249a	-0.04471264
158	0xbd4c4eac	-0.049879715
159	0xbd410397	-0.047122564
160	0x3d99daa6	0.07512407
161	0x3d09d93d	0.03365444
162	0xbd0e04e6	-0.03467264
163	0x3ca5bec1	0.02023256
164	0x3b00c725	0.001964995
165	0x3cc9e9c9	0.02464761
166	0xbc819ba1	-0.01582128
167	0x3cd75d5b	0.026289633
168	0xbcb55363	-0.022134488
169	0xbd6a8b53	-0.057261776
170	0xbc600900	-0.013674021
171	0x3c5ce8e0	0.013483256
172	0xbd22e899	-0.039772604
173	0x3c6e2566	0.014535284
174	0xb9fe1f74	-0.0004847009
175	0x3ce5d69c	0.028056435
176	0xbc930bb3	-0.017949915
177	0x3cee7600	0.029109001
178	0xbd70f577	-0.058827844
179	0xbcde6bd1	-0.02715102
180	0xb933bc2c	-0.0001714087
181	0xbd16548d	-0.036701728
182	0x3c81e4eb	0.015856227
183	0x3d37f3b9	0.044910166
184	0x3ce5775d	0.028011018
185	0x3ccedd2d	0.02525195
186	0xbcf064ff	-0.029345034
187	0xbcbfce17	-0.023413701
188	0xbd067abd	-0.032831896
189	0xbb97eca5	-0.0046363645
190	0xbd44cc45	-0.04804637
191	0x3cbfbf8c	0.023406766
192	0xbb201729	-0.0024427867
193	0x3cb649e2	0.022252027
194	0x3cf8fe42	0.030394677
195	0x3b4fd910	0.0031715073
196	0xbcd607a0	-0.026126683
197	0x3cd21aef	0.025647609
198	0x3d15af46	0.036544107
199	0x3d2ab5af	0.041677173
200	0x3d54a606	0.051916145
201	0xbcff04a1	-0.031130137
202	0x3c82f79f	0.015987216
203	0xbc861695	-0.01636819
204	0xbc4bacc4	-0.012431327
205	0xbc1b35f5	-0.009473314
206	0xbbe6dcae	-0.00704535
207	0x3d00d527	0.031453278
208	0xbc18e9e0	-0.009333104
209	0xbd02c88c	-0.031929538
210	0x3c908042	0.017639283
211	0xbd0aefb1	-0.033919994
212	0x3d4fdd68	0.05074826
213	0xbd437955	-0.047723133
214	0xbc4941bf	-0.0122837415
215	0xbd1203c4	-0.035648122
216	0xbbb77254	-0.005598346
217	0xbc3c5b26	-0.011496341
218	0xbd85152b	-0.06498178
219	0xbc3c0c7e	-0.011477588
220	0xbd472161	-0.048615817
221	0xbcf057e8	-0.029338792
222	0xbd5eeb28	-0.05442348
223	0xbc2f35f3	-0.010694015
224	0xbd9fa9da	-0.077960685
225	0xbcb5a122	-0.02217156
226	0xbc6fb65c	-0.01463088
227	0x3cc35567	0.023844434
228	0x3c331e80	0.010932565
229	0xbd1e6701	-0.03867245
230	0x3b972a49	0.004613195
231	0x3c2cbfda	0.010543788
232	0x3c88ff28	0.01672323
233	0xbc2ec41e	-0.010666875
234	0xbc92faec	-0.017941914
235	0xbd848e86	-0.06472497
236	0x3cded8b8	0.027202949
237	0x3c8c336f	0.01711437
238	0xbbf27ab8	-0.007399883
239	0x3d05d23e	0.032671206
240	0x3cae0397	0.021241946
241	0xbb938cfe	-0.0045028916
242	0xbb5109ee	-0.0031896788
243	0x3ca20e40	0.019782186
244	0x3d896ef1	0.067106135
245	0x3ba26680	0.0049560666
246	0xbc94027b	-0.018067589
247	0x3c4dc415	0.012558957
248	0xbda3bb49	-0.07994706
249	0xbd535d74	-0.051602796
250	0x3da4e2da	0.08051081
251	0x3c2f2965	0.010691022
252	0xbc38c0d6	-0.011276444
253	0xbccf0606	-0.025271427
254	0x3b47aa7b	0.0030466605
255	0x3c593110	0.013256326

bias f4 [84]
0	0xbb54e725	-0.0032486406
1	0xbd891e28	-0.06695205
2	0x3d217aec	0.039423868
3	0xbce738ae	-0.02822527
4	0xbcde90b4	-0.02716861
5	0xbbc8737b	-0.006117282
6	0x3c704038	0.014663748
7	0x3d1159b7	0.03548595
8	0xbd56c48f	-0.052433547
9	0xbc858cf0	-0.016302556
10	0x3c986174	0.018601157
11	0xbcc627a6	-0.024188828
12	0x3b1b8c4c	0.0023734747
13	0xbd982b65	-0.07430152
14	0xbd474ff3	-0.04866023
15	0xbcc65f6d	-0.024215424
16	0x3ce38450	0.027773052
17	0xbdaaaf8c	-0.08334264
18	0x3d476f02	0.04868985
19	0x3c1d1ee4	0.009589884
20	0xbd6022e0	-0.05472076
21	0xbd601570	-0.054707944
22	0xbd33ff7b	-0.043944817
23	0xbca7801a	-0.020446826
24	0xbbf9c1e0	-0.0076219887
25	0x3cef7bb6	0.029233795
26	0x3ce0fe67	0.027465058
27	0xbb73152e	-0.0037091481
28	0xbd81060b	-0.06299981
29	0xbcba8e64	-0.022772975
30	0xbcff01d5	-0.031128803
31	0xbbdc2068	-0.0067177303
32	0xbd8f72a2	-0.07004286
33	0xbcf585f9	-0.02997111
34	0xbc6d6c89	-0.014491209
35	0xbcbeb6b2	-0.023280475
36	0x3cd34662	0.025790397
37	0xbc6179f4	-0.013761986
38	0xbd63477a	-0.055488087
39	0xbd2027c3	-0.03910042
40	0xbd7bc6e1	-0.061468963
41	0xbb859aee	-0.004077307
42	0xbcec09f0	-0.028813332
43	0xbc33283c	-0.010934886
44	0x3d4bd224	0.049760953
45	0x3d0da670	0.034582555
46	0xbafb2d4a	-0.0019163277
47	0x3c4d64bd	0.012536225
48	0xbd816116	-0.06317346
49	0x3c3d339e	0.011547951
50	0xbb0ee4f7	-0.0021803954
51	0x3d0703dd	0.03296267
52	0xbd9f8b8b	-0.077902876
53	0xbd1fbd11	-0.038998667
54	0xbb5d1bb3	-0.0033738434
55	0xbc4d706c	-0.0125390105
56	0x3c8106e0	0.015750349
57	0xbd3b5856	-0.04573854
58	0x3dac4cf3	0.084131144
59	0xbc0b1e35	-0.008491089
60	0xbc9696a5	-0.01838238
61	0x3c07c88e	0.008287562
62	0xbd57e0fc	-0.052704796
63	0x3ce7c2e8	0.02829118
64	0xbd2b0f97	-0.041762915
65	0xbd2fbda9	-0.042905483
66	0xbcc4cec3	-0.024024373
67	0xbc160954	-0.009157497
68	0xbd941085	-0.07229713
69	0xbd837b9c	-0.06420061
70	0xbceab11b	-0.028648904
71	0xbd8e0734	-0.06934968
72	0xbc8dcb45	-0.01730884
73	0xbcc1894a	-0.023625035
74	0xbc6cfb98	-0.0144642815
75	0xbd57b46d	-0.0526623
76	0xbbb7eff9	-0.0056133238
77	0xbcb7639a	-0.02238636
78	0xbd10fb6f	-0.035396036
79	0xbc78f3f0	-0.015194878
80	0xbc9418f7	-0.01807831
81	0xbc0837fb	-0.008314128
82	0xbd376aab	-0.04477946
83	0x3d10c818	0.035347074

weight f4 [2, 84]
0	0xbd0f7cab	-0.035031002
1	0xbcae2728	-0.021258906
2	0xbd88fe10	-0.066890836
3	0x3c8490ac	0.016182266
4	0x3b70a08f	0.0036716794
5	0x3c893138	0.016747102
6	0xbc0733c3	-0.008252087
7	0x3d2c8051	0.04211456
8	0x3d4034b1	0.04692525
9	0xbd50fd30	-0.05102271
10	0xbcb1f6ea	-0.021724183
11	0x3c2f4d57	0.010699592
12	0xbd33b2f0	-0.04387182
13	0xbd819542	-0.06327297
14	0xbcc7fc78	-0.024412379
15	0xbcb4c3c4	-0.022066005
16	0xbd25511a	-0.040360548
17	0x3d094e7b	0.03352211
18	0xbd63f0b6	-0.05564948
19	0x3c04a8c2	0.008096876
20	0xbbd13b3f	-0.0063852365
21	0x3d001193	0.03126676
22	0x3cbed4f0	0.023294896
23	0xbd8423d4	-0.06452146
24	0xbc4d0f35	-0.012515833
25	0xbcf96ffd	-0.030448908
26	0x3d2aa9e2	0.04166592
27	0xbcf940d3	-0.030426418
28	0x3c1c62b5	0.009545018
29	0xbb9c72e2	-0.0047744373
30	0xbb9f6bc7	-0.004865143
31	0xbd39b830	-0.04534167
32	0xbd66e2b3	-0.05636854
33	0x3c9adf4b	0.018905303
34	0x3d0ea0e5	0.03482141
35	0xbc2e9fed	-0.010658246
36	0xbce842d0	-0.028352171
37	0x3c424d54	0.011859257
38	0xbd04861d	-0.032354463
39	0x3d005d97	0.031339254
40	0xbb01248c	-0.0019705622
41	0x3d3ec162	0.046571143
42	0x3c1eda20	0.00969556
43	0xbc43568d	-0.011922491
44	0xbda060a6	-0.07830934
45	0xbd840480	-0.06446171
46	0xbd43c748	-0.04779747
47	0x3c8b800d	0.017028833
48	0x3d0a38ed	0.033745695
49	0xbbcfcebf	-0.0063417847
50	0xbd7ef2b4	-0.06224318
51	0xbd1201a3	-0.035646092
52	0xbbf9d78d	-0.0076245726
53	0xbc84adb6	-0.016196113
54	0xbd28ed70	-0.041242063
55	0xbb73feb3	-0.003723067
56	0xbcede44d	-0.029039526
57	0xbc46e5a2	-0.01213971
58	0xbd94139a	-0.07230301
59	0xbd36de92	-0.044645853
60	0x3cb1d2b6	0.02170692
61	0xbce23c9c	-0.027616791
62	0xbcb966c1	-0.022632005
63	0x3d8506bb	0.06495424
64	0xbd00a4a5	-0.031407017
65	0x3c66460d	0.014054787
66	0xbce7df59	-0.028304743
67	0x3b58e60b	0.00330961
68	0xbc586faa	-0.013210217
69	0xbca8fd67	-0.020628644
70	0xbb8983f7	-0.0041966396
71	0xbb3ea6aa	-0.0029091039
72	0x3cbd61d7	0.023117943
73	0xbbf466e8	-0.0074585564
74	0xbcbe6d31	-0.023245426
75	0x3c92ac28	0.017904356
76	0xbd9809fc	-0.07423779
77	0xbd9227be	-0.071364865
78	0xbd0010f4	-0.031266168
79	0xbd6e23b7	-0.05813953
80	0xbd536fe3	-0.051620375
81	0x3cd62e1c	0.026145034
82	0xbd249272	-0.040178724
83	0xbd53f09f	-0.051743146
84	0x3d534c71	0.051586572
85	0xbd2acfe6	-0.041702174
86	0x3bd168c4	0.006390663
87	0xbc4b89a8	-0.0124229565
88	0x3c7b4a60	0.015337557
89	0xbcc2f7b4	-0.023799755
90	0x3ca3acab	0.019979795
91	0xbc86ee43	-0.016471034
92	0x3ca22009	0.019790666
93	0x3d27814d	0.040894795
94	0xbc804819	-0.015659379
95	0x3d3e16f7	0.04640862
96	0x3cb35dd3	0.021895325
97	0xbbded264	-0.006799983
98	0x3d6be80b	0.05759434
99	0x3d6ea658	0.058264107
100	0x3d88f095	0.066865124
101	0xbc7a35ec	-0.015271645
102	0xbc92811c	-0.01788383
103	0x3cab9f4c	0.020949982
104	0xbc550c98	-0.013003491
105	0x3cfe0175	0.031006554
106	0x3c1587fd	0.00912666
107	0x3d4693a4	0.048480645
108	0x3c448868	0.011995412
109	0x3d8397eb	0.064254604
110	0x3d26afff	0.040695187
111	0xbca5997d	-0.02021479
112	0x3c8e0998	0.017338559
113	0x3c9a8243	0.018860942
114	0xbbc3f87f	-0.005980551
115	0x3c7d9296	0.015476843
116	0xbc2e8d37	-0.010653785
117	0x3d65a903	0.056069385
118	0x3cb9f109	0.022697942
119	0x3ae6f930	0.0017621871
120	0x3c4fa3e0	0.012673348
121	0x3d061ef3	0.03274436
122	0x3b6f331c	0.003649897
123	0x3cb772b0	0.022393554
124	0x3d06a1a9	0.032869015
125	0x3d1b32cf	0.03789025
126	0x3acc17ae	0.0015571022
127	0x3da4f5cb	0.08054694
128	0xbc98c4bd	-0.0186485
129	0xba9a5000	-0.001177311
130	0x3c52e187	0.012871153
131	0x3d7e7fc3	0.06213356
132	0xbb98bb57	-0.0046610045
133	0x3bb15657	0.005411904
134	0x3cd20646	0.025637757
135	0x3ce77cc6	0.028257739
136	0xbb62a25f	-0.0034581644
137	0x3c90ad2a	0.017660696
138	0xbca62d27	-0.020285202
139	0xbbbac773	-0.0057000457
140	0x3ce78185	0.028260002
141	0x3c4502b0	0.0120245665
142	0x3d2bcfcf	0.04194623
143	0x3d52ccce	0.05146485
144	0x3d6b2817	0.05741128
145	0xbc155432	-0.009114312
146	0x3bd33a57	0.0064461636
147	0xbd8a44d9	-0.06751413
148	0xbd67e72b	-0.056616943
149	0xb9d9f938	-0.00041575148
150	0x3d5be79c	0.053687677
151	0x3d755ada	0.059901096
152	0xba867382	-0.0010257813
153	0x3b407f98	0.0029372927
154	0xbc4787bc	-0.012178358
155	0x3ceaba49	0.02865328
156	0x3c2f2144	0.0106890835
157	0x3cec1618	0.028819129
158	0x3c7c15d2	0.015386062
159	0xbc8a1eee	-0.016860452
160	0xbc862226	-0.016373705
161	0xbcd247e1	-0.02566904
162	0xbd7f93fc	-0.06239699
163	0xbc4f8f03	-0.012668374
164	0xbc61df48	-0.013786145
165	0x3d9aa183	0.07550337
166	0x3d888333	0.06665649
167	0x3d7d103b	0.061783057

bias f4 [2]
0	0xbd530043	-0.05151392
1	0x3d94d951	0.07268012
