model.pth (torch, 250111 bytes, 10 tensors)

weight f4 [6, 3, 5, 5]
-0.02906966 0.039985117 -0.028622989 -0.09253806 -0.020572854 -0.06849469 0.0048106187 0.03450172
-0.019128878 0.06984947 -0.086480044 0.008282577 0.019027697 -0.10034089 -0.07504352 -0.010400343
-0.084991515 -0.0486943 -0.07184796 -0.03139872 -0.026411114 -0.03599093 0.006547429 0.0036398424
-0.017824376 -0.054653272 0.022743583 0.018642077 -0.020601766 -0.06314323 -0.076274216 0.02753321
-0.022848424 0.036869295 -0.0039924905 -0.11837221 0.011145094 0.04104955 -0.020211155 -0.04405422
-0.035247143 -0.09176784 -0.037124746 -0.044033494 0.04595701 -0.040034387 -0.059665587 -0.10064562
-0.02765884 0.016646286 -0.06593875 -0.027487233 0.0036084908 -0.048781935 0.006673786 -0.08495761
0.01472815 -0.012578103 -0.02079982 -0.043021332 -0.066169865 -0.030039258 0.013632343 -0.03086517
-0.043817032 -0.070963636 -0.040652413 -0.04800229 -0.04124285 0.014369598 -0.06645821 -0.07771918
0.025545157 -0.0018076615 -0.00852841 0.04641669 0.048993394 -0.06520448 -0.036874898 0.005752773
-0.04986421 -0.026433652 -0.071269386 -0.033487577 0.047267437 0.026148796 -0.06512556 -0.053923905
-0.06724163 0.018954568 0.085817404 0.070001885 -0.040617414 -0.12170924 0.0031842953 0.05556086
0.03283013 -0.009176237 -0.124375604 0.022712024 0.017402252 0.010325246 -0.05067512 -0.06667832
-0.027538348 -0.037194844 -0.026912522 -0.042384505 -0.024556361 0.027527621 -0.0016979421 -0.04146102
-0.002975796 -0.057119157 0.052085385 0.06573944 -0.0026775028 -0.04303098 -0.025853999 -0.0077169463
-0.083207846 -0.035055842 0.042915486 -0.059886437 -0.03277434 0.037250016 0.048758063 -0.016251132
-0.06263215 -0.01897092 0.03443078 0.060262844 -0.06893295 0.038686126 0.07262445 -0.07393859
-0.048500717 -0.081551336 -0.017114056 -0.004177658 0.0026848544 -0.039708223 -0.056618053 -0.032942485
0.07580837 -0.016297724 0.024842478 0.02622177 -0.0885527 0.005093856 0.05721446 -0.05704801
-0.02847176 -0.025008062 0.019387377 -0.046773385 -0.09312319 -0.013585546 0.0059689186 -0.005109292
-0.019450253 0.023111366 -0.0482026 0.01824766 -0.04621919 0.0074976063 0.019121327 0.0478971
-0.03558898 -0.021409057 -0.057863 -0.012092242 0.03970791 0.09411505 -0.042637367 -0.008606805
-0.0011806269 0.025414992 0.013078283 0.011447126 0.001058029 -0.010734083 0.0021733292 0.08080017
0.01478477 -0.0020255432 -0.058240388 -0.040207297 0.036895186 0.07030766 -0.030821804 0.051587697
0.06865446 0.070996165 0.060605377 -0.009460085 -0.056725975 0.01033807 -0.036036063 0.037378505
0.028927617 0.007453341 0.050198 0.02807587 0.06332954 -0.05151013 0.015093291 -0.016787827
-0.03643484 -0.05557105 -0.048770305 0.014651295 0.0196533 0.0118819 0.018364405 0.008726833
0.043559376 -0.0016997065 -0.024387982 -0.003959186 -0.0088891005 -0.11803218 0.04610576 0.109696046
0.014028361 0.03890738 -9.126496e-06 -0.038683947 -0.045671474 0.01400634 -0.10407129 -0.08477334
-0.004887963 -0.03840809 -0.03452404 0.0053547956 0.05821413 0.00095078733 0.0033677653 -0.018726867
-0.03147978 -0.030747984 -0.028668312 0.019599404 0.035291176 0.033996694 -0.07336199 -0.0547343
-0.014970003 -0.017469537 -0.099578895 -0.029450785 -0.08209337 -0.013674869 -0.08104251 -0.12176956
00000000: 7f23 eebc 6fc7 233d c27a eabc 9884 bdbd
00000010: 6788 a8bc f246 8cbd 65a2 9d3b ad51 0d3d
00000020: 2ab4 9cbc 3d0d 8f3d 731c b1bd a5b3 073c
00000030: f9df 9b3c 867f cdbd 6bb0 99bd 3366 2abc
00000040: 0810 aebd ad73 47bd 0625 93bd f29b 00bd
00000050: 1f5c d8bc 3a6b 13bd d18b d63b 6c8a 6e3b
00000060: 6d04 92bc 1cdc 5fbd c050 ba3c 45b7 983c
00000070: 09c5 a8bc 3d51 81bd a835 9cbd 548d e13c
00000080: 9e2c bbbc 4204 173d 70d3 82bb 216d f2bd
00000090: ea99 363c 9323 283d dd91 a5bc 3372 34bd
000000a0: 4f5f 10bd c7f0 bbbd 1e10 18bd 775c 34bd
000000b0: 6b3d 3c3d 19fb 23bd e763 74bd 4a1f cebd
000000c0: cb94 e2bc cb5d 883c e50a 87bd e82c e1bc
000000d0: 6e7c 6c3b 91cf 47bd c6af da3b 41fe adbd
000000e0: 574e 713c 6314 4ebc 6264 aabc 2337 30bd
000000f0: 1184 87bd e414 f6bc 315a 5f3c f4d8 fcbc
00000100: 7d79 33bd 6255 91bd 2583 26bd 0d9e 44bd
00000110: 43ee 28bd 766e 6b3c 3e1b 88bd 3c2b 9fbd
00000120: 1444 d13c 0eef ecba bfba 0bbc 6d1f 3e3d
00000130: 4cad 483d ed89 85bd 220a 17bd c281 bc3b
00000140: 6a3e 4cbd 638b d8bc aff5 91bd 452a 09bd
00000150: 809b 413d 0036 d63c 8d60 85bd 50df 5cbd
00000160: fbb5 89bd 9c46 9b3c 09c1 af3d 265d 8f3d
00000170: 725e 26bd b242 f9bd 9caf 503b c993 633d
00000180: e378 063d ed57 16bc a3b8 febd 910e ba3c
00000190: 2b8f 8e3c 382b 293c b790 4fbd a58e 88bd
000001a0: 1a98 e1bc 9f59 18bd a677 dcbc 609b 2dbd
000001b0: 6c2a c9bc 9b81 e13c 7c8d deba 08d3 29bd
000001c0: 9205 43bb c7f5 69bd 7c57 553d 66a2 863d
000001d0: 0b79 2fbb 4141 30bd c4cb d3bc 70de fcbb
000001e0: e068 aabd b796 0fbd 26c8 2f3d 7b4b 75bd
000001f0: 633e 06bd 7993 183d 89b6 473d 1821 85bc
00000200: 4945 80bd e768 9bbc 4a07 0d3d 2cd6 763d
00000210: b82c 8dbd 5875 1e3d 21bc 943d 1e6d 97bd
00000220: b0a8 46bd 6304 a7bd c732 8cbc bce4 88bb
00000230: 62f4 2f3b 17a5 22bd 55e8 67bd b3ee 06bd
00000240: 6b41 9b3d ce82 85bc 7482 cb3c 0acf d63c
00000250: 1e5b b5bd 5cea a63b b659 6a3d 2dab 69bd
00000260: 9c3d e9bc b5dd ccbc 47d2 9e3c 7395 3fbd
00000270: 5fb7 bebd e995 5ebc eb96 c33b d96b a7bb
00000280: 2356 9fbc 0c54 bd3c 1770 45bd 1e7c 953c
00000290: 5550 3dbd 7bae f53b 54a4 9c3c c02f 443d
000002a0: c0c5 11bd 0c62 afbc c101 6dbd 8a1e 46bc
000002b0: c3a4 223d 64bf c03d 85a4 2ebd 8e03 0dbc
000002c0: 44bf 9aba 1a33 d03c 4b46 563c ba8c 3b3c
000002d0: 90ad 8a3a 02de 2fbc 6a6e 0e3b 8f7a a53d
000002e0: d23b 723c fabe 04bb 798d 6ebd 68b0 24bd
000002f0: 681f 173d 76fd 8f3d 027e fcbc 9f4d 533d
00000300: b69a 8c3d 7066 913d 583d 783d 79fe 1abc
00000310: 7f59 68bd 0261 293c 8d9a 13bd 341a 193d
00000320: 9cf9 ec3c 283b f43b 6b9c 4d3d 5eff e53c
00000330: ebb2 813d 49fc 52bd da49 773c a086 89bc
00000340: b33c 15bd 789e 63bd 5fc3 47bd fc0b 703c
00000350: f5ff a03c 4dac 423c f370 963c fefa 0e3c
00000360: 516b 323d b0c8 deba 4ec9 c7bc 0fbc 81bb
00000370: 97a3 11bc dbba f1bd 65d9 3c3d 52a8 e03d
00000380: 36d7 653c 585d 1f3d 001e 19b7 0f73 1ebd
00000390: 0312 3bbd d97a 653c 5423 d5bd a59d adbd
000003a0: 352b a0bb cd51 1dbd 1469 0dbd 4877 af3b
000003b0: f171 6e3d 423e 793a bab5 5c3b 1669 99bc
000003c0: f1f0 00bd 32e3 fbbc cfd9 eabc ee8e a03c
000003d0: 7b8d 103d 1e40 0b3d d03e 96bd 1331 60bd
000003e0: be44 75bc 461c 8fbc 05f0 cbbd c642 f1bc
000003f0: 9220 a8bd 8f0c 60bc 9ef9 a5bd 5262 f9bd

bias f4 [6]
-0.04855559 0.025924549 -0.012590544 0.017148182 -0.05243968 0.08171307
00000000: 3ae2 46bd b85f d43c 9248 4ebc 587a 8c3c
00000010: fdca 56bd 2f59 a73d

weight f4 [16, 6, 5, 5]
0.038089223 0.060636595 0.06583327 -0.030582935 0.04597181 -0.0026430613 -0.03271112 -0.005402961
0.04572627 0.034014545 0.010018857 0.017257374 -0.018083392 -0.034273297 0.00022905588 -0.008784762
0.038667668 -0.030755453 -0.0061605796 0.00018591643 0.017961985 0.058007777 0.0059424397 0.04779984
0.006452398 -0.00803283 -0.020055803 0.08585126 -0.014864189 -0.016319867 0.023358319 -0.02635248
0.082666874 -0.011702513 -0.046077516 -0.01533128 0.029284267 -0.0014403769 -0.00272765 0.026590154
0.05027267 0.05210771 -0.025635878 0.03511946 0.012043079 0.009355283 0.006444805 0.011626772
-0.015860764 0.048966736 -0.0001205015 -0.0683513 -0.02695293 -0.04538874 -0.06441303 0.014702438
0.0020479064 0.05125456 -0.051333953 -0.079996556 0.043782674 -0.017164297 -0.07712905 -0.058946896
-0.022418588 0.044327974 0.03577925 -0.0025629508 -0.058610097 -0.00032445788 0.030334974 0.021101704
-0.04481723 0.006293807 -0.038810145 -0.051628273 -0.07732742 0.0003501852 -0.057778597 -0.06748477
-0.040875457 -0.06126573 -0.06366713 -0.019719226 -0.027644116 -0.055700414 -0.05184319 -0.046550147
-0.06668634 -0.07940705 -0.02884292 -0.029297097 -0.06009752 0.008069089 -0.054593094 0.019876879
-0.022565473 -0.047904342 -0.0149771115 -0.029624457 -0.02365735 0.010763149 -0.021030776 -0.046524454
-0.026551453 -0.02745012 -0.038266715 0.0008642069 -0.05876081 0.007452093 0.016420411 0.009287584
-0.01688302 -0.023827441 -0.019640215 -0.041557886 -0.021626202 -0.049984593 -0.026442222 0.0047685243
-0.05503154 0.020172514 -0.08167043 0.0029891373 -0.05260681 -0.0314262 -0.013185475 -0.004964154
-0.014756283 0.013783047 -0.026205067 0.00013887859 -0.05060362 -0.041896336 -0.038385008 -0.025385434
-0.0030974569 -0.032118987 -0.027799802 -0.040236905 0.010037879 -0.042572826 -0.02493492 0.02349887
-0.027423983 -0.017550126 -0.05950801 0.007421949 0.03416331 -0.013149077 0.02534206 0.0095824795
-0.017526703 -0.08432682 0.0099725425 -0.043696906 -0.028207174 -0.02541244 -0.04249789 -0.040723283
-0.0055590663 -0.079651125 -0.0257991 -0.044166166 -0.07022705 -0.033680644 -0.028802296 0.015988942
0.025461461 -0.011262281 -0.010489335 -0.002643049 -0.0044464385 0.0065097944 0.0011660078 -0.0033402578
-0.0464146 0.02046993 -0.026774228 0.00850296 -0.032170482 -0.018519213 -0.03157112 -0.04852415
0.009162037 0.03368628 -0.040589247 -0.031259492 -0.022805711 -0.023604997 -0.047366466 -0.013813715
-0.02545169 -0.060932484 -0.018416503 -0.025712434 -0.029477546 0.007606681 -0.047349956 -0.010854264
-0.011257568 0.050916184 -0.044137757 -0.01784541 -0.0017893263 0.030348029 -0.0074507296 0.022889003
0.0096109705 0.021049717 0.016861618 0.00011047721 0.019558191 -0.012714544 -0.04920994 0.0008642734
-0.035435095 0.0037357698 -0.031646766 -0.016896646 -0.055035703 -0.044258125 -0.0034418558 0.0205159
-0.009123111 -0.069173865 -0.033418085 -0.05009713 0.04205454 0.0037169624 -0.011118119 -0.017914653
0.020807305 0.016796026 0.031195557 0.0015489706 -0.098322 -0.044508975 -0.019902298 0.020687738
-0.00094874 -0.07309959 0.055213153 -0.053083416 -0.048114937 -0.057548042 -0.06562886 -0.01795997
-0.054156896 0.024060404 -0.011496325 0.015723193 -0.017776884 -0.0015704423 -0.027527839 0.0049320403
00000000: 7203 1c3d 145e 783d 98d3 863d 1089 fabc
00000010: f04c 3c3d 3637 2dbb 18fc 05bd 520b b1bb
00000020: 784b 3b3d d652 0b3d 2226 243c 565f 8d3c
00000030: 9f23 94bc 2862 0cbd b82e 7039 f6ed 0fbc
00000040: fd61 1e3d dcf2 fbbc b0de c9bb 90f2 4239
00000050: 0325 933c 9099 6d3d ccb8 c23b c4c9 433d
00000060: a36e d33b 229c 03bc 114c a4bc c9d2 af3d
00000070: ed88 73bc 3eb1 85bc f259 bf3c 28e1 d7bc
00000080: 404d a93d e6bb 3fbc c7bb 3cbd 0d30 7bbc
00000090: 8fe5 ef3c 07cb bcba 60c2 32bb 98d3 d93c
000000a0: b7ea 4d3d e56e 553d 5502 d2bc 6cd9 0f3d
000000b0: 5650 453c e746 193c f12e d33b 377e 3e3c
000000c0: 6fee 81bc 5891 483d c0b5 fcb8 c4fb 8bbd
000000d0: 64cc dcbc 8be9 39bd fbea 83bd 7fe2 703c
000000e0: 2b36 063b 4df0 513d 8d43 52bd 3cd5 a3bd
000000f0: 7655 333d 249c 8cbc d6f5 9dbd 4d72 71bd
00000100: 30a7 b7bc 4091 353d 438d 123d 2ef7 27bb
00000110: 2411 70bd 001c aab9 0d81 f83c 7bdd ac3c
00000120: 4692 37bd 483c ce3b 63f7 1ebd 2b78 53bd
00000130: d75d 9ebd 1099 b739 40a9 6cbd 7535 8abd
00000140: 066d 27bd c6f1 7abd ea63 82bd 378a a1bc
00000150: ea75 e2bc 1e26 64bd 8659 54bd 5eab 3ebd
00000160: d992 88bd 2aa0 a2bd fd47 ecbc 7700 f0bc
00000170: d128 76bd 3634 043c 029d 5fbd d6d4 a23c
00000180: 3adb b8bc 5837 44bd 8f62 75bc fdae f2bc
00000190: 0fcd c1bc eb57 303c bc48 acbc 6d90 3ebd
000001a0: 6f82 d9bc 13df e0bc 8fbd 1cbd f18b 623a
000001b0: 2daf 70bd b030 f43b 1984 863c f32a 183c
000001c0: 424e 8abc c431 c3bc 84e4 a0bc 9a38 2abd
000001d0: 6f29 b1bc a5bc 4cbd 5c9d d8bc 4841 9c3b
000001e0: c168 61bd d440 a53c d442 a7bd 67e5 433b
000001f0: 3d7a 57bd c2b8 00bd e407 58bc 58aa a2bb
00000200: 56c4 71bc 4ad2 613c 02ac d6bc f09f 1139
00000210: be45 4fbd 7e9b 2bbd 9939 1dbd 1df5 cfbc
00000220: b4fe 4abb 338f 03bd 69bc e3bc 74cf 24bd
00000230: eb75 243c d860 2ebd 5144 ccbc b480 c03c
00000240: 43a8 e0bc 48c5 8fbc acbe 73bd d233 f33b
00000250: d4ee 0b3d 3a6f 57bc 279a cf3c d5ff 1c3c
00000260: 2994 8fbc 8ab3 acbd e063 233c 87fb 32bd
00000270: bb12 e7bc c02d d0bc 4412 2ebd 75cd 26bd
00000280: d428 b6bb 2120 a3bd a258 d3bc 95e7 34bd
00000290: 33d3 8fbd b7f4 09bd cbf2 ebbc 3efb 823c
000002a0: 8e94 d03c 6e85 38bc 76db 2bbc 0137 2dbb
000002b0: 6eb3 91bb 1d50 d53b bbd4 983a 3ae8 5abb
000002c0: 3c1d 3ebd 8eb0 a73c a055 dbbc 0050 0b3c
000002d0: 32c5 03bd 9bb5 97bc b850 01bd 42c1 46bd
000002e0: 5e1c 163c a0fa 093d e940 26bd f409 00bd
000002f0: 0bd3 babc 445f c1bc 5703 42bd ec52 62bc
00000300: 1080 d0bc 5794 79bd 35de 96bc e2a2 d2bc
00000310: e57a f1bc 7741 f93b 07f2 41bd 15d6 31bc
00000320: aa71 38bc 7d8d 503d cbc9 34bd 8a30 92bc
00000330: d487 eaba 6e9c f83c 4025 f4bb b881 bb3c
00000340: 5577 1d3c 7570 ac3c 6021 8a3c 00b0 e738
00000350: 8038 a03c aa50 50bc 5d90 49bd 6890 623a
00000360: 6424 11bd d1d3 743b 0aa0 01bd d66a 8abc
00000370: 1e6d 61bd 0248 35bd c290 61bb f610 a83c
00000380: 1a79 15bc 07ab 8dbd 67e1 08bd a632 4dbd
00000390: 6241 2c3d 4898 733b c528 36bc c0c1 92bc
000003a0: 1574 aa3c d297 893c d38d ff3c d406 cb3a
000003b0: 0b5d c9bd 0b4f 36bd 250a a3bc 5579 a93c
000003c0: ddb4 78ba 3db5 95bd 3027 623d ff6d 59bd
000003d0: 2b14 45bd 7fb7 6bbd 6c68 86bd c920 93bc
000003e0: 9fd3 5dbd 531a c53c 155b 3cbc edcd 803c
000003f0: d4a0 91bc 4dd7 cdba 1082 e1bc f49c a13b

bias f4 [16]
-0.03314338 0.013356256 -0.034177087 0.0076871663 -0.04308474 0.01734631 -0.047414433 0.024816439
-0.0063137216 -0.026593033 -0.059642192 -0.061355133 -0.0026456632 -0.021344453 0.024808137 -0.05223627
00000000: 5ac1 07bd 33d4 5a3c 46fd 0bbd a0e4 fb3b
00000010: a079 30bd d919 8e3c a335 42bd d84b cb3c
00000020: 56e3 cebb a2d9 d9bc 5f4b 74bd 854f 7bbd
00000030: dd62 2dbb 90da aebc 6f3a cb3c b3f5 55bd

weight f4 [120, 400]
0.018073708 0.03629218 0.012358074 0.02149578 -0.010387404 0.030957527 0.0041989493 0.016346931
0.02076179 -0.0014418669 -0.059053037 -0.012959113 -0.014295415 -0.0125439055 -0.026266022 -0.018051662
-0.019309457 -0.025689842 -0.00614475 0.010711902 -0.0008906652 0.001615711 -0.04143175 0.013625371
0.026692037 0.021651994 -0.009460527 0.029458944 0.027721414 -0.018076073 0.05412104 0.050285663
0.044913772 0.028816316 0.005058168 0.00714145 0.043698926 0.022841379 0.020443102 0.04845576
0.013676787 0.025417985 0.021924753 0.04997924 0.029560927 0.03280548 -0.022534832 0.014067354
0.02577527 0.041456897 -0.036383197 -0.070919886 -0.023049593 -0.044433895 -0.03738109 -0.015062452
-0.014446102 -0.01611227 -0.006565828 -0.0075107166 -0.014306345 -0.0363069 -0.0038507995 0.0043776063
-0.027955892 0.011264525 0.005148136 -0.016743263 -0.008656491 -0.019661784 -0.010348699 0.02635788
0.008519889 -0.015688911 0.007274969 -0.02405059 -0.04310464 0.0041591893 -0.004281304 -0.027725305
0.024713807 0.009836961 -0.0066871857 0.022569051 0.00079301535 -0.03415304 -0.024140691 -0.009187173
0.009663137 0.019522756 -0.005230644 -0.03271892 0.020354968 0.027727924 -0.012360455 -0.013722817
0.012442551 -0.03118537 -0.013816592 0.000967321 0.023841213 0.03788802 0.0052955756 0.0028838478
0.023766132 0.022267517 0.003818192 0.020096619 -0.025093338 0.03787069 -0.021212801 0.025555005
-0.043123286 -0.010563885 0.050210215 0.02996895 -0.00014152483 -0.01743729 0.017099602 -0.012525192
-0.004349418 -0.014760595 -0.026118267 -0.034305435 -0.00037658017 0.025647199 0.011600575 -0.009290036
0.017379293 -0.022404876 0.0004035486 0.04823585 0.055727128 0.02821763 0.017806692 0.05685363
0.03928759 0.03494637 0.042739876 0.0627376 0.024155982 0.023072073 0.066067874 0.028125906
0.031335235 -0.01593024 -0.022882536 0.012455044 0.010915282 0.04077764 -0.009871256 -0.034009386
-0.021922102 -0.020818673 -0.043469265 -0.04793986 -0.05647374 -0.041870262 0.0026201163 0.014449858
0.011456272 -0.050847776 0.009393178 -0.0028606206 -0.043925334 -0.028223906 -0.009211861 0.0074627106
-0.022546079 -0.05298198 -0.018758487 -0.024804953 -0.027644344 -0.0037693218 -0.0104323 0.013337703
0.022033293 0.010617264 0.018336859 -0.016380953 0.02321938 0.027136955 0.05646476 0.03870166
-0.009184342 -0.019846758 0.007156796 0.016339313 -0.011636092 0.0017934628 -0.016216232 0.0052542062
-0.0012194328 0.016524829 0.00773694 0.01895736 0.030637234 0.0023368713 0.0025672703 0.0091819335
-0.011687474 -0.014061401 0.02059346 0.012513582 0.004114035 0.021406092 -0.0017762809 0.010396982
0.046952814 -0.033641152 -0.00037575339 0.0624467 0.018606475 0.01645808 0.013931605 0.018201383
-0.00472315 0.036056876 0.016597448 0.028333811 0.059491828 0.0048549785 -0.013312604 0.018636422
-0.0053786403 -0.00041593658 0.009686973 -0.021676721 0.0045558033 -0.037642606 -0.015609112 0.036077593
0.0037396476 0.03491852 -0.0065541174 -0.01885897 -0.009552349 0.008651809 0.027966678 -0.00064895867
0.016270988 0.017847737 0.0021274805 0.0047915503 0.007607795 -0.035980213 -0.022646584 0.0021242376
0.017105952 -0.016469149 0.028314523 0.018721707 0.040977288 0.012055451 0.030332305 0.009389758
00000000: 500f 943c 1ca7 143d 8579 4a3c eb17 b03c
00000010: ee2f 2abc a49a fd3c 5797 893b 00ea 853c
00000020: a114 aa3c 06fd bcba 99e1 71bd 7652 54bc
00000030: 5137 6abc f484 4dbc d72b d7bc 14e1 93bc
00000040: de2e 9ebc 8173 d2bc e659 c9bb f980 2f3c
00000050: 887b 69ba 44c6 d33a 57b4 29bd f33c 5f3c
00000060: 42a9 da3c 865f b13c 5400 1bbc e253 f13c
00000070: 0518 e33c 4614 94bc 06ae 5d3d 57f8 4d3d
00000080: 81f7 373d 3210 ec3c fdbe a53b d302 ea3b
00000090: a5fd 323d d81d bb3c 4b78 a73c 8c79 463d
000000a0: 9a14 603c 6139 d03c 8a9b b33c 08b7 4c3d
000000b0: c229 f23c 0a5f 063d f89a b8bc c27a 663c
000000c0: a926 d33c b5ce 293d 8c06 15bd 723e 91bd
000000d0: 80d2 bcbc 5100 36bd ea1c 19bd 81c8 76bc
000000e0: 58af 6cbc e1fd 83bc 2826 d7bb 751c f6bb
000000f0: 2965 6abc 8bb6 14bd b25d 7cbb 0672 8f3b
00000100: c103 e5bc d88e 383c b2b1 a83b 2b29 89bc
00000110: f4d3 0dbc c011 a1bc 978d 29bc 7bec d73c
00000120: 0197 0b3c 0886 80bc dd62 ee3b be05 c5bc
00000130: 7e8e 30bd cf49 883b 2e4a 8cbb 2e20 e3bc
00000140: 9c74 ca3c 342b 213c 2e20 dbbb bbe2 b83c
00000150: 5ce2 4f3a 0fe4 0bbd b3c2 c5bc cc85 16bc
00000160: 2252 1e3c 30ee 9f3c d265 abbb 4604 06bd
00000170: 76bf a63c ac25 e33c 8183 4abc abd5 60bc
00000180: d7db 4b3c 7678 ffbc fd5e 62bc d093 7d3a
00000190: a64e c33c 7830 1b3d 8286 ad3b f0fe 3c3b
000001a0: 31b1 c23c 5e6a b63c a23a 7a3b aaa1 a43c
000001b0: 8b90 cdbc 4c1e 1b3d 78c6 adbc bb58 d13c
000001c0: 0ba2 30bd 2514 2dbc 3aa9 4d3d 7281 f53c
000001d0: 4866 14b9 a6d8 8ebc 7714 8c3c 7736 4dbc
000001e0: 9085 8ebb 6cd6 71bc faf5 d5bc db83 0cbd
000001f0: bc6f c5b9 131a d23c 5710 3e3c 3c35 18bc
00000200: 055f 8e3c 6e8a b7bc 6093 d339 f492 453d
00000210: 2142 643d a928 e73c 57df 913c 5adf 683d
00000220: 06ec 203d ed23 0f3d 0210 2f3d 927c 803d
00000230: c4e2 c53c a501 bd3c 984e 873d 4d68 e63c
00000240: 6059 003d 2280 82bc 2874 bbbc 3e10 4c3c
00000250: 03d6 323c 7406 273d 0cbb 21bc 6d4d 0bbd
00000260: fb95 b3bc ec8b aabc d40c 32bd 965c 44bd
00000270: 0251 67bd 2780 2bbd 42b6 2b3b 19bf 6c3c
00000280: 16b3 3b3c c245 50bd d8e5 193c 4079 3bbb
00000290: 0deb 33bd d235 e7bc 58ed 16bc c189 f43b
000002a0: 8eb2 b8bc a203 59bd 66ab 99bc c233 cbbc
000002b0: 6476 e2bc ba06 77bb 3dec 2abc 6286 5a3c
000002c0: 2a7f b43c 08f4 2d3c 2e37 963c 5931 86bc
000002d0: 9236 be3c 524e de3c 9847 673d a285 1e3d
000002e0: ec79 16bc ab95 a2bc 8e83 ea3b 06da 853c
000002f0: 4fa5 3ebc a012 eb3a e7d7 84bc 7a2b ac3b
00000300: 60d5 9fba 145f 873c 2886 fd3b 774c 9b3c
00000310: f0fa fa3c 3226 193b a63f 283b d26f 163c
00000320: d27c 3fbc ca61 66bc 9eb3 a83c c405 4d3c
00000330: 07cf 863b d45b af3c 19d2 e8ba 1a58 2a3c
00000340: 9851 403d 4ecb 09bd c400 c5b9 1cc8 7f3d
00000350: 9b6c 983c 18d3 863c 6341 643c 111b 953c
00000360: a7c4 9abb 60b0 133d 5ff7 873c 4f1c e83c
00000370: b4ad 733d 8316 9f3b 1c1d 5abc 69ab 983c
00000380: 4e3f b0bb 1012 dab9 1cb6 1e3c 6193 b1bc
00000390: d948 953b 222f 1abd 5cbd 7fbc 19c6 133d
000003a0: e014 753b b906 0f3d ecc3 d6bb 207e 9abc
000003b0: 7581 1cbc 51c0 0d3c 601a e53c e11e 2aba
000003c0: bc4a 853c 6b35 923c 336d 0b3b 7002 9d3b
000003d0: cf4a f93b fd5f 13bd 5485 b9bc cb36 0b3b
000003e0: c821 8c3c 4fea 86bc dcf3 e73c 445e 993c
000003f0: cdd7 273d 3a84 453c 747b f83c 80d7 193c

bias f4 [120]
0.015336644 -0.010017508 0.015365901 0.0016911691 0.051554628 -0.028994389 0.001154192 0.03527985
0.027939454 0.0390177 -0.014482812 0.021096237 0.025772413 -0.009724714 0.009610872 -0.02210845
-0.025305912 -0.051368576 0.008014338 -0.0008016168 -0.026984166 -0.034960337 -0.034886394 -0.04636301
-0.050751563 -0.012059712 0.020847782 -0.033125613 -0.003985361 -0.013684814 -0.029504238 -0.030107206
0.025501303 -0.03771787 0.017157517 -0.020070817 -0.011131758 -0.029835213 -0.025259906 -0.009304277
-0.014222394 -0.03782249 0.028975742 -0.02483138 -0.008410416 0.013280179 -0.0014600614 0.045601003
-0.04947806 -0.0037354673 -0.021337489 0.04626514 0.018140603 0.011110318 -0.049093448 -0.004081222
0.020050447 0.015873386 -0.035420407 -0.0066524036 -0.010724377 -0.0023928308 0.0002762787 -0.023199467
-0.0069844318 -0.03368929 -0.005308714 0.009211941 -0.022723846 -0.015184839 -0.017749311 -0.036683723
-0.01765867 -0.01570724 -0.042931207 0.020818911 -0.020701032 -0.039090175 -0.04511351 -0.03544454
-0.023457771 -0.07040731 0.018920958 -0.015754698 0.016238412 -0.031004095 -0.040214892 -0.0045104614
-0.004426218 -0.0076493328 -0.03716403 -0.028655784 -0.025248524 0.011789346 0.014327637 -0.021831224
0.023102606 -0.009220753 -0.008282389 0.021564566 0.011944968 -0.0025385164 -0.0014014145 0.013243653
0.040211283 -0.01406982 -0.02975349 -0.01079081 -0.042223334 0.032244053 -0.044428956 -0.01774807
-0.00035246578 -0.004397121 0.001029049 0.04660627 -0.019912785 -0.028625391 -0.06164554 -0.0020181974
00000000: 8c46 7b3c 7920 24bc 43c1 7b3c 38aa dd3a
00000010: f22a 533d a485 edbc 4248 973a 9b81 103d
00000020: 48e1 e43c 06d1 1f3d 5149 6dbc 04d2 ac3c
00000030: ab20 d33c 6854 1fbc eb76 1d3c c81c b5bc
00000040: 584e cfbc db67 52bd 924e 033c 9823 52ba
00000050: e60d ddbc 9232 0fbd 09e5 0ebd 24e7 3dbd
00000060: dfe0 4fbd 1996 45bc f8c8 aa3c b9ae 07bd
00000070: a297 82bb 4536 60bc dfb2 f1bc 63a3 f6bc
00000080: 1ce8 d03c 0e7e 1abd ec8d 8c3c 8e6b a4bc
00000090: fa61 36bc fa68 f4bc dded cebc f770 18bc
000000a0: 0b05 69bc c1eb 1abd 895e ed3c 2e6b cbbc
000000b0: d7cb 09bc 1c95 593c 885f bfba 1ec8 3a3d
000000c0: 82a9 4abd bece 74bb f5cb aebc 8480 3d3d
000000d0: 9a9b 943c 0d08 363c 3616 49bd c6bb 85bb
000000e0: d640 a43c e708 823c fd14 11bd 68fc d9bb
000000f0: 4cb5 2fbc 0ad1 1cbb 80d9 9039 cf0c bebc
00000100: a9dd e4bb c8fd 09bd b9f4 adbb aeed 163c
00000110: 5c27 babc d5c9 78bc 0167 91bc ac41 16bd
00000120: eaa8 90bc 78ac 80bc a2d8 2fbd 6c8c aa3c
00000130: 3695 a9bc 051d 20bd f2c8 38bd 4b2e 11bd
00000140: 832a c0bc b531 90bd 2000 9b3c ff0f 81bc
00000150: 6b06 853c 4dfc fdbc 5fb8 24bd 7ecc 93bb
00000160: cf09 91bb 41a7 fabb 4f39 18bd 89bf eabc
00000170: fed5 cebc 1a28 413c 77be 6a3c 65d7 b2bc
00000180: ad41 bd3c a412 17bc dbb2 07bc 2ca8 b03c
00000190: d4b4 433c 3d5d 26bb abaf b7ba e8fb 583c
000001a0: 96b4 243d 1a85 66bc 97bd f3bc f0cb 30bc
000001b0: 60f2 2cbd 5712 043d 23fb 35bd 6764 91bc
000001c0: 28cb b8b9 b915 90bb 28e1 863a 37e6 3e3d
000001d0: 2320 a3bc cc7f eabc 0980 7cbd bc43 04bb

weight f4 [84, 120]
0.028040225 0.012964599 -0.025025502 -0.004802864 -0.044820126 -0.009805276 -0.013785485 -0.014455118
-0.008169453 0.014930178 -0.012152108 -0.0049641887 -0.014105682 -0.026644513 -0.015201154 -0.017823746
-0.048325818 -0.03993127 -0.032956187 -0.024644746 -0.024000956 0.0027171224 -0.019091515 0.0008489252
-0.019779652 -0.016554091 -0.016292017 0.0022405374 0.028004935 -0.0010575453 0.016645694 0.00747991
0.02535859 -0.010607932 0.051600266 -0.051433276 -0.011363109 0.027066784 -0.014837732 0.06032745
-0.04478927 0.0027432777 0.0057441867 0.013273007 -0.048511818 -0.025117828 -0.0006427492 0.016250595
-0.033299282 0.019648997 0.025988936 -0.051595524 -0.0459428 -0.036163162 0.0037482101 -0.016215436
0.0032326237 2.2066135e-06 -0.0062164296 0.0062821284 -0.043515284 0.0326212 0.029760102 -0.044496667
-0.049158048 -0.02702674 -0.0023432497 0.02940238 0.052381545 0.0040998757 0.025285155 0.017726747
0.027661001 0.0007329904 -0.0021645296 -0.004340073 -0.04987499 0.017698117 -0.042861376 0.03491063
0.010500565 -0.03350799 -0.035749424 0.013277832 -0.05264919 -0.0032950751 -0.0053771655 0.0005196046
-0.019030591 0.009515096 0.029842727 -0.03808159 0.014063624 -0.0026231343 0.06793067 0.018398518
-0.038882915 0.011405531 -0.030097857 0.035799485 0.028859235 -0.004911711 0.017625779 -0.00084004813
0.05129231 0.012767245 -0.044216666 -0.018971616 0.00969983 0.012738963 0.04167083 0.049646366
0.008749277 0.027310675 -0.017807223 -0.029704949 -0.015809331 0.06421425 -0.0164652 0.0028310716
-0.019340664 0.0053102677 0.021393174 -0.002205927 0.033626918 -0.02204077 -0.07520208 -0.01201714
-0.021241177 0.026106922 -0.016528027 -0.06201593 -0.025343362 0.020086516 -0.040290117 0.028666966
-0.06195768 0.019580703 -0.016878594 0.030596029 0.029113356 0.032615997 -0.0011624766 -0.002019111
-0.034372006 -0.038201813 0.03196808 -0.002042468 -0.0161106 0.028124485 -0.025238002 -0.0013378344
-0.044213608 0.006750314 -0.09035319 -0.02108144 -0.023432188 -0.009492115 0.03069075 -0.027768206
0.010030172 -0.005465991 -0.049972173 -0.06470904 0.025340246 -0.019006576 0.018059535 0.040990613
-0.037037916 -0.08732989 0.03174932 0.01702061 0.020298313 -0.00019752258 0.08123919 0.03599751
0.001439075 0.05272427 -0.037538473 -0.044130366 -0.016099941 -0.039537366 -0.017869199 0.006170703
-0.0192483 0.00900066 0.016100653 -0.005884092 0.059069157 -0.006658815 0.038802084 -0.005793443
0.043276135 -0.047519587 -0.017644905 0.012726112 -0.031451277 -0.0050348695 -0.032758094 -0.04978043
0.02122416 0.011355866 -0.013354096 -0.0032290851 -0.03157299 -0.055770352 0.029403457 -0.018971443
0.01588861 0.016752709 -0.016964972 -0.036239274 -0.008781757 -0.028747862 0.023348186 0.050302215
0.01054888 -0.0034622897 0.033622894 -0.0029561552 -0.0057561547 -0.0054198876 0.022603886 -0.07313001
-0.06744368 -0.028214853 -0.03148805 -0.04093963 0.013992992 0.032672815 -0.025530051 0.018699253
0.008861619 -0.031929027 -0.018595818 0.0004517939 0.0047291983 0.0086701205 -0.0035529672 -0.005833916
0.047576334 0.03723693 -0.039071396 0.016096925 -0.05251911 0.00093594845 -0.016876929 -0.022774285
0.001969213 -0.039550114 -0.026137205 -0.02385321 0.033016004 -0.022669153 -0.0018701564 0.04514863
00000000: 9db4 e53c 7869 543c 4802 cdbc 5861 9dbb
00000010: 4f95 37bd 4fa6 20bc 84dc 61bc 29d5 6cbc
00000020: 2bd9 05bc b59d 743c a319 47bc a2aa a2bb
00000030: 851b 67bc 9845 dabc 430e 79bc 1b03 92bc
00000040: 4bf1 45bd f98e 23bd 11fd 06bd c7e3 c9bc
00000050: a79d c4bc c011 323b cf65 9cbc 688a 5e3a
00000060: f008 a2bc 729c 87bc d676 85bc fbd5 123b
00000070: 9b6a e53c 559d 8aba 8d5c 883c 081a f53b
00000080: d1bc cf3c e4cc 2dbc cd5a 533d b3ab 52bd
00000090: 552c 3abc 29bb dd3c f519 73bc eb19 773d
000000a0: f474 37bd 90c8 333b bb39 bc3b 0777 593c
000000b0: 54b4 46bd e7c3 cdbc 2b7e 28ba f81f 853c
000000c0: d464 08bd eff6 a03c c0e6 d43c d455 53bd
000000d0: 842e 3cbd d31f 14bd 88a4 753b 3cd6 84bc
000000e0: 6dda 533b 5515 1436 31b3 cbbb 50da cd3b
000000f0: 153d 32bd cf9d 053d 75cb f33c 2342 36bd
00000100: f359 49bd 2f67 ddbc 3591 19bb 43dd f03c
00000110: 088e 563d 4058 863b d022 cf3c af37 913c
00000120: 5399 e23c 2726 403a c8da 0dbb 2c37 8ebb
00000130: b849 4cbd a4fb 903c 698f 2fbd 73fe 0e3d
00000140: 900a 2c3c ad3f 09bd fd6d 12bd 448b 593c
00000150: ada6 57bd 30f2 57bb ef32 b0bb 1336 083a
00000160: 0be6 9bbc 35e5 1b3c bc78 f43c 71fb 1bbd
00000170: 1d6b 663c e4e8 2bbb 3c1f 8b3d 7db8 963c
00000180: b143 1fbd 44de 3a3c c88f f6bc 7ba2 123d
00000190: 346a ec3c 6bf2 a0bb f063 903c ad36 5cba
000001a0: e317 523d b52d 513c 891c 35bd 5d6a 9bbc
000001b0: 09ec 1e3c 15b7 503c 08af 2a3d fd59 4b3d
000001c0: 2159 0f3c a3ba df3c 74e0 91bc cb57 f3bc
000001d0: 9282 81bc c382 833d 07e2 86bc 8089 393b
000001e0: 5070 9ebc c101 ae3b bd40 af3c 5091 10bb
000001f0: 61bc 093d d88e b4bc 8c03 9abd 8ae3 44bc
00000200: fa01 aebc 2fde d53c c965 87bc 6a04 7ebd
00000210: e29c cfbc 7a8c a43c 4007 25bd fcd6 ea3c
00000220: 56c7 7dbd b667 a03c fa44 8abc 86a4 fa3c
00000230: 227f ee3c 5a98 053d 3e5e 98ba 1053 04bb
00000240: a9c9 0cbd 8179 1cbd f6f0 023d edda 05bb
00000250: 61fa 83bc 5265 e63c edbf cebc 465a afba
00000260: 5419 35bd bd31 dd3b 180b b9bd fcb2 acbc
00000270: dcf4 bfbc d184 1bbc 2b6b fb3c 267a e3bc
00000280: 9755 243c 0e1c b3bb 9faf 4cbd 2c86 84bd
00000290: 5996 cf3c aeb3 9bbc 97f1 933c c6e5 273d
000002a0: 12b5 17bd 03da b2bd 930b 023d ce6e 8b3c
000002b0: a648 a63c 101e 4fb9 bc60 a63d 2072 133d
000002c0: 589f bc3a 67f5 573d f1c1 19bd 0bc2 34bd
000002d0: 06e4 83bc eff1 21bd 6d62 92bc 9c33 ca3b
000002e0: 9cae 9dbc 8177 133c 84e5 833c 57cf c0bb
000002f0: 80f2 713d 3032 dabb efee 1e3d ecd6 bdbb
00000300: 5142 313d e6a3 42bd 0c8c 90bc 2f81 503c
00000310: 0ed3 00bd 8cfb a4bb 5a2d 06bd 90e6 4bbd
00000320: 4ade ad3c f40d 3a3c 23cb 5abc 0f9f 53bb
00000330: ae52 01bd 746f 64bd 85df f03c 006a 9bbc
00000340: d528 823c fa3c 893c 20fa 8abc a26f 14bd
00000350: 5ce1 0fbc a380 ebbc b244 bf3c b209 4e3d
00000360: 36d5 2c3c 95e7 62bb 29b8 093d 0ebc 41bb
00000370: 209e bcbb 5099 b1bb c92b b93c 30c5 95bd
00000380: e91f 8abd d622 e7bc 9df9 00bd 50b0 27bd
00000390: dd42 653c eed3 053d 6624 d1bc 2d2f 993c
000003a0: 5330 113c 03c8 02bd 4256 98bc c0de ec39
000003b0: 64f7 9a3b 1f0d 0e3c e6d8 68bb 6f2a bfbb
000003c0: 67df 423d c085 183d 5409 20bd b3dd 833c
000003d0: 471e 57bd 705a 753a 7c41 8abc 2391 babc
000003e0: e90d 013b 4dff 21bd b11d d6bc cf67 c3bc
000003f0: ca3b 073d a9b4 b9bc 0920 f5ba c5ed 383d

bias f4 [84]
-0.055229902 0.035626385 -0.031714953 0.04459288 -0.048702154 -0.04508422 0.03522946 -0.02667057
0.0024367073 0.104551636 -0.023073114 0.06112189 -0.04033079 -0.021833794 -0.022453656 -0.0014109084
-0.045059122 0.02014473 -0.012366018 0.014632175 0.031927057 -0.009102949 -0.011756298 -0.018758152
-0.07190619 -0.025268722 0.04565625 -0.010785246 -0.053262047 -0.010923109 -0.021714045 -0.021995185
-0.03654642 -0.006328443 -0.03270538 -0.008446833 -0.02250664 -0.03375095 0.03782855 -0.03574287
-0.007073507 -0.029544143 -0.0022037225 0.07159 -0.0017888258 0.000236216 -0.022334421 0.0058596237
-0.019150985 -0.0099593345 0.01172763 -0.04533463 0.018339999 0.015221214 -0.062015306 -0.034983225
0.011112172 0.0020645426 0.016380992 -0.024153732 -0.02026942 0.02228375 0.026218241 -0.051577393
-0.01819534 0.030403676 -0.00947742 -0.006144286 0.04760197 -0.010697747 -0.00043502613 0.019521408
0.011756177 0.03065363 -0.03719913 0.025447736 -0.03802899 -0.024114823 -0.049848516 0.03752656
-0.0424068 0.009636898 -0.056528326 0.0045583625
00000000: c038 62bd f9ec 113d 8ae7 01bd 06a7 363d
00000010: e97b 47bd 3baa 38bd c44c 103d 3d7c dabc
00000020: 2ab1 1f3b 2b1f d63d d403 bdbc f25a 7a3d
00000030: e631 25bd c9dc b2bc bbf0 b7bc 3bee b8ba
00000040: ea8f 38bd 9006 a53c d79a 4abc cabb 6f3c
00000050: f2c5 023d 8924 15bc 7d9d 40bc b2aa 99bc
00000060: 8d43 93bd 5a00 cfbc 0c02 3b3d 9ab4 30bc
00000070: 4e29 5abd d7f6 32bc a7e1 b1bc 3f2f b4bc
00000080: b3b1 15bd d45e cfbb 14f6 05bd 9664 0abc
00000090: d85f b8bc 703e 0abd 1cf2 1a3d 1e67 12bd
000000a0: e1c8 e7bb 8f06 f2bc 546c 10bb c79d 923d
000000b0: 0977 eaba c0b0 7739 adf6 b6bc 1602 c03b
000000c0: 87e2 9cbc 7a2c 23bc 3f25 403c ceb0 39bd
000000d0: c43d 963c 6662 793c c303 7ebd 924a 0fbd
000000e0: d40f 363c 474d 073b 6e31 863c 0cde c5bc
000000f0: 0e0c a6bc 698c b63c a3c7 d63c d142 53bd
00000100: 650e 95bc 2111 f93c 2e47 1bbc 0256 c9bb
00000110: 49fa 423d 9a45 2fbc 3814 e4b9 5ceb 9f3c
00000120: fb9c 403c 521d fb3c 1d5e 18bd c577 d03c
00000130: 49c4 1bbd 738c c5bc f52d 4cbd 73b5 193d
00000140: c1b2 2dbd 14e4 1d3c 3f8a 67bd 515e 953b

weight f4 [2, 84]
0.032636467 -0.0037622906 0.020612434 0.02797753 -0.010337062 -0.007753988 -0.044662323 0.002690377
0.014893714 -0.03518354 0.012583336 0.011777826 0.045519616 0.045919254 -0.06974039 0.015361433
-0.003312787 -0.0058259973 0.076250575 -0.023471948 -0.02106772 0.05683665 -0.004581125 0.012669813
0.020229707 -0.0035622288 -0.063948676 0.0024743057 -0.035763096 -0.03782323 0.019253043 0.010617001
-0.05224303 0.028362243 -0.0047870283 0.027663533 -0.051901445 0.010684921 0.06054046 0.021167466
0.008327308 -0.020265099 -0.0076178918 -0.060678553 -0.0078287395 0.042959567 0.07263879 0.03844903
0.018451724 0.06867842 0.04306222 0.02687502 -0.02649231 0.053606387 -0.046868768 -0.0002500906
0.010641977 -0.031189244 -0.048191603 0.0030257483 -0.014451194 -0.03125433 -0.011478772 -0.044226885
-0.08946679 0.009378036 -0.036655348 -0.015800783 -0.00084743183 -0.06076781 -0.044270027 -0.04307902
-0.06555758 -0.09637897 -0.032579973 -0.05971101 -0.023790704 0.028101567 -0.020366214 -0.012637235
-0.025872633 0.012494927 -0.011648144 0.05471288 0.006075556 -0.060678933 0.02411636 -0.043017335
-0.0044324705 5.4752454e-06 0.052780107 -0.029488638 0.047857825 0.1259465 0.024937969 -0.034178838
0.019063044 -0.002178786 -0.013057727 -0.01994145 -0.019808913 -0.020492945 -0.01304853 0.068297
0.06803444 0.017120259 -0.03067715 -0.0056724073 0.016723722 0.0035599952 0.021541044 0.0016946789
-0.01858097 -0.018883998 -0.0029880751 0.022717403 -0.046701707 -0.052364524 -0.014377605 0.022816718
-0.034688044 -0.00084034615 0.018306995 -0.016612837 0.009231015 -0.061299555 -0.0082065575 -0.02797574
0.0025246954 -0.039363272 -0.013278338 -0.021952786 0.042372834 -0.030948078 0.05326366 0.03880914
0.00033779256 -0.038078345 -0.022316998 0.013365802 0.023794318 -0.04419746 -0.026211442 -0.0037813738
0.049669825 -0.07161543 0.03138687 -0.022531584 -0.023515323 -0.031234054 -0.06166637 0.025160166
-0.010630007 -0.016241403 0.025149286 0.05169013 -0.02764008 0.015892753 -0.06482749 -0.011954682
0.033443872 -0.09692395 -0.06691832 0.012817128 -0.040591028 0.024544766 -0.038317937 0.07705692
00000000: d1ad 053d c390 76bb 68db a83c 2231 e53c
00000010: c85c 29bc 2a15 febb d7ef 36bd 0951 303b
00000020: c404 743c 9e1c 10bd 562a 4e3c c8f7 403c
00000030: c772 3a3d d415 3c3d 0dd4 8ebd 85ae 7b3c
00000040: 581b 59bb 02e8 bebb 4329 9c3d 3e48 c0bc
00000050: 3696 acbc 8ccd 683d 431d 96bb 0c95 4f3c
00000060: c5b8 a53c 4874 69bb 86f7 82bd f627 223b
00000070: 537c 12bd 88ec 1abd 8fb8 9d3c eef2 2d3c
00000080: cafc 55bd ef57 e83c 81dc 9cbb a29e e23c
00000090: 9c96 54bd cf0f 2f3c 46f9 773d 6567 ad3c
000000a0: 436f 083c fe02 a6bc 829f f9bb 138a 78bd
000000b0: 1d44 00bc 5ff6 2f3d a5c3 943d bb7c 1d3d
000000c0: 1228 973c 45a7 8c3d 0362 303d 0029 dc3c
000000d0: 6706 d9bc 5f92 5b3d 77f9 3fbd 981e 83b9
000000e0: b05b 2e3c 9680 ffbc 8f64 45bd a24b 463b
000000f0: b3c4 6cbc 8a04 00bd 7611 3cbc 4027 35bd
00000100: 5d3a b7bd 55a6 193c eb23 16bd a570 81bc
00000110: 3026 5eba abe7 78bd 7d54 35bd a073 30bd
00000120: 0d43 86bd 5662 c5bd 9472 05bd 8893 74bd
00000130: b9e4 c2bc 4235 e63c 0cd7 a6bc 680c 4fbc
00000140: d8f2 d3bc 86b7 4c3c dbd7 3ebc 9d1a 603d
00000150: 7515 c73b 798a 78bd ac8f c53c f232 30bd
00000160: 423e 91bb 00b8 b736 f42f 583d 2892 f1bc
00000170: 9106 443d 1ff8 003e b64a cc3c 1cff 0bbd
00000180: 1a2a 9c3c f7c9 0ebb 14f0 55bc 405c a3bc
00000190: 4d46 a2bc d2e0 a7bc 80c9 55bc 4cdf 8b3d
000001a0: a455 8b3d c93f 8c3c a54e fbbc 9adf b9bb
000001b0: 3000 893c cf4e 693b d876 b03c fd1f de3a
000001c0: 1e37 98bc 9db2 9abc 95d3 43bb d919 ba3c
000001d0: 4a4a 3fbd 2f7c 56bd 0c90 6bbc 20ea ba3c
000001e0: 0d15 0ebd ad4a 5cba 8df8 953c a517 88bc
000001f0: af3d 173c 3e15 7bbd cc74 06bc 612d e5bc
00000200: 5c75 253b 623b 21bd 638d 59bc 54d6 b3bc
00000210: 238f 2d3d d386 fdbc ff2a 5a3d 55f6 1e3d
00000220: c019 b139 0af8 1bbd 23d2 b6bc 3dfc 5a3c
00000230: 4dec c23c 6508 35bd 61b9 d6bc edd0 77bb
00000240: 9672 4b3d 1cab 92bd 858f 003d 2894 b8bc
00000250: 35a3 c0bc 8fde ffbc e095 7cbd b11c ce3c
00000260: 7b29 2ebc b10c 85bc e005 ce3c 08b9 533d
00000270: 736d e2bc 8531 823c 46c4 84bd 92dd 43bc
00000280: 71fc 083d 1080 c6bd 790c 89bd eefe 513c
00000290: c742 26bd 1b12 c93c 45f3 1cbd 05d0 9d3d

bias f4 [2]
0.060693275 -0.030491086
00000000: 8399 783d 71c8 f9bc
