model.pth (torch, 250111 bytes, 10 tensors)

weight f4 [6, 3, 5, 5]
-0.0018130913 -0.053347968 0.019905075 -0.01566901 -0.022969358 0.0024543537 0.0013968563 -0.017520122
-0.005398454 -0.101468846 0.041689854 -0.004067992 0.064842835 0.016026124 -0.057014488 0.06743512
0.010616094 -0.03953462 -0.0021309303 0.051789623 0.0016052411 0.060239658 0.049826026 0.030317806
-0.01583663 0.0050606686 -0.0021371837 0.014545227 -0.04882032 0.019591535 0.025721015 -0.0041823783
-0.061100043 -0.054876324 -0.032114174 0.014137432 -0.012428917 0.036744308 -0.02065068 -0.0046214447
0.0072893295 0.030430147 0.031970475 0.045580614 0.07649984 0.013827091 0.08874259 0.01576175
-0.019464733 0.055001676 0.020483 0.01761102 0.03982076 -0.11782752 -0.03321612 0.013668145
-0.037498493 0.03317159 -0.039133072 -0.03286725 0.03394275 0.008459693 0.025408663 0.037183274
0.044932526 -0.01802617 -0.025939897 0.06688554 -0.029639523 0.06415752 -0.010032529 0.003559404
0.09261121 0.053694393 0.052835763 -0.02195414 -0.004739828 0.060001545 -0.012028897 -0.005905606
0.0012375035 -0.027719222 0.072346486 0.040720467 0.011107257 -0.015528321 -0.050527915 0.027444465
-0.006123069 -0.014354876 0.008582709 0.03574333 -0.02246592 0.042108323 0.0040709567 0.059759717
0.01462839 0.021417275 0.012405579 0.006928064 0.03792966 0.012697197 -0.022988107 0.029871251
0.060583495 -0.0594325 0.02758443 0.051019955 0.020006653 0.007772995 -0.025327388 0.047734257
-0.0049599786 -0.022044206 0.024648063 -0.0018290493 -4.1011022e-05 0.019787654 -0.0026035993 0.046798937
0.051873986 -0.0070669153 -0.0037429926 0.03913253 0.02380865 -0.010543281 0.04639514 0.0314872
-0.012361306 0.0062827403 -0.026382865 0.04393804 0.074325085 0.035380963 -0.027488748 -0.00071231043
0.0019462948 0.030887038 0.0025655855 0.02028829 -0.006308117 0.034437075 -0.022493545 0.0074769594
-0.039195646 -0.012654912 -0.005071549 0.026386391 0.03738626 0.00042168167 0.021657448 0.03315485
0.0038395184 0.05526282 0.0013458377 0.02474821 0.016201418 0.0045278138 -0.017235888 -0.002506625
-0.006690836 0.05990205 0.029820574 0.032355428 0.040610276 0.037283532 0.048150033 0.0467082
0.023935163 -0.00061952695 -0.0053871274 -0.01617664 0.020985054 -0.02340013 0.019579181 -0.030700013
-0.06465244 -0.039097458 0.033752978 0.011572867 -0.025612604 0.0107254125 0.019907033 0.033198703
0.045220725 -0.04316331 0.05303572 0.018071042 -0.012153206 -0.0011132327 0.008318636 -0.021737402
-0.017851563 -0.017880455 0.008594464 -0.014777494 0.044712342 0.03342634 0.034268063 -0.0044979034
-0.04452626 -0.03306445 -0.03791162 0.020050708 0.022588773 -0.07299522 0.023283562 0.009960597
0.03470976 0.0067137955 0.021953195 -0.0038284466 -0.015707115 0.04955603 0.0102290865 0.047405835
-0.00015967735 0.008487672 -0.0052600456 0.0012841974 0.014237837 -0.016586142 0.019326558 -0.0041218014
0.030841613 -0.0935916 -0.011148839 -0.019576777 -0.043497585 -0.048021287 -0.029530214 -0.02318234
-0.029245367 -0.022555726 -0.030469775 0.0108762495 -0.030658158 0.0034490968 -0.06854145 7.1991e-05
-0.037515443 -0.05840494 0.019850045 0.0019092475 -0.043203536 0.057774685 -0.030794756 0.0038401484
-0.111529715 -0.024712138 -0.08004356 -0.062204525 -0.045541793 -0.054871593 -0.06384052 -0.04235525
00000000: 40a5 edba 6683 5abd f80f a33c 4c5c 80bc
00000010: 3c2a bcbc 39d9 203b b816 b73a 5c86 8fbc
00000020: 84e5 b0bb e6ce cfbd fbc2 2a3d ca4c 85bb
00000030: 52cc 843d 3849 833c 0688 69bd 6d1b 8a3d
00000040: 20ef 2d3c 0eef 21bd 14a7 0bbb 5b21 543d
00000050: f466 d23a dcbd 763d 6016 4c3d 0c5d f83c
00000060: d2bb 81bc f7d3 a53b fe0f 0cbb 1b4f 6e3c
00000070: d1f7 47bd 6d7e a03c e1b4 d23c 550c 89bb
00000080: 0a44 7abd ffc5 60bd 278a 03bd b0a0 673c
00000090: a8a2 4bbc 3381 163d 9d2b a9bc 7d6f 97bb
000000a0: 54db ee3b a548 f93c 79f3 023d bdb2 3a3d
000000b0: f3ab 9c3d 068b 623c adbe b53d c91e 813c
000000c0: 8174 9fbc 7049 613d f7cb a73c fc44 903c
000000d0: 181b 233d 8e4f f1bd a00d 08bd 5bf0 5f3c
000000e0: 0598 19bd efde 073d 004a 20bd cf9f 06bd
000000f0: 8e07 0b3d 869a 0a3c d425 d03c 7d4d 183d
00000100: 2b0b 383d 9eab 93bc e87f d4bc 49fb 883d
00000110: 96ce f2bc 0565 833d 7a5f 24bc e444 693b
00000120: f2aa bd3d a7ee 5b3d 506a 583d 2bd9 b3bc
00000130: 8f50 9bbb 2ec4 753d da14 45bc d083 c1bb
00000140: ba33 a23a 6c13 e3bc 652a 943d 81ca 263d
00000150: 36fb 353c 806a 7ebc 5cf6 4ebd 37d3 e03c
00000160: 07a4 c8bb b730 6bbc 7e9e 0c3c 9967 123d
00000170: 730a b8bc c779 2c3d a965 853b 9bc6 743d
00000180: eaab 6f3c 4873 af3c c540 4b3c d004 e33b
00000190: 225c 1b3d e707 503c 8e51 bcbc 8eb4 f43c
000001a0: 6626 783d 7e6f 73bd bef8 e13c 4dfa 503d
000001b0: fee4 a33c 9cb4 fe3b 627b cfbc ff84 433d
000001c0: 5187 a2bb 0d96 b4bc bcea c93c b6bc efba
000001d0: 4003 2cb8 b819 a23c 26a1 2abb 3eb0 3f3d
000001e0: d179 543d 9591 e7bb ff4c 75bb 6f49 203d
000001f0: 5c0a c33c babd 2cbc d508 3e3d b9f8 003d
00000200: 1387 4abc 72df cd3b e120 d8bc 60f8 333d
00000210: c037 983d a1eb 103d 1530 e1bc 58ba 3aba
00000220: d11a ff3a d006 fd3c 6223 283b a133 a63c
00000230: 52b4 cebb e40d 0d3d 6244 b8bc 4801 f53b
00000240: 9d8b 20bd 8c56 4fbc 3d2f a6bb 4628 d83c
00000250: 5622 193d 2815 dd39 f66a b13c 61cd 073d
00000260: 6ea0 7b3b 445b 623d d266 b03a c2bc ca3c
00000270: d6b8 843c 0e5e 943b 4732 8dbc 3046 24bb
00000280: cd3e dbbb da5b 753d 474a f43c 2087 043d
00000290: f656 263d 9eb6 183d f838 453d 1951 3f3d
000002a0: ad13 c43c c067 22ba 8086 b0bb df84 84bc
000002b0: d9e8 ab3c a1b1 bfbc 8564 a03c 987e fbbc
000002c0: 8068 84bd a824 20bd 9040 0a3d 1f9c 3d3c
000002d0: 86d1 d1bc a4b9 2f3c 1314 a33c 5dfb 073d
000002e0: 5e39 393d 03cc 30bd fc3b 593d b909 943c
000002f0: 3e1e 47bc e4e9 91ba e34a 083c a312 b2bc
00000300: 713d 92bc 087a 92bc cbcf 0c3c 4d1d 72bc
00000310: 4a24 373d 0fea 083d ab5c 0c3d 2663 93bb
00000320: 2b61 36bd 976e 07bd 3749 1bbd 6241 a43c
00000330: 170c b93c 857e 95bd 2bbd be3c c631 233c
00000340: d22b 0e3d 66ff db3b 30d7 b33c ade6 7abb
00000350: 35ac 80bc 44fb 4a3d e697 273c 9f2c 423d
00000360: 106f 27b9 e00f 0b3c 765c acbb 8452 a83a
00000370: d145 693c a9df 87bc bb52 9e3c 2d10 87bb
00000380: 8da7 fc3c f4ac bfbd 9fa9 36bc 7a5f a0bc
00000390: 862a 32bd f8b1 44bd 59e9 f1bc e4e8 bdbc
000003a0: fb93 efbc c9c6 b8bc c09b f9bc 4c32 323c
000003b0: d126 fbbc 3e0a 623b 765f 8cbd e0f9 9638
000003c0: cba9 19bd 053a 6fbd 909c a23c b73f fa3a
000003d0: 31f6 30bd 26a5 6c3d 4945 fcbc 00ab 7b3b
000003e0: b169 e4bd 1c71 cabc e1ed a3bd 2cca 7ebd
000003f0: 088a 3abd 09c1 60bd d2be 82bd b37c 2dbd

bias f4 [6]
0.040897783 0.025734121 -0.042623613 -0.015104005 0.034524124 0.02060591
00000000: 6f84 273d 5dd0 d23c 1996 2ebd ca76 77bc
00000010: 2b69 0d3d bacd a83c

weight f4 [16, 6, 5, 5]
0.0072521726 0.008675632 -0.044280037 0.0231403 0.013671416 0.038924776 -0.011897713 0.00029426528
-0.0050082 -0.008968976 0.06547439 -0.023741294 0.03126545 -0.0027791318 -0.03368135 0.015836239
-0.008424533 -0.019708667 0.02424747 0.032938436 -0.016991768 -0.031134281 0.036482606 0.028004153
0.015786866 -0.059021264 -0.0665286 -0.027863279 -0.03352439 -0.049731605 -0.0450529 -0.08079582
-0.009240798 -0.06442886 -0.025320929 -0.053599782 -0.02546708 -0.053112328 -0.025451172 -0.050106864
-0.009784113 -0.0038407391 -0.027038509 -0.033518665 -0.020378772 -0.0045874263 -0.009925598 -0.055782616
-0.029996105 -0.03238572 -0.045988895 -0.06979927 -0.02961373 -0.020675227 -0.076711275 -0.011977031
-0.04289481 -0.028808929 0.0043130554 -0.0041166544 0.012780108 0.011581892 -0.004181605 0.02053933
-0.010767583 -0.05247337 -0.048616987 -0.005943725 -0.020860175 -0.0024977075 -0.05903079 -0.06464951
0.005681977 -0.0120418295 0.004320238 -0.032052565 -0.052524045 -0.070278086 -0.061032362 -0.0054136887
0.00692109 0.027258227 0.01929136 0.0022963076 0.01066994 0.02070245 -0.06806408 -0.014138329
-0.032678917 -0.009416501 -0.041365016 -0.016149525 -0.00042466144 0.02083916 -0.0037608505 -0.0011867806
-0.016256247 0.019553186 -0.02366563 -0.00354545 0.03522575 -0.008744076 0.031506434 -0.011234116
0.0042210454 -0.012221583 -0.016481122 0.0018755188 0.01363949 -0.035993304 -0.013971012 -0.015042431
-0.020515095 -0.048327494 -0.037213806 -0.015847642 -0.018203622 0.026723653 -0.03325438 -0.046383407
-0.01575168 0.021360137 -0.008559606 0.049355302 -0.0013510953 -0.030164538 -0.04201375 -0.028803587
-0.009926308 -0.04081282 -0.028195977 -0.025104132 0.023991982 -0.086314686 -0.046128385 0.011019961
-0.01623873 -0.012655062 0.0062190136 0.022128182 -0.051529616 -0.02699078 -0.019945502 -0.023080567
0.021793723 -0.072909676 -0.026160134 -0.03389138 -0.013573761 -0.020307064 -0.014751311 -0.005372141
0.020958856 -0.03632573 0.02879059 0.08032071 0.009891124 0.007811795 -0.038455967 0.028653793
0.00020884816 0.02745385 0.042657718 0.014524557 -0.018460054 0.020625532 0.020072363 0.021839011
0.04107616 0.001118185 0.020453684 0.05164463 0.035017394 -0.005836438 0.02441081 -0.007731204
-0.00913612 0.030713996 -0.002201293 0.04358169 0.0021035392 -0.043976452 -0.02971039 0.05211765
-0.016330307 0.0018568054 -0.011225449 0.029983226 -0.012264223 -0.008661525 -0.0066498592 0.045442488
0.041185103 -0.023594985 0.010369205 -0.02771209 -0.0072430186 -0.044203732 0.011520134 0.04574904
0.0033414792 0.0058047045 0.00066062855 -0.006779081 0.0029878726 -0.01567117 -0.009684214 0.008548213
0.053276896 -0.0014609168 0.02614821 0.016464276 0.05147054 -0.023364464 0.039211467 0.0049127117
0.00081227836 0.012618324 0.0154861 0.031720508 0.0064869896 0.04035136 -0.006345471 0.0117357075
0.022271669 0.030787325 -0.009821836 0.00039943063 -0.020312829 0.00046887435 0.031298887 0.020592477
0.040801708 0.009324436 0.034707468 0.016621707 0.015267004 0.05066588 0.014315113 0.012588889
0.016461676 0.03272494 -0.021427738 0.036292665 0.036417622 0.023174154 0.048258167 0.039304998
-0.0031341724 0.0010652672 0.05807329 0.024400977 0.001462718 0.046916343 -0.0022670664 0.071366146
00000000: a2a3 ed3b 3d24 0e3c fc5e 35bd ba90 bd3c
00000010: 13fe 5f3c 966f 1f3d a0ee 42bc 9e47 9a39
00000020: d41b a4bb 9df2 12bc 7017 863d 1a7d c2bc
00000030: 3310 003d 1822 36bb 75f5 09bd 00bb 813c
00000040: 0d07 0abc 1274 a1bc a1a2 c63c 74ea 063d
00000050: 5232 8bbc 520d ffbc c96e 153d f768 e53c
00000060: 7553 813c 48c0 71bd 2640 88bd 8841 e4bc
00000070: df50 09bd 5eb3 4bbd 6489 38bd 4778 a5bd
00000080: b766 17bc 47f3 83bd d66d cfbc 728b 5bbd
00000090: 56a0 d0bc 508c 59bd fa7e d0bc db3c 4dbd
000000a0: 8b4d 20bc e9b4 7bbb dd7f ddbc de4a 09bd
000000b0: 62f1 a6bc 1f52 96bb fa9e 22bc 507c 64bd
000000c0: 64ba f5bc e4a6 04bd da5e 3cbd ebf2 8ebd
000000d0: 7e98 f2bc 185f a9bc cd1a 9dbd 4f3b 44bc
000000e0: 78b2 2fbd b400 ecbc 8854 8d3b 00e5 86bb
000000f0: a863 513c fac1 3d3c d805 89bb 1942 a83c
00000100: 846a 30bc 51ee 56bd 9b22 47bd 94c3 c2bb
00000110: f5e2 aabc 94b0 23bb 45ca 71bd f666 84bd
00000120: e12f ba3b 184b 45bc c890 8d3b 8d49 03bd
00000130: 7423 57bd f5ed 8fbd 12fd 79bd 5065 b1bb
00000140: 50ca e23b a54c df3c ea08 9e3c a67d 163b
00000150: f9d0 2e3c 2f98 a93c 2e65 8bbd 73a4 67bc
00000160: 54da 05bd ab47 1abc 5d6e 29bd 024c 84bc
00000170: 18a5 deb9 e3b6 aa3c 9a78 76bb c08d 9bba
00000180: d22b 85bc 012e a03c 6cde c1bc c85a 68bb
00000190: e048 103d 5043 0fbc e40c 013d 4c0f 38bc
000001a0: b250 8a3b 093d 48bc 6b03 87bc f8d3 f53a
000001b0: 2b78 5f3c b76d 13bd ace6 64bc 8774 76bc
000001c0: 460f a8bc 0df3 45bd 816d 18bd ead2 81bc
000001d0: c31f 95bc 90eb da3c bf35 08bd 87fc 3dbd
000001e0: ab09 81bc 74fb ae3c 973d 0cbc c928 4a3d
000001f0: 3c17 b1ba 9f1b f7bc 9c16 2cbd 80f5 ebbc
00000200: f4a1 22bc 582b 27bd 40fb e6bc 2ea7 cdbc
00000210: d58a c43c c1c5 b0bd 1ef1 3cbd 118d 343c
00000220: 1607 85bc 2d57 4fbc dec8 cb3b 2946 b53c
00000230: b810 53bd c51b ddbc c064 a3bc 7513 bdbc
00000240: c088 b23c ab51 95bd c74d d6bc b0d1 0abd
00000250: 7b64 5ebc 005b a6bc 7caf 71bc c908 b0bb
00000260: e8b1 ab3c 4aca 14bd 3eda eb3c 2f7f a43d
00000270: 620e 223c 16fa ff3b 0184 1dbd 5cbb ea3c
00000280: 40fe 5a39 e5e6 e03c dcb9 2e3d 68f8 6d3c
00000290: 8a39 97bc e0f6 a83c cc6e a43c bae7 b23c
000002a0: 7a3f 283d 1090 923a 7c8e a73c 5289 533d
000002b0: 666e 0f3d 973f bfbb 2ef9 c73c 0a56 fdbb
000002c0: aaaf 15bc eb9b fb3c 9143 10bb b782 323d
000002d0: 88db 093b a720 34bd 3463 f3bc 5179 553d
000002e0: 23c7 85bc 0d60 f33a f2ea 37bc 629f f53c
000002f0: e1ef 48bc 12e9 0dbc 10e7 d9bb e721 3a3d
00000300: b6b1 283d 454a c1bc 99e3 293c 7704 e3bc
00000310: d856 edbb f90e 35bd f2be 3c3c 5863 3b3d
00000320: b8fc 5a3b 6435 be3b 082e 2d3a 0e23 debb
00000330: 2fd0 433b d360 80bc 8aaa 1ebc ce0d 0c3c
00000340: e038 5a3d 3c7c bfba c534 d63c 17e0 863c
00000350: c6d2 523d d566 bfbc 349c 203d d0fa a03b
00000360: 14ef 543a 16bd 4e3c 69b9 7d3c 5ded 013d
00000370: d090 d43b 7847 253d abed cfbb 2047 403c
00000380: 1373 b63c b335 fc3c c4eb 20bc ac6a d139
00000390: 1767 a6bc 40d3 f539 4333 003d 8eb1 a83c
000003a0: b11f 273d 85c5 183c 6b29 0e3d 3f2a 883c
000003b0: 7522 7a3c 0787 4f3d f089 6a3c a141 4e3c
000003c0: a3da 863c 960a 063d 3989 afbc 9ea7 143d
000003d0: a52a 153d b9d7 bd3c 5baa 453d 47fe 203d
000003e0: b066 4dbb 70a0 8b3a 42de 6d3d 8fe4 c73c
000003f0: acb8 bf3a 5a2b 403d 1093 14bb 6a28 923d

bias f4 [16]
-0.014614298 0.025751565 0.023037517 -0.014583303 0.05893929 0.029510519 -0.03657116 0.017299822
0.0024021575 -0.051031467 0.0038344592 -0.024657592 -0.011297209 -0.0015372538 0.025130313 -0.011887037
00000000: cf70 6fbc f2f4 d23c 2db9 bc3c ceee 6ebc
00000010: 536a 713d 0bc0 f13c a4cb 15bd 5bb8 8d3c
00000020: 846d 1d3b 5f06 51bd 8d4b 7b3b b8fe c9bc
00000030: ee17 39bc ae7d c9ba 16de cd3c d9c1 42bc

weight f4 [120, 400]
-0.0033500646 -0.015038922 -0.01831851 0.020144276 0.006925038 -0.010825912 0.00045736507 0.007094213
-0.009987924 0.015107694 0.0025213165 -0.020611582 0.0088419495 0.024577728 0.0140987765 -0.012624755
0.017028227 -0.012911677 -0.0116636455 -2.9064715e-05 -0.0141783515 0.012119989 0.008726965 0.010386395
-0.0066872253 -0.019693669 -0.00149264 0.03802234 -0.005082002 -0.027191248 -0.014231163 0.015541963
0.000655137 -0.014331732 -0.021764332 -0.01703703 -0.008649804 -0.022087097 -0.011507913 -0.026453368
0.011555928 -0.013910227 -0.01969731 -0.007449073 0.0065648044 -0.004707602 0.009642491 -0.020719288
-0.0021519111 0.0151965665 0.0060509765 0.003268022 0.017845524 0.0071210596 -0.0034145978 -0.013211227
0.01999874 0.0048237955 0.028981308 0.022383055 -0.0068492284 -0.0114499545 0.001689694 0.019554146
-0.006800224 0.02475803 -0.031523306 0.009139575 0.021532403 0.0032738901 -0.0047248905 -0.0058985795
-0.013526816 -0.009755259 -0.0036185249 -0.022821892 -0.0543982 -0.016007429 -0.0065707173 -0.019516625
0.005297064 -0.02358413 -0.0077056475 -0.007771562 -0.0046659852 -0.028725136 -0.01122538 -0.02040239
-0.03517017 0.0033268093 0.007108069 -0.019241568 -0.013257084 -0.007181663 -0.016605638 0.021641111
0.0009776559 0.016179364 0.01373689 -0.0014044195 -0.0039463714 -0.026400073 -0.0057740835 -0.010504417
-0.01095603 0.020809203 -0.0033073912 -0.019983776 0.012819929 -0.015692411 -0.0060893316 0.0001998892
-0.010246012 -0.048768632 0.002530872 -0.01062352 0.022742948 -0.032685727 0.00824537 -0.0058765165
0.0025868663 -0.007071633 -0.035346124 -0.0016979043 -0.002402714 0.021533102 -0.0032455751 0.0075900503
0.01414869 0.0030392674 -0.03129114 -0.007847215 -0.019282158 -0.012125113 -0.019151935 0.010050502
-0.010016238 -0.0065899394 -0.001066753 0.0067261197 0.0070570223 0.011899287 -0.020645794 0.0015006631
-0.006834343 -0.024068166 -0.0004345714 -0.012844219 0.012696993 -0.0017129695 0.01089217 -0.008045209
0.0031105476 -0.00948177 0.0016309668 -0.018640721 -0.00503189 -0.026440535 0.008234158 0.024259249
0.0004985687 0.005899525 0.025455542 -0.00023208716 -0.004750707 -0.009481909 0.026454434 -0.016782243
-0.0029851426 -0.0038845444 0.019518334 -0.022436485 -0.012972996 -0.0052836677 0.01175201 -0.020041808
0.019293534 0.013854208 -0.0077838697 0.008767239 -0.009471097 -0.03548541 -0.021261975 0.027792946
-0.0070824297 0.021226685 0.0013312462 -0.0005722841 -0.011871403 0.0046047783 0.020166604 -0.0071072592
0.014091423 0.001631951 0.00015489699 -0.004994373 0.0012885394 -0.00068612647 0.014368057 -0.019942649
-0.015416123 0.0039851097 0.0013141437 0.0014404333 -0.009123636 0.0025227107 0.01262921 0.0006380789
-0.005879377 -0.006197771 -0.0050025843 0.0040475084 -0.0057612355 -0.021228138 -0.018786691 0.0011196528
0.014155261 -0.017972328 -0.023093484 0.026122008 0.0039377986 0.00056589535 0.013781116 -0.0012937542
0.0051652994 -0.008844416 -0.03844788 -0.0018315576 0.033889875 -0.004442402 0.010958046 -0.027503613
-0.0070076324 0.007594593 -0.0074122925 -0.004610898 -0.020504374 -0.003389536 0.003357901 0.0010562884
0.025279205 -0.008367678 0.021208167 0.0069073997 -0.011810418 -0.023344375 -0.018724497 -0.008526734
0.0071874913 -0.017756158 0.010904331 0.01908584 -0.0020466568 0.010958391 0.0066629383 -0.01734826
00000000: c28c 5bbb d065 76bc b310 96bc 9c05 a53c
00000010: 6eeb e23b 2a5f 31bc 80ca ef39 9276 e83b
00000020: 64a4 23bc 4386 773c ac3c 253b 9fd9 a8bc
00000030: d3dd 103c 3b57 c93c 8efe 663c 0fd8 4ebc
00000040: c87e 8b3c 808b 53bc e018 3fbc 00d0 f3b7
00000050: 514c 68bc eb92 463c 8bfb 0e3c b32b 2a3c
00000060: 8320 dbbb 9e54 a1bc b0a4 c3ba 50bd 1b3d
00000070: ec86 a6bb 2ec0 debc d329 69bc b8a3 7e3c
00000080: 80bd 2b3a a4cf 6abc 1d4b b2bc 3e91 8bbc
00000090: e8b7 0dbc 00f0 b4bc af8b 3cbc bcb4 d8bc
000000a0: 1355 3d3c b9e7 63bc 415c a1bc 5a17 f4bb
000000b0: 921d d73b 3a42 9abb 8afb 1d3c 7fbb a9bc
000000c0: 1407 0dbb 05fb 783c 4547 c63b 502c 563b
000000d0: c730 923c c757 e93b 72c7 5fbb e773 58bc
000000e0: 66d4 a33c ee10 9e3b 356a ed3c ab5c b73c
000000f0: 7e6f e0bb 9798 3bbc b978 dd3a 0430 a03c
00000100: 6ad4 debb 5ad1 ca3c 951e 01bd 28be 153c
00000110: b964 b03c c38e 563b 41d3 9abb df48 c1bb
00000120: 949f 5dbc 86d4 1fbc c624 6dbb faf4 babc
00000130: a6d0 5ebd 0322 83bc 2c4f d7bb 54e1 9fbc
00000140: fe92 ad3b 8133 c1bc a87f fcbb 96a8 febb
00000150: 1fe5 98bb fa50 ebbc a8ea 37bc ea22 a7bc
00000160: 990e 10bd 9906 5a3b ceea e83b 7ea0 9dbc
00000170: 3e34 59bc 2854 ebbb 8c08 88bc b348 b13c
00000180: b024 803a 968a 843c b110 613c 8014 b8ba
00000190: 9050 81bb f744 d8bc 8634 bdbb b81a 2cbc
000001a0: ec80 33bc 1078 aa3c d1c0 58bb 04b5 a3bc
000001b0: ae0a 523c 5f8d 80bc 0489 c7bb 5999 5139
000001c0: e4de 27bc 9ec1 47bd fcdc 253b 460e 2ebc
000001d0: 6b4f ba3c 78e1 05bd 9717 073c cb8f c0bb
000001e0: 6a88 293b 28b9 e7bb 19c7 10bd 378c deba
000001f0: da76 1dbb 3066 b03c b7b3 54bb f5b5 f83b
00000200: e8cf 673c 722e 473b 232b 00bd 9b91 00bc
00000210: 9ef5 9dbc 69a8 46bc 85e4 9cbc dcaa 243c
00000220: 261b 24bc 6bf0 d7bb 4ad2 8bba c866 dc3b
00000230: 983e e73b 3af5 423c 5e21 a9bc e6b1 c43a
00000240: a0f2 dfbb 9a2a c5bc 30d7 e3b9 8f70 52bc
00000250: 0c07 503c b885 e0ba 1275 323c 0dd0 03bc
00000260: 54da 4b3b 6d59 1bbc 2ac6 d53a 6db4 98bc
00000270: 8de2 a4bb d299 d8bc 90e8 063c 55bb c63c
00000280: 61b2 023a cd50 c13b 2488 d03c 6c5c 73b9
00000290: d2ab 9bbb 025a 1bbc f8b6 d83c ea7a 89bc
000002a0: 62a2 43bb d793 7ebb eae4 9f3c b8cc b7bc
000002b0: b08c 54bc 9e22 adbb 818b 403c b82e a4bc
000002c0: 790d 9e3c c3fc 623c d50f ffbb 77a4 0f3c
000002d0: a92c 1bbc 2659 11bd 982d aebc 08ae e33c
000002e0: ba13 e8bb 96e3 ad3c 367d ae3a 5605 16ba
000002f0: 4680 42bc aee3 963b 6f34 a53c 03e4 e8bb
00000300: b6df 663c 30e7 d53a d86b 2239 d6a7 a3bb
00000310: 35e4 a83a 2bdd 33ba 0068 6b3c c45e a3bc
00000320: e893 7cbc 8695 823b 583f ac3a eccc bc3a
00000330: 4e7b 15bc 1054 253b bfea 4e3c c044 273a
00000340: caa7 c0bb ac16 cbbb b8ec a3bb f6a0 843b
00000350: bfc8 bcbb a2e6 adbc 8ce6 99bc 50c1 923a
00000360: 78eb 673c b43a 93bc 8c2e bdbc d2fd d53c
00000370: a608 813b 9858 143a 31ca 613c 3093 a9ba
00000380: ac41 a93b 2be8 10bc 867b 1dbd e010 f0ba
00000390: 1cd0 0a3d 9291 91bb 6089 333c 424f e1bc
000003a0: 48a0 e5bb 10dc f83b d1e2 f2bb 0417 97bb
000003b0: caf8 a7bc fa22 5ebb 3b10 5c3b 2873 8a3a
000003c0: 5616 cf3c 9618 09bc c0bc ad3c 7857 e23b
000003d0: 7c80 41bc b43c bfbc 1e64 99bc b7b3 0bbc
000003e0: 0c85 eb3b 5d75 91bc 14a8 323c e859 9c3c
000003f0: 3421 06bb d38a 333c c754 da3b f01d 8ebc

bias f4 [120]
-0.026068142 0.003971321 -0.028659254 0.008418675 -0.017502736 -0.0020099883 0.0032307387 -0.030045837
0.019471101 0.030461848 0.007113021 -0.03497318 0.027066566 0.0017948457 -0.026380166 0.0046625505
0.03084797 0.025054285 -0.040514767 -0.022227397 0.002380637 0.040596202 -0.021131422 -0.018054385
0.024142895 -0.024182579 0.009901386 0.00020908611 -0.018871192 0.040256973 -0.0050161346 -0.012934009
-0.005247526 0.00047501293 -0.02460031 0.0044574905 -0.027090011 0.0046440633 0.0026659847 0.0067256624
-0.018918911 0.011541316 -0.017157825 -0.00073846127 -0.019800618 -0.016841937 -0.021814728 -0.004425006
-0.024605012 -0.007760669 -0.0046000886 0.012938333 -0.040395517 0.032914106 0.0011717456 -0.019974187
0.0052941414 0.016662652 -0.008965234 0.024201391 0.0020883677 0.00990403 -0.029391672 -0.021833748
-0.0053800484 0.013121129 0.009109933 -0.033812437 -0.030500112 0.0034586363 -0.041569017 -0.013913784
-0.014667418 -0.023927728 -0.012237108 0.0074004075 0.034450814 0.0010930938 -0.023088813 0.00045573706
0.0499877 0.019911047 0.029886782 -0.01999637 -0.020197928 -0.047227778 -0.0029529626 0.0005341141
3.9172126e-05 0.005504189 0.053230908 -0.02215738 -0.0068832617 0.0055907452 -0.010112109 -0.021828653
0.0107456725 -0.036752306 0.015634133 0.004615223 -0.020964598 -0.014087549 -0.02933414 -0.027344096
0.025782937 -0.006006576 0.017673336 0.02262705 0.0016177748 -0.02894842 0.0027227174 -0.025924914
-0.009999148 -0.009636108 0.0053007924 0.03052771 -0.0076466864 0.017540313 -0.0039708056 0.03888723
00000000: db8c d5bc db21 823b d0c6 eabc 7bee 093c
00000010: e661 8fbc 02ba 03bb cdba 533b b022 f6bc
00000020: dc81 9f3c 208b f93c 5814 e93b 0a40 0fbd
00000030: b4ba dd3c 0741 eb3a 381b d8bc 4fc8 983b
00000040: e2b4 fc3c a53e cd3c d0f2 25bd 3b16 b6bc
00000050: 7604 1c3b 3448 263d ce1b adbc cae6 93bc
00000060: 52c7 c53c 8b1a c6bc 6c39 223c 203e 5b39
00000070: c297 9abc 7fe4 243d 635e a4bb 2ae9 53bc
00000080: 70f3 abbb 280b f939 9786 c9bc 2410 923b
00000090: dfeb ddbc 3a2d 983b cdb7 2e3b f262 dc3b
000000a0: d5fb 9abc ca17 3d3c 918e 8cbc 4c95 41ba
000000b0: e834 a2bc 1af8 89bc cdb4 b2bc a4ff 90bb
000000c0: 7390 c9bc 364d febb 57bc 96bb 4dfb 533c
000000d0: c575 25bd f1d0 063d 4295 993a e8a0 a3bc
000000e0: 7a7a ad3b 1d80 883c ebe2 12bc ff41 c63c
000000f0: ffdc 083b 8344 223c cec6 f0bc b0dc b2bc
00000100: 1e4b b0bb 01fa 563c d441 153c e97e 0abd
00000110: 5fdb f9bc 4aaa 623b 4644 2abd a4f6 63bc
00000120: 9c4f 70bc 1504 c4bc 277e 48bc 1e7f f23b
00000130: 4c1c 0d3d 2446 8f3a c024 bdbc feef ee39
00000140: e7bf 4c3d 7e1c a33c 20d5 f43c 6dcf a3bc
00000150: 2076 a5bc ea71 41bd 7e86 41bb ca03 0c3a
00000160: c04c 2438 7c5c b43b a708 5a3d 6583 b5bc
00000170: fc8c e1bb 9232 b73b 42ad 25bc 01d2 b2bc
00000180: 9e0e 303c 9689 16bd 2713 803c 4c3b 973b
00000190: f3bd abbc 77cf 66bc 264e f0bc ba00 e0bc
000001a0: bd36 d33c d0d2 c4bb acc7 903c 5d5c b93c
000001b0: 840b d43a 3d25 edbc 9e6f 323b 7c60 d4bc
000001c0: 77d3 23bc c4e0 1dbc 45b2 ad3b 4015 fa3c
000001d0: 0e91 fabb b4b0 8f3c 881d 82bb 3748 1f3d

weight f4 [84, 120]
-0.032366343 0.016858362 -0.01396269 -0.028725445 0.009039711 0.051689267 0.008547889 0.040148407
0.04158274 -0.0051494194 0.028363757 0.05658465 -0.009618518 0.024292681 -0.006286577 -0.007846752
0.032415017 0.020842649 0.01256833 0.060780708 0.025370963 0.034062244 0.029022386 0.016845461
0.011934628 0.04584138 0.0016888594 0.055583745 0.013150594 0.059023183 -0.007193841 0.0007566607
0.042626146 0.045411173 0.001983537 0.07199112 0.0125914775 0.033526365 -0.004463189 -0.005180913
0.05953525 0.015824325 0.044676125 0.0032014588 0.07336497 0.023579624 -0.026504489 -0.008723466
0.024797697 -0.012130304 -0.013357466 0.039082933 -0.020255197 0.016721439 0.040399436 0.020897951
0.018779423 0.011943841 0.03714396 0.02816005 0.063264035 0.025413819 -0.0042410176 0.036926858
0.034343656 0.044387314 -0.013396272 -0.023764089 -0.00723911 0.027993595 -0.0132647855 -0.0014002644
0.014990785 0.012961891 0.010393597 -0.0032875098 0.05506898 0.024493055 0.0356949 0.021332279
-0.00920522 0.0077333176 -0.009585831 0.013578016 -0.0033455845 0.04114892 -0.019584026 0.013219345
-0.025557425 -0.027854666 -0.016737197 0.002748646 0.0037291888 0.014039782 0.023156395 0.015409568
-0.005411839 -0.009877668 0.054921966 -0.018671703 0.011291927 0.033704493 0.004039026 -0.025461547
0.031929146 0.007848322 0.032872364 0.016553242 0.041167162 0.038855236 0.031963527 0.018461026
-0.018515334 -0.02331468 0.03574108 0.010080496 0.027929649 0.012667205 0.061660424 0.047135655
0.029858897 0.03821685 -0.03249355 -0.03461884 0.018876862 -0.029302016 -0.02544273 -0.0028925464
-0.02183558 -0.009372172 0.037988707 0.0037389463 0.03250244 -0.016428823 -0.03188999 0.024040576
-0.014907284 0.04316114 0.009980578 0.0015165377 0.011960637 -0.007891702 -0.024547067 -0.0029358743
-0.05387052 -0.0005967822 -0.025237443 -0.012616517 -0.029711295 -0.034391936 -0.03984262 0.059673026
-0.0015900172 0.012249193 -0.016862234 0.016684407 -0.028950585 -0.006281334 0.00880296 -0.0053041317
0.011147974 -0.043244846 -0.049065683 -0.027632345 -0.013960961 -0.0401354 0.015783688 -0.048646323
0.009650702 0.012622487 -0.030246403 -0.0017514955 0.025639428 -0.0028738715 0.02274087 -0.0033193603
-0.018464006 -0.03223808 -0.02173053 0.025121868 0.0018816534 0.0065952446 0.038398866 0.017981619
-0.0018723533 0.06361678 -0.044195622 -0.04232058 0.014572416 -0.00013622455 -0.030345317 0.062277246
0.018593727 0.031566586 -0.035285752 -0.018307451 -0.016151074 -0.038105797 -0.0135613065 0.00830073
-0.014646169 -0.023177385 -0.0057569183 -0.021467425 0.009370999 -0.013017896 0.032728888 0.0035732621
-0.0014547147 -0.028821882 -0.055361696 -0.028154625 0.020477954 -0.017424723 0.020895567 -0.032297395
0.004313292 0.0018989835 -0.057624277 0.00039867684 0.050532416 0.04199332 0.028772907 -0.006170545
-0.034481827 -0.021734584 0.008179497 -0.029809948 -0.00047631003 -0.0017806971 -0.010010179 -0.0112063745
0.020451013 0.0019001123 -0.038605876 0.01644836 -0.03965626 -0.032277763 -0.016671617 -0.02019998
-0.011721548 0.0137997195 0.03132872 -0.03484362 0.052217185 0.03333654 -0.020665659 -0.0566671
-0.026060602 -0.026678234 -0.0009222764 0.07129848 0.027283749 -0.019083252 0.002443556 -0.020145604
00000000: 9292 04bd 8c1a 8a3c c4c3 64bc a051 ebbc
00000010: 4c1b 143c 20b8 533d 720c 0c3c a872 243d
00000020: aa52 2a3d 76bc a8bb 1c5b e83c 4ec5 673d
00000030: fd96 1dbc 7201 c73c a1ff cdbb aa8f 00bc
00000040: 9cc5 043d 34be aa3c 66eb 4d3c 31f5 783d
00000050: c4d6 cf3c da84 0b3d 5bc0 ed3c 7eff 893c
00000060: 7589 433c 2cc4 3b3d b85c dd3a c8ab 633d
00000070: 9775 573c 4bc2 713d 50ba ebbb a45a 463a
00000080: c198 2e3d 1101 3a3d 3bfe 013b 1570 933d
00000090: 7c4c 4e3c f152 093d f13f 92bb a6c4 a9bb
000000a0: 3cdb 733d 04a2 813c 50fe 363d 91cf 513b
000000b0: 6040 963d 0e2a c13c f11f d9bc deec 0ebc
000000c0: 8a24 cb3c 2fbe 46bc 46d9 5abc 6d15 203d
000000d0: 3aee a5bc 66fb 883c e179 253d 2e32 ab3c
000000e0: 4ed7 993c 1ab0 433c 4424 183d e8af e63c
000000f0: 9390 813d a430 d03c 3cf8 8abb 9e40 173d
00000100: efab 0c3d 79cf 353d 0a7c 5bbc e8ac c2bc
00000110: 0e36 edbb d352 e53c 8b54 59bc 1489 b7ba
00000120: e99b 753c 1c5e 543c e849 2a3c 4373 57bb
00000130: 0390 613d a9a5 c83c d134 123d 08c1 ae3c
00000140: 7ed1 16bc c567 fd3b e40d 1dbc 5476 5e3c
00000150: 9841 5bbb c58b 283d ae6e a0bc f495 583c
00000160: ce5d d1bc 782f e4bc 721c 89bc a122 343b
00000170: 6865 743b 1d07 663c 7bb2 bd3c 6a78 7c3c
00000180: cc55 b1bb f1d5 21bc dbf5 603d 66f5 98bc
00000190: c601 393c b90d 0a3d ce59 843b bc94 d0bc
000001a0: 23c8 023d 4096 003c 2ca5 063d aa9a 873c
000001b0: e69e 283d ab26 1f3d 30ec 023d 943b 973c
000001c0: 78ad 97bc 6efe bebc 3d65 123d aa28 253c
000001d0: b8cc e43c 1c8a 4f3c a48f 7c3d 5111 413d
000001e0: a59a f43c 4689 1c3d f517 05bd 7ccc 0dbd
000001f0: a6a3 9a3c c80a f0bc 466d d0bc e090 3dbb
00000200: 88e0 b2bc bd8d 19bc 0c9a 1b3d 1c09 753b
00000210: 4721 053d bd95 86bc 149f 02bd bef0 c43c
00000220: ae3d 74bc bcc9 303d 9485 233c 90c6 c63a
00000230: 8cf6 433c 324c 01bc ee16 c9bc cc67 40bb
00000240: 56a7 5cbd 6071 1cba c1be cebc 82b5 4ebc
00000250: 1a65 f3bc 8fde 0cbd 0432 23bd b46b 743d
00000260: 2068 d0ba d7b0 483c ab22 8abc bdad 883c
00000270: c729 edbc a6d3 cdbb 4a3a 103c 48ce adbb
00000280: fea5 363c 8221 31bd 19f9 48bd 3a5d e2bc
00000290: 84bc 64bc 0465 24bd cb4c 813c 5e41 47bd
000002a0: fa1d 1e3c 8cce 4e3c 4ec7 f7bc 7092 e5ba
000002b0: c709 d23c 9057 3cbb 104b ba3c a089 59bb
000002c0: d441 97bc 140c 04bd 3904 b2bc 60cc cd3c
000002d0: d0a1 f63a ec1c d83b 2148 1d3d 304e 933c
000002e0: c069 f5ba 8449 823d 7806 35bd 5858 2dbd
000002f0: 25c1 6e3c 80d7 0eb9 be96 f8bc 6d16 7f3d
00000300: df51 983c f74b 013d cb87 10bd 82f9 95bc
00000310: 424f 84bc d314 1cbd 3e30 5ebc c9ff 073c
00000320: 7cf6 6fbc 80de bdbc 88a4 bcbb 74dc afbc
00000330: d288 193c 0349 55bc ba0e 063d 642d 6a3b
00000340: 20ac beba de1b ecbc f2c2 62bd 87a4 e6bc
00000350: 62c1 a73c 4bbe 8ebc 2e2d ab3c 464a 04bd
00000360: 8456 8d3b 50e7 f83a 6f07 6cbd 8005 d139
00000370: 14fb 4e3d 3001 2c3d 29b5 eb3c 4832 cabb
00000380: d13c 0dbd ba0c b2bc 4c03 063c fe33 f4bc
00000390: 40b9 f9b9 4866 e9ba bc01 24bc f19a 37bc
000003a0: e288 a73c 300d f93a 3221 1ebd b6be 863c
000003b0: 9a6e 22bd b035 04bd ea92 88bc 6e7a a5bc
000003c0: bc0b 40bc 3818 623c 8b52 003d 2fb8 0ebd
000003d0: b0e1 553d e58b 083d 074b a9bc c31b 68bd
000003e0: 0b7d d5bc 508c dabc ecc4 71ba f004 923d
000003f0: 2b82 df3c 7b54 9cbc 1124 203b 6508 a5bc

bias f4 [84]
0.04765474 -0.0021100994 0.02221427 -0.04525393 0.0067580417 0.00015426439 0.0102163125 0.051799186
-0.04756158 -0.025357688 0.020372571 0.024827674 -0.015386117 -0.06070786 -0.076086245 -0.016182149
0.013031196 0.060615215 -0.07300308 -0.014354146 -0.017783152 -0.019444741 0.00059615634 0.027699037
0.04086727 0.051746998 -0.019235387 -0.005243315 0.017713536 0.01537618 -0.024803672 -0.016561935
-0.04118963 0.018404609 -0.010646237 -0.0519222 -0.04725402 -0.031376604 -0.0063769068 -0.011852564
-0.03284807 0.0074959686 -0.050141532 -0.00471695 0.0035773155 -0.04636712 -0.0052259862 -0.00017711904
-0.004097252 0.011975359 -0.027425993 -0.04056891 -0.008846008 -0.03170138 -0.015416471 0.0334238
0.01532775 0.061653 -0.034458287 0.010114422 -0.0075831963 0.0015620417 0.028796956 -0.009643054
-0.0037213762 -0.044849038 0.04493531 -0.047421575 -0.04219234 0.014953665 -0.006098427 0.025579665
0.037349556 0.015861196 0.056766916 0.009980874 -0.019585101 -0.048044715 0.06297263 0.013774869
-0.0046100887 -0.04497196 0.046070863 -0.019488385
00000000: 9e31 433d 9849 0abb b3fa b53c 2f5c 39bd
00000010: 9072 dd3b 08c2 2139 5262 273c 622b 543d
00000020: eecf 42bd edba cfbc 61e4 a63c 6863 cb3c
00000030: 0d16 7cbc cea8 78bd 1bd3 9bbd 6d90 84bc
00000040: cc80 553c a947 783d a482 95bd a72d 6bbc
00000050: f9ad 91bc 944a 9fbc 6047 1c3a 17e9 e23c
00000060: 7064 273d a9f4 533d 8893 9dbc 1dd0 abbb
00000070: fa1b 913c 60ec 7b3c 1231 cbbc e5ac 87bc
00000080: 75b6 28bd 43c5 963c 8e6d 2ebc 5fac 54bd
00000090: 6e8d 41bd c184 00bd 5ff5 d0bb 4231 42bc
000000a0: b38b 06bd bea0 f53b 3561 4dbd a590 9abb
000000b0: 6571 6a3b 73eb 3dbd c03e abbb 08b9 39b9
000000c0: 3e42 86bb 4c34 443c 7aac e0bc 962b 26bd
000000d0: d9ee 10bc 4ed9 01bd 5e95 7cbc 65e7 083d
000000e0: 3e21 7b3c db87 7c3d 2224 0dbd f6b6 253c
000000f0: 767c f8bb 6cbd cc3a 98e7 eb3c e6fd 1dbc
00000100: 55e2 73bb a0b3 37bd 160e 383d 203d 42bd
00000110: e0d1 2cbd 3800 753c 50d5 c7bb 728c d13c
00000120: d9fb 183d 57ef 813c 6d84 683d d286 233c
00000130: ef70 a0bc 89ca 44bd cbf7 803d fdaf 613c
00000140: 3a10 97bb 8534 38bd cdb4 3c3d 1ba6 9fbc

weight f4 [2, 84]
-0.088334 0.0050065555 -0.048640274 0.023628525 -0.08783825 0.04407401 0.06381264 0.005361626
0.017872095 -0.05385181 -0.030228563 -0.063545756 -0.019320382 0.05045273 0.0307143 -0.025957072
0.017261436 0.037834305 -0.020180319 -0.002392456 0.006688999 0.021097446 -0.0065121143 0.0033526996
0.0017449524 0.029836886 0.06529273 -0.049648404 -0.023086455 -0.014292353 -0.01016299 0.012765168
-0.024736464 -0.016511284 0.028568242 -0.0537618 -0.055720016 -0.034419198 -0.045985892 0.009809948
-0.027146252 -0.004355273 0.016606351 0.021862004 0.0015384462 -0.050569683 -0.04399357 -0.02064416
-0.07572846 -0.059693918 0.034434207 -0.025551528 -0.014834326 0.006800672 -0.057272527 -0.021964105
-0.05274863 -0.037330434 -0.01225847 -0.008222761 -0.06391044 0.0010387014 -0.019132052 0.018523064
-0.033331953 0.014723701 -0.011210356 -0.06031906 -0.0020140633 0.0024508056 -0.020685451 -0.0030901167
-0.022244565 -0.0071777888 -0.020235742 -0.04715842 -0.027231652 -0.052308537 -0.032335285 -0.07215139
-0.012193432 -0.005105931 -0.045402743 -0.0405044 0.008537428 0.03324598 0.053651474 -0.028057273
-0.024604237 -0.029507088 0.023769407 0.04169182 0.010575054 0.019453403 -0.0155520905 0.044607505
0.059230383 0.010119923 0.03631517 0.054147534 0.031041162 -0.016841222 0.03101717 0.012795562
0.03989795 0.0067371167 -0.022644697 -0.03939738 -0.02528802 0.02599717 0.011876736 -0.05652335
-0.028458007 0.0141914915 0.066886514 -0.029679928 -0.027999857 0.053848572 0.01766165 0.030556498
-0.03646189 0.016336426 0.055500586 0.017809607 0.060865216 0.009176475 0.018486623 -0.033008747
0.02838181 0.057793677 0.047899045 -0.007817179 0.019098353 0.000714432 -0.04913848 0.039038252
-0.0104964115 0.044092085 -0.02246672 0.0052730585 0.025690861 0.003824675 -0.02043002 -0.018020984
0.005235547 0.029002266 -0.022592362 0.008828846 0.09984738 0.056390535 0.03967116 -0.0032958211
0.050421454 -0.03893723 0.023323564 -0.035889722 0.008813523 0.04472931 -0.02267701 0.02493867
0.082021385 0.013892727 0.012958821 0.00574249 0.07723961 -0.0005061884 0.014418562 -0.011252912
00000000: 75e8 b4bd 080e a43b 063b 47bd 9c90 c13c
00000010: 8ae4 b3bd f386 343d 34b0 823d 94b0 af3b
00000020: 8068 923c b793 5cbd e4a1 f7bc 4724 82bd
00000030: c745 9ebc 86a7 4e3d 8e9c fb3c eda3 d4bc
00000040: db67 8d3c 25f8 1a3d 3251 a5bc c0ca 1cbb
00000050: 642f db3b 8dd4 ac3c 9363 d5bb f7b8 5b3b
00000060: e3b6 e43a 7c6c f43c 32b8 853d 205c 4bbd
00000070: ce1f bdbc 792a 6abc ab82 26bc ff24 513c
00000080: 20a4 cabc ac42 87bc f207 ea3c 5535 5cbd
00000090: ac3a 64bd 25fb 0cbd b45b 3cbd e7b9 203c
000000a0: d161 debc aeb6 8ebb 0b0a 883c f217 b33c
000000b0: b0a5 c93a 2822 4fbd 9a32 34bd f11d a9bc
000000c0: 8617 9bbd 9c81 74bd e20a 0d3d 7051 d1bc
000000d0: ac0b 73bc 2cd8 de3b 9996 6abd 11ee b3bc
000000e0: f30e 58bd cce7 18bd c0d7 48bc c2b8 06bc
000000f0: 7ae3 82bd 0925 883a d2ba 9cbc aebd 973c
00000100: 1687 08bd ae3b 713c a4ab 37bc 1e11 77bd
00000110: 60fe 03bb b29d 203b 8974 a9bc 8e83 4abb
00000120: 3c3a b6bc a833 ebbb 6dc5 a5bc 3029 41bd
00000130: ea14 dfbc 7a41 56bd 0172 04bd 1cc4 93bd
00000140: f6c6 47bc a74f a7bb 3af8 39bd f1e7 25bd
00000150: 92e0 0b3c f02c 083d a6c1 5b3d 5ed8 e5bc
00000160: d38e c9bc d9b8 f1bc 0fb8 c23c 0bc5 2a3d
00000170: fe42 2d3c be5c 9f3c 32ce 7ebc 5cb6 363d
00000180: 8f9b 723d 09ce 253c 37bf 143d cec9 5d3d
00000190: 094a fe3c 9af6 89bc b817 fe3c 7aa4 513c
000001a0: 086c 233d 08c3 dc3b 5f81 b9bc 265f 21bd
000001b0: d228 cfbc 04f8 d43c a496 423c 0785 67bd
000001c0: c420 e9bc 6e83 683c ccfb 883d 5223 f3bc
000001d0: f55f e5bc 5290 5c3d 2aaf 903c 9f51 fa3c
000001e0: 1059 15bd f8d3 853c 9554 633d 74e5 913c
000001f0: ce4d 793d ed58 163c 4271 973c 2e34 07bd
00000200: f880 e83c 10b9 6c3d ca31 443d a013 00bc
00000210: 2674 9c3c b848 3b3a 6e45 49bd 93e6 1f3d
00000220: 24f9 2bbc e799 343d 200c b8bc 9fc9 ac3b
00000230: a475 d23c 66a7 7a3b db5c a7bc bea0 93bc
00000240: f48e ab3b 2996 ed3c 9e13 b9bc dda6 103c
00000250: c87c cc3d c3f9 663d 3a7e 223d b4fe 57bb
00000260: ba86 4e3d a57c 1fbd 0f11 bf3c 1a01 13bd
00000270: 9866 103c 1536 373d 23c5 b9bc 2f4c cc3c
00000280: d4fa a73d 529e 633c 3c51 543c 7f2b bc3b
00000290: cd2f 9e3d bab1 04ba d53b 6c3c 225e 38bc

bias f4 [2]
-0.03925511 0.008967416
00000000: f7c9 20bd 12ec 123c
